…
I0211 09:39:11.172049  4595 net.cpp:322] The NetState phase (0) differed from the phase (1) specified by a rule in layer mnist
I0211 09:39:11.172096  4595 net.cpp:322] The NetState phase (0) differed from the phase (1) specified by a rule in layer accuracy
I0211 09:39:11.172344  4595 net.cpp:49] Initializing net from parameters: 
name: "LeNet"
state {
  phase: TRAIN
}
layer {
  name: "mnist"
  type: "Data"
  top: "data"
  top: "label"
  include {
    phase: TRAIN
  }
  transform_param {
    scale: 0.00390625
  }
  data_param {
    source: "examples/mnist/mnist_train_lmdb"
    batch_size: 21
    backend: LMDB
  }
}
layer {
  name: "conv1"
  type: "Convolution"
  bottom: "data"
  top: "conv1"
  param {
    lr_mult: 1
  }
  param {
    lr_mult: 2
  }
  convolution_param {
    num_output: 20
    kernel_size: 5
    stride: 1
    weight_filler {
      type: "xavier"
    }
    bias_filler {
      type: "constant"
    }
  }
}
layer {
  name: "pool1"
  type: "Pooling"
  bottom: "conv1"
  top: "pool1"
  pooling_param {
    pool: MAX
    kernel_size: 2
    stride: 2
  }
}
layer {
  name: "conv2"
  type: "Convolution"
  bottom: "pool1"
  top: "conv2"
  param {
    lr_mult: 1
  }
  param {
    lr_mult: 2
  }
  convolution_param {
    num_output: 50
    kernel_size: 5
    stride: 1
    weight_filler {
      type: "xavier"
    }
    bias_filler {
      type: "constant"
    }
  }
}
layer {
  name: "pool2"
  type: "Pooling"
  bottom: "conv2"
  top: "pool2"
  pooling_param {
    pool: MAX
    kernel_size: 2
    stride: 2
  }
}
layer {
  name: "ip1"
  type: "InnerProduct"
  bottom: "pool2"
  top: "ip1"
  param {
    lr_mult: 1
  }
  param {
    lr_mult: 2
  }
  inner_product_param {
    num_output: 500
    weight_filler {
      type: "xavier"
    }
    bias_filler {
      type: "constant"
    }
  }
}
layer {
  name: "relu1"
  type: "ReLU"
  bottom: "ip1"
  top: "ip1"
}
layer {
  name: "ip2"
  type: "InnerProduct"
  bottom: "ip1"
  top: "ip2"
  param {
    lr_mult: 1
  }
  param {
    lr_mult: 2
  }
  inner_product_param {
    num_output: 10
    weight_filler {
      type: "xavier"
    }
    bias_filler {
      type: "constant"
    }
  }
}
layer {
  name: "loss"
  type: "SoftmaxWithLoss"
  bottom: "ip2"
  bottom: "label"
  top: "loss"
}
I0211 09:39:11.172500  4595 layer_factory.hpp:77] Creating layer mnist
I0211 09:39:11.173952  4595 net.cpp:106] Creating Layer mnist
I0211 09:39:11.173974  4595 net.cpp:411] mnist -> data
I0211 09:39:11.174010  4595 net.cpp:411] mnist -> label
I0211 09:39:11.179802  4602 db_lmdb.cpp:38] Opened lmdb examples/mnist/mnist_train_lmdb
I0211 09:39:11.198508  4595 data_layer.cpp:41] output data size: 21,1,28,28
I0211 09:39:11.199743  4595 net.cpp:150] Setting up mnist
I0211 09:39:11.199769  4595 net.cpp:157] Top shape: 21 1 28 28 (16464)
I0211 09:39:11.199779  4595 net.cpp:157] Top shape: 21 (21)
I0211 09:39:11.199782  4595 net.cpp:165] Memory required for data: 65940
I0211 09:39:11.199795  4595 layer_factory.hpp:77] Creating layer conv1
I0211 09:39:11.199825  4595 net.cpp:106] Creating Layer conv1
I0211 09:39:11.199836  4595 net.cpp:454] conv1 <- data
I0211 09:39:11.199854  4595 net.cpp:411] conv1 -> conv1
I0211 09:39:11.201138  4595 net.cpp:150] Setting up conv1
I0211 09:39:11.201153  4595 net.cpp:157] Top shape: 21 20 24 24 (241920)
I0211 09:39:11.201158  4595 net.cpp:165] Memory required for data: 1033620
I0211 09:39:11.201174  4595 layer_factory.hpp:77] Creating layer pool1
I0211 09:39:11.201190  4595 net.cpp:106] Creating Layer pool1
I0211 09:39:11.201197  4595 net.cpp:454] pool1 <- conv1
I0211 09:39:11.201208  4595 net.cpp:411] pool1 -> pool1
I0211 09:39:11.201416  4595 net.cpp:150] Setting up pool1
I0211 09:39:11.201429  4595 net.cpp:157] Top shape: 21 20 12 12 (60480)
I0211 09:39:11.201434  4595 net.cpp:165] Memory required for data: 1275540
I0211 09:39:11.201441  4595 layer_factory.hpp:77] Creating layer conv2
I0211 09:39:11.201455  4595 net.cpp:106] Creating Layer conv2
I0211 09:39:11.201462  4595 net.cpp:454] conv2 <- pool1
I0211 09:39:11.201472  4595 net.cpp:411] conv2 -> conv2
I0211 09:39:11.201901  4595 net.cpp:150] Setting up conv2
I0211 09:39:11.201915  4595 net.cpp:157] Top shape: 21 50 8 8 (67200)
I0211 09:39:11.201920  4595 net.cpp:165] Memory required for data: 1544340
I0211 09:39:11.201931  4595 layer_factory.hpp:77] Creating layer pool2
I0211 09:39:11.201946  4595 net.cpp:106] Creating Layer pool2
I0211 09:39:11.201951  4595 net.cpp:454] pool2 <- conv2
I0211 09:39:11.201959  4595 net.cpp:411] pool2 -> pool2
I0211 09:39:11.202106  4595 net.cpp:150] Setting up pool2
I0211 09:39:11.202118  4595 net.cpp:157] Top shape: 21 50 4 4 (16800)
I0211 09:39:11.202123  4595 net.cpp:165] Memory required for data: 1611540
I0211 09:39:11.202129  4595 layer_factory.hpp:77] Creating layer ip1
I0211 09:39:11.202143  4595 net.cpp:106] Creating Layer ip1
I0211 09:39:11.202150  4595 net.cpp:454] ip1 <- pool2
I0211 09:39:11.202162  4595 net.cpp:411] ip1 -> ip1
I0211 09:39:11.204501  4603 blocking_queue.cpp:50] Waiting for data
I0211 09:39:11.206683  4595 net.cpp:150] Setting up ip1
I0211 09:39:11.206701  4595 net.cpp:157] Top shape: 21 500 (10500)
I0211 09:39:11.206706  4595 net.cpp:165] Memory required for data: 1653540
I0211 09:39:11.206717  4595 layer_factory.hpp:77] Creating layer relu1
I0211 09:39:11.206725  4595 net.cpp:106] Creating Layer relu1
I0211 09:39:11.206732  4595 net.cpp:454] relu1 <- ip1
I0211 09:39:11.206740  4595 net.cpp:397] relu1 -> ip1 (in-place)
I0211 09:39:11.206753  4595 net.cpp:150] Setting up relu1
I0211 09:39:11.206760  4595 net.cpp:157] Top shape: 21 500 (10500)
I0211 09:39:11.206766  4595 net.cpp:165] Memory required for data: 1695540
I0211 09:39:11.206770  4595 layer_factory.hpp:77] Creating layer ip2
I0211 09:39:11.206779  4595 net.cpp:106] Creating Layer ip2
I0211 09:39:11.206785  4595 net.cpp:454] ip2 <- ip1
I0211 09:39:11.206796  4595 net.cpp:411] ip2 -> ip2
I0211 09:39:11.207660  4595 net.cpp:150] Setting up ip2
I0211 09:39:11.207674  4595 net.cpp:157] Top shape: 21 10 (210)
I0211 09:39:11.207679  4595 net.cpp:165] Memory required for data: 1696380
I0211 09:39:11.207687  4595 layer_factory.hpp:77] Creating layer loss
I0211 09:39:11.207701  4595 net.cpp:106] Creating Layer loss
I0211 09:39:11.207707  4595 net.cpp:454] loss <- ip2
I0211 09:39:11.207715  4595 net.cpp:454] loss <- label
I0211 09:39:11.207725  4595 net.cpp:411] loss -> loss
I0211 09:39:11.207743  4595 layer_factory.hpp:77] Creating layer loss
…
I0211 09:39:11.209056  4595 solver.cpp:181] Creating test net (#0) specified by net file: examples/mnist/lenet_train_test.prototxt
I0211 09:39:11.209095  4595 net.cpp:322] The NetState phase (1) differed from the phase (0) specified by a rule in layer mnist
I0211 09:39:11.209264  4595 net.cpp:49] Initializing net from parameters: 
name: "LeNet"
state {
  phase: TEST
}
layer {
  name: "mnist"
  type: "Data"
  top: "data"
  top: "label"
  include {
    phase: TEST
  }
  transform_param {
    scale: 0.00390625
  }
  data_param {
    source: "examples/mnist/mnist_test_lmdb"
    batch_size: 100
    backend: LMDB
  }
}
layer {
  name: "conv1"
  type: "Convolution"
  bottom: "data"
  top: "conv1"
  param {
    lr_mult: 1
  }
  param {
    lr_mult: 2
  }
  convolution_param {
    num_output: 20
    kernel_size: 5
    stride: 1
    weight_filler {
      type: "xavier"
    }
    bias_filler {
      type: "constant"
    }
  }
}
layer {
  name: "pool1"
  type: "Pooling"
  bottom: "conv1"
  top: "pool1"
  pooling_param {
    pool: MAX
    kernel_size: 2
    stride: 2
  }
}
layer {
  name: "conv2"
  type: "Convolution"
  bottom: "pool1"
  top: "conv2"
  param {
    lr_mult: 1
  }
  param {
    lr_mult: 2
  }
  convolution_param {
    num_output: 50
    kernel_size: 5
    stride: 1
    weight_filler {
      type: "xavier"
    }
    bias_filler {
      type: "constant"
    }
  }
}
layer {
  name: "pool2"
  type: "Pooling"
  bottom: "conv2"
  top: "pool2"
  pooling_param {
    pool: MAX
    kernel_size: 2
    stride: 2
  }
}
layer {
  name: "ip1"
  type: "InnerProduct"
  bottom: "pool2"
  top: "ip1"
  param {
    lr_mult: 1
  }
  param {
    lr_mult: 2
  }
  inner_product_param {
    num_output: 500
    weight_filler {
      type: "xavier"
    }
    bias_filler {
      type: "constant"
    }
  }
}
layer {
  name: "relu1"
  type: "ReLU"
  bottom: "ip1"
  top: "ip1"
}
layer {
  name: "ip2"
  type: "InnerProduct"
  bottom: "ip1"
  top: "ip2"
  param {
    lr_mult: 1
  }
  param {
    lr_mult: 2
  }
  inner_product_param {
    num_output: 10
    weight_filler {
      type: "xavier"
    }
    bias_filler {
      type: "constant"
    }
  }
}
layer {
  name: "accuracy"
  type: "Accuracy"
  bottom: "ip2"
  bottom: "label"
  top: "accuracy"
  include {
    phase: TEST
  }
}
layer {
  name: "loss"
  type: "SoftmaxWithLoss"
  bottom: "ip2"
  bottom: "label"
  top: "loss"
}
I0211 09:39:11.209360  4595 layer_factory.hpp:77] Creating layer mnist
I0211 09:39:11.209990  4595 net.cpp:106] Creating Layer mnist
I0211 09:39:11.210003  4595 net.cpp:411] mnist -> data
I0211 09:39:11.210016  4595 net.cpp:411] mnist -> label
I0211 09:39:11.215718  4604 db_lmdb.cpp:38] Opened lmdb examples/mnist/mnist_test_lmdb
I0211 09:39:11.216133  4595 data_layer.cpp:41] output data size: 100,1,28,28
I0211 09:39:11.217913  4595 net.cpp:150] Setting up mnist
I0211 09:39:11.217936  4595 net.cpp:157] Top shape: 100 1 28 28 (78400)
I0211 09:39:11.217946  4595 net.cpp:157] Top shape: 100 (100)
I0211 09:39:11.217953  4595 net.cpp:165] Memory required for data: 314000
I0211 09:39:11.217962  4595 layer_factory.hpp:77] Creating layer label_mnist_1_split
I0211 09:39:11.217975  4595 net.cpp:106] Creating Layer label_mnist_1_split
I0211 09:39:11.217984  4595 net.cpp:454] label_mnist_1_split <- label
I0211 09:39:11.218004  4595 net.cpp:411] label_mnist_1_split -> label_mnist_1_split_0
I0211 09:39:11.218020  4595 net.cpp:411] label_mnist_1_split -> label_mnist_1_split_1
I0211 09:39:11.218205  4595 net.cpp:150] Setting up label_mnist_1_split
I0211 09:39:11.218221  4595 net.cpp:157] Top shape: 100 (100)
I0211 09:39:11.218230  4595 net.cpp:157] Top shape: 100 (100)
I0211 09:39:11.218237  4595 net.cpp:165] Memory required for data: 314800
I0211 09:39:11.218246  4595 layer_factory.hpp:77] Creating layer conv1
I0211 09:39:11.218267  4595 net.cpp:106] Creating Layer conv1
I0211 09:39:11.218277  4595 net.cpp:454] conv1 <- data
I0211 09:39:11.218291  4595 net.cpp:411] conv1 -> conv1
I0211 09:39:11.218633  4595 net.cpp:150] Setting up conv1
I0211 09:39:11.218652  4595 net.cpp:157] Top shape: 100 20 24 24 (1152000)
I0211 09:39:11.218659  4595 net.cpp:165] Memory required for data: 4922800
I0211 09:39:11.218675  4595 layer_factory.hpp:77] Creating layer pool1
I0211 09:39:11.218690  4595 net.cpp:106] Creating Layer pool1
I0211 09:39:11.218720  4595 net.cpp:454] pool1 <- conv1
I0211 09:39:11.218735  4595 net.cpp:411] pool1 -> pool1
I0211 09:39:11.218958  4595 net.cpp:150] Setting up pool1
I0211 09:39:11.218974  4595 net.cpp:157] Top shape: 100 20 12 12 (288000)
I0211 09:39:11.218981  4595 net.cpp:165] Memory required for data: 6074800
I0211 09:39:11.218987  4595 layer_factory.hpp:77] Creating layer conv2
I0211 09:39:11.219007  4595 net.cpp:106] Creating Layer conv2
I0211 09:39:11.219017  4595 net.cpp:454] conv2 <- pool1
I0211 09:39:11.219028  4595 net.cpp:411] conv2 -> conv2
I0211 09:39:11.219624  4595 net.cpp:150] Setting up conv2
I0211 09:39:11.219642  4595 net.cpp:157] Top shape: 100 50 8 8 (320000)
I0211 09:39:11.219648  4595 net.cpp:165] Memory required for data: 7354800
I0211 09:39:11.219663  4595 layer_factory.hpp:77] Creating layer pool2
I0211 09:39:11.219681  4595 net.cpp:106] Creating Layer pool2
I0211 09:39:11.219688  4595 net.cpp:454] pool2 <- conv2
I0211 09:39:11.219698  4595 net.cpp:411] pool2 -> pool2
I0211 09:39:11.219908  4595 net.cpp:150] Setting up pool2
I0211 09:39:11.219923  4595 net.cpp:157] Top shape: 100 50 4 4 (80000)
I0211 09:39:11.219930  4595 net.cpp:165] Memory required for data: 7674800
I0211 09:39:11.219936  4595 layer_factory.hpp:77] Creating layer ip1
I0211 09:39:11.219951  4595 net.cpp:106] Creating Layer ip1
I0211 09:39:11.219960  4595 net.cpp:454] ip1 <- pool2
I0211 09:39:11.219970  4595 net.cpp:411] ip1 -> ip1
I0211 09:39:11.225481  4595 net.cpp:150] Setting up ip1
I0211 09:39:11.225497  4595 net.cpp:157] Top shape: 100 500 (50000)
I0211 09:39:11.225502  4595 net.cpp:165] Memory required for data: 7874800
I0211 09:39:11.225513  4595 layer_factory.hpp:77] Creating layer relu1
I0211 09:39:11.225522  4595 net.cpp:106] Creating Layer relu1
I0211 09:39:11.225531  4595 net.cpp:454] relu1 <- ip1
I0211 09:39:11.225538  4595 net.cpp:397] relu1 -> ip1 (in-place)
I0211 09:39:11.225548  4595 net.cpp:150] Setting up relu1
I0211 09:39:11.225556  4595 net.cpp:157] Top shape: 100 500 (50000)
I0211 09:39:11.225560  4595 net.cpp:165] Memory required for data: 8074800
I0211 09:39:11.225565  4595 layer_factory.hpp:77] Creating layer ip2
I0211 09:39:11.225579  4595 net.cpp:106] Creating Layer ip2
I0211 09:39:11.225587  4595 net.cpp:454] ip2 <- ip1
I0211 09:39:11.225597  4595 net.cpp:411] ip2 -> ip2
I0211 09:39:11.225757  4595 net.cpp:150] Setting up ip2
I0211 09:39:11.225770  4595 net.cpp:157] Top shape: 100 10 (1000)
I0211 09:39:11.225775  4595 net.cpp:165] Memory required for data: 8078800
I0211 09:39:11.225783  4595 layer_factory.hpp:77] Creating layer ip2_ip2_0_split
I0211 09:39:11.225791  4595 net.cpp:106] Creating Layer ip2_ip2_0_split
I0211 09:39:11.225797  4595 net.cpp:454] ip2_ip2_0_split <- ip2
I0211 09:39:11.225805  4595 net.cpp:411] ip2_ip2_0_split -> ip2_ip2_0_split_0
I0211 09:39:11.225816  4595 net.cpp:411] ip2_ip2_0_split -> ip2_ip2_0_split_1
I0211 09:39:11.225859  4595 net.cpp:150] Setting up ip2_ip2_0_split
I0211 09:39:11.225869  4595 net.cpp:157] Top shape: 100 10 (1000)
I0211 09:39:11.225877  4595 net.cpp:157] Top shape: 100 10 (1000)
I0211 09:39:11.225881  4595 net.cpp:165] Memory required for data: 8086800
I0211 09:39:11.225886  4595 layer_factory.hpp:77] Creating layer accuracy
I0211 09:39:11.225903  4595 net.cpp:106] Creating Layer accuracy
I0211 09:39:11.225910  4595 net.cpp:454] accuracy <- ip2_ip2_0_split_0
I0211 09:39:11.225916  4595 net.cpp:454] accuracy <- label_mnist_1_split_0
I0211 09:39:11.225927  4595 net.cpp:411] accuracy -> accuracy
…
