…
I0211 09:42:16.560600  4820 net.cpp:322] The NetState phase (0) differed from the phase (1) specified by a rule in layer mnist
I0211 09:42:16.560667  4820 net.cpp:322] The NetState phase (0) differed from the phase (1) specified by a rule in layer accuracy
I0211 09:42:16.560945  4820 net.cpp:49] Initializing net from parameters: 
name: "LeNet"
state {
  phase: TRAIN
}
layer {
  name: "mnist"
  type: "Data"
  top: "data"
  top: "label"
  include {
    phase: TRAIN
  }
  transform_param {
    scale: 0.00390625
  }
  data_param {
    source: "examples/mnist/mnist_train_lmdb"
    batch_size: 32
    backend: LMDB
  }
}
layer {
  name: "conv1"
  type: "Convolution"
  bottom: "data"
  top: "conv1"
  param {
    lr_mult: 1
  }
  param {
    lr_mult: 2
  }
  convolution_param {
    num_output: 20
    kernel_size: 5
    stride: 1
    weight_filler {
      type: "xavier"
    }
    bias_filler {
      type: "constant"
    }
  }
}
layer {
  name: "pool1"
  type: "Pooling"
  bottom: "conv1"
  top: "pool1"
  pooling_param {
    pool: MAX
    kernel_size: 2
    stride: 2
  }
}
layer {
  name: "conv2"
  type: "Convolution"
  bottom: "pool1"
  top: "conv2"
  param {
    lr_mult: 1
  }
  param {
    lr_mult: 2
  }
  convolution_param {
    num_output: 50
    kernel_size: 5
    stride: 1
    weight_filler {
      type: "xavier"
    }
    bias_filler {
      type: "constant"
    }
  }
}
layer {
  name: "pool2"
  type: "Pooling"
  bottom: "conv2"
  top: "pool2"
  pooling_param {
    pool: MAX
    kernel_size: 2
    stride: 2
  }
}
layer {
  name: "ip1"
  type: "InnerProduct"
  bottom: "pool2"
  top: "ip1"
  param {
    lr_mult: 1
  }
  param {
    lr_mult: 2
  }
  inner_product_param {
    num_output: 500
    weight_filler {
      type: "xavier"
    }
    bias_filler {
      type: "constant"
    }
  }
}
layer {
  name: "relu1"
  type: "ReLU"
  bottom: "ip1"
  top: "ip1"
}
layer {
  name: "ip2"
  type: "InnerProduct"
  bottom: "ip1"
  top: "ip2"
  param {
    lr_mult: 1
  }
  param {
    lr_mult: 2
  }
  inner_product_param {
    num_output: 10
    weight_filler {
      type: "xavier"
    }
    bias_filler {
      type: "constant"
    }
  }
}
layer {
  name: "loss"
  type: "SoftmaxWithLoss"
  bottom: "ip2"
  bottom: "label"
  top: "loss"
}
I0211 09:42:16.561121  4820 layer_factory.hpp:77] Creating layer mnist
I0211 09:42:16.562578  4820 net.cpp:106] Creating Layer mnist
I0211 09:42:16.562616  4820 net.cpp:411] mnist -> data
I0211 09:42:16.562755  4820 net.cpp:411] mnist -> label
I0211 09:42:16.568514  4824 db_lmdb.cpp:38] Opened lmdb examples/mnist/mnist_train_lmdb
I0211 09:42:16.589367  4820 data_layer.cpp:41] output data size: 32,1,28,28
I0211 09:42:16.590610  4820 net.cpp:150] Setting up mnist
I0211 09:42:16.590637  4820 net.cpp:157] Top shape: 32 1 28 28 (25088)
I0211 09:42:16.590646  4820 net.cpp:157] Top shape: 32 (32)
I0211 09:42:16.590652  4820 net.cpp:165] Memory required for data: 100480
I0211 09:42:16.590667  4820 layer_factory.hpp:77] Creating layer conv1
I0211 09:42:16.590700  4820 net.cpp:106] Creating Layer conv1
I0211 09:42:16.590713  4820 net.cpp:454] conv1 <- data
I0211 09:42:16.590730  4820 net.cpp:411] conv1 -> conv1
I0211 09:42:16.591979  4820 net.cpp:150] Setting up conv1
I0211 09:42:16.591995  4820 net.cpp:157] Top shape: 32 20 24 24 (368640)
I0211 09:42:16.592000  4820 net.cpp:165] Memory required for data: 1575040
I0211 09:42:16.592016  4820 layer_factory.hpp:77] Creating layer pool1
I0211 09:42:16.592033  4820 net.cpp:106] Creating Layer pool1
I0211 09:42:16.592041  4820 net.cpp:454] pool1 <- conv1
I0211 09:42:16.592048  4820 net.cpp:411] pool1 -> pool1
I0211 09:42:16.592257  4820 net.cpp:150] Setting up pool1
I0211 09:42:16.592272  4820 net.cpp:157] Top shape: 32 20 12 12 (92160)
I0211 09:42:16.592278  4820 net.cpp:165] Memory required for data: 1943680
I0211 09:42:16.592283  4820 layer_factory.hpp:77] Creating layer conv2
I0211 09:42:16.592295  4820 net.cpp:106] Creating Layer conv2
I0211 09:42:16.592301  4820 net.cpp:454] conv2 <- pool1
I0211 09:42:16.592313  4820 net.cpp:411] conv2 -> conv2
I0211 09:42:16.592739  4820 net.cpp:150] Setting up conv2
I0211 09:42:16.592752  4820 net.cpp:157] Top shape: 32 50 8 8 (102400)
I0211 09:42:16.592758  4820 net.cpp:165] Memory required for data: 2353280
I0211 09:42:16.592769  4820 layer_factory.hpp:77] Creating layer pool2
I0211 09:42:16.592782  4820 net.cpp:106] Creating Layer pool2
I0211 09:42:16.592788  4820 net.cpp:454] pool2 <- conv2
I0211 09:42:16.592795  4820 net.cpp:411] pool2 -> pool2
I0211 09:42:16.592939  4820 net.cpp:150] Setting up pool2
I0211 09:42:16.592950  4820 net.cpp:157] Top shape: 32 50 4 4 (25600)
I0211 09:42:16.592955  4820 net.cpp:165] Memory required for data: 2455680
I0211 09:42:16.592960  4820 layer_factory.hpp:77] Creating layer ip1
I0211 09:42:16.592978  4820 net.cpp:106] Creating Layer ip1
I0211 09:42:16.592984  4820 net.cpp:454] ip1 <- pool2
I0211 09:42:16.592993  4820 net.cpp:411] ip1 -> ip1
I0211 09:42:16.594571  4825 blocking_queue.cpp:50] Waiting for data
I0211 09:42:16.597497  4820 net.cpp:150] Setting up ip1
I0211 09:42:16.597515  4820 net.cpp:157] Top shape: 32 500 (16000)
I0211 09:42:16.597519  4820 net.cpp:165] Memory required for data: 2519680
I0211 09:42:16.597532  4820 layer_factory.hpp:77] Creating layer relu1
I0211 09:42:16.597544  4820 net.cpp:106] Creating Layer relu1
I0211 09:42:16.597550  4820 net.cpp:454] relu1 <- ip1
I0211 09:42:16.597558  4820 net.cpp:397] relu1 -> ip1 (in-place)
I0211 09:42:16.597569  4820 net.cpp:150] Setting up relu1
I0211 09:42:16.597576  4820 net.cpp:157] Top shape: 32 500 (16000)
I0211 09:42:16.597582  4820 net.cpp:165] Memory required for data: 2583680
I0211 09:42:16.597587  4820 layer_factory.hpp:77] Creating layer ip2
I0211 09:42:16.597596  4820 net.cpp:106] Creating Layer ip2
I0211 09:42:16.597602  4820 net.cpp:454] ip2 <- ip1
I0211 09:42:16.597612  4820 net.cpp:411] ip2 -> ip2
I0211 09:42:16.598505  4820 net.cpp:150] Setting up ip2
I0211 09:42:16.598517  4820 net.cpp:157] Top shape: 32 10 (320)
I0211 09:42:16.598522  4820 net.cpp:165] Memory required for data: 2584960
I0211 09:42:16.598532  4820 layer_factory.hpp:77] Creating layer loss
I0211 09:42:16.598546  4820 net.cpp:106] Creating Layer loss
I0211 09:42:16.598551  4820 net.cpp:454] loss <- ip2
I0211 09:42:16.598558  4820 net.cpp:454] loss <- label
I0211 09:42:16.598567  4820 net.cpp:411] loss -> loss
I0211 09:42:16.598587  4820 layer_factory.hpp:77] Creating layer loss
…
I0211 09:42:16.600127  4820 solver.cpp:181] Creating test net (#0) specified by net file: examples/mnist/lenet_train_test.prototxt
I0211 09:42:16.600170  4820 net.cpp:322] The NetState phase (1) differed from the phase (0) specified by a rule in layer mnist
I0211 09:42:16.600347  4820 net.cpp:49] Initializing net from parameters: 
name: "LeNet"
state {
  phase: TEST
}
layer {
  name: "mnist"
  type: "Data"
  top: "data"
  top: "label"
  include {
    phase: TEST
  }
  transform_param {
    scale: 0.00390625
  }
  data_param {
    source: "examples/mnist/mnist_test_lmdb"
    batch_size: 100
    backend: LMDB
  }
}
layer {
  name: "conv1"
  type: "Convolution"
  bottom: "data"
  top: "conv1"
  param {
    lr_mult: 1
  }
  param {
    lr_mult: 2
  }
  convolution_param {
    num_output: 20
    kernel_size: 5
    stride: 1
    weight_filler {
      type: "xavier"
    }
    bias_filler {
      type: "constant"
    }
  }
}
layer {
  name: "pool1"
  type: "Pooling"
  bottom: "conv1"
  top: "pool1"
  pooling_param {
    pool: MAX
    kernel_size: 2
    stride: 2
  }
}
layer {
  name: "conv2"
  type: "Convolution"
  bottom: "pool1"
  top: "conv2"
  param {
    lr_mult: 1
  }
  param {
    lr_mult: 2
  }
  convolution_param {
    num_output: 50
    kernel_size: 5
    stride: 1
    weight_filler {
      type: "xavier"
    }
    bias_filler {
      type: "constant"
    }
  }
}
layer {
  name: "pool2"
  type: "Pooling"
  bottom: "conv2"
  top: "pool2"
  pooling_param {
    pool: MAX
    kernel_size: 2
    stride: 2
  }
}
layer {
  name: "ip1"
  type: "InnerProduct"
  bottom: "pool2"
  top: "ip1"
  param {
    lr_mult: 1
  }
  param {
    lr_mult: 2
  }
  inner_product_param {
    num_output: 500
    weight_filler {
      type: "xavier"
    }
    bias_filler {
      type: "constant"
    }
  }
}
layer {
  name: "relu1"
  type: "ReLU"
  bottom: "ip1"
  top: "ip1"
}
layer {
  name: "ip2"
  type: "InnerProduct"
  bottom: "ip1"
  top: "ip2"
  param {
    lr_mult: 1
  }
  param {
    lr_mult: 2
  }
  inner_product_param {
    num_output: 10
    weight_filler {
      type: "xavier"
    }
    bias_filler {
      type: "constant"
    }
  }
}
layer {
  name: "accuracy"
  type: "Accuracy"
  bottom: "ip2"
  bottom: "label"
  top: "accuracy"
  include {
    phase: TEST
  }
}
layer {
  name: "loss"
  type: "SoftmaxWithLoss"
  bottom: "ip2"
  bottom: "label"
  top: "loss"
}
I0211 09:42:16.600452  4820 layer_factory.hpp:77] Creating layer mnist
I0211 09:42:16.600595  4820 net.cpp:106] Creating Layer mnist
I0211 09:42:16.600610  4820 net.cpp:411] mnist -> data
I0211 09:42:16.600630  4820 net.cpp:411] mnist -> label
I0211 09:42:16.604799  4826 db_lmdb.cpp:38] Opened lmdb examples/mnist/mnist_test_lmdb
I0211 09:42:16.605192  4820 data_layer.cpp:41] output data size: 100,1,28,28
I0211 09:42:16.606886  4820 net.cpp:150] Setting up mnist
I0211 09:42:16.606907  4820 net.cpp:157] Top shape: 100 1 28 28 (78400)
I0211 09:42:16.606915  4820 net.cpp:157] Top shape: 100 (100)
I0211 09:42:16.606921  4820 net.cpp:165] Memory required for data: 314000
I0211 09:42:16.606930  4820 layer_factory.hpp:77] Creating layer label_mnist_1_split
I0211 09:42:16.606943  4820 net.cpp:106] Creating Layer label_mnist_1_split
I0211 09:42:16.606955  4820 net.cpp:454] label_mnist_1_split <- label
I0211 09:42:16.606972  4820 net.cpp:411] label_mnist_1_split -> label_mnist_1_split_0
I0211 09:42:16.606987  4820 net.cpp:411] label_mnist_1_split -> label_mnist_1_split_1
I0211 09:42:16.607242  4820 net.cpp:150] Setting up label_mnist_1_split
I0211 09:42:16.607259  4820 net.cpp:157] Top shape: 100 (100)
I0211 09:42:16.607266  4820 net.cpp:157] Top shape: 100 (100)
I0211 09:42:16.607273  4820 net.cpp:165] Memory required for data: 314800
I0211 09:42:16.607281  4820 layer_factory.hpp:77] Creating layer conv1
I0211 09:42:16.607301  4820 net.cpp:106] Creating Layer conv1
I0211 09:42:16.607311  4820 net.cpp:454] conv1 <- data
I0211 09:42:16.607322  4820 net.cpp:411] conv1 -> conv1
I0211 09:42:16.607653  4820 net.cpp:150] Setting up conv1
I0211 09:42:16.607671  4820 net.cpp:157] Top shape: 100 20 24 24 (1152000)
I0211 09:42:16.607678  4820 net.cpp:165] Memory required for data: 4922800
I0211 09:42:16.607693  4820 layer_factory.hpp:77] Creating layer pool1
I0211 09:42:16.607728  4820 net.cpp:106] Creating Layer pool1
I0211 09:42:16.607738  4820 net.cpp:454] pool1 <- conv1
I0211 09:42:16.607748  4820 net.cpp:411] pool1 -> pool1
I0211 09:42:16.607942  4820 net.cpp:150] Setting up pool1
I0211 09:42:16.607957  4820 net.cpp:157] Top shape: 100 20 12 12 (288000)
I0211 09:42:16.607962  4820 net.cpp:165] Memory required for data: 6074800
I0211 09:42:16.607969  4820 layer_factory.hpp:77] Creating layer conv2
I0211 09:42:16.607987  4820 net.cpp:106] Creating Layer conv2
I0211 09:42:16.607995  4820 net.cpp:454] conv2 <- pool1
I0211 09:42:16.608011  4820 net.cpp:411] conv2 -> conv2
I0211 09:42:16.608562  4820 net.cpp:150] Setting up conv2
I0211 09:42:16.608578  4820 net.cpp:157] Top shape: 100 50 8 8 (320000)
I0211 09:42:16.608585  4820 net.cpp:165] Memory required for data: 7354800
I0211 09:42:16.608598  4820 layer_factory.hpp:77] Creating layer pool2
I0211 09:42:16.608618  4820 net.cpp:106] Creating Layer pool2
I0211 09:42:16.608633  4820 net.cpp:454] pool2 <- conv2
I0211 09:42:16.608645  4820 net.cpp:411] pool2 -> pool2
I0211 09:42:16.608853  4820 net.cpp:150] Setting up pool2
I0211 09:42:16.608873  4820 net.cpp:157] Top shape: 100 50 4 4 (80000)
I0211 09:42:16.608881  4820 net.cpp:165] Memory required for data: 7674800
I0211 09:42:16.608889  4820 layer_factory.hpp:77] Creating layer ip1
I0211 09:42:16.608901  4820 net.cpp:106] Creating Layer ip1
I0211 09:42:16.608909  4820 net.cpp:454] ip1 <- pool2
I0211 09:42:16.608921  4820 net.cpp:411] ip1 -> ip1
I0211 09:42:16.615039  4820 net.cpp:150] Setting up ip1
I0211 09:42:16.615061  4820 net.cpp:157] Top shape: 100 500 (50000)
I0211 09:42:16.615068  4820 net.cpp:165] Memory required for data: 7874800
I0211 09:42:16.615085  4820 layer_factory.hpp:77] Creating layer relu1
I0211 09:42:16.615099  4820 net.cpp:106] Creating Layer relu1
I0211 09:42:16.615109  4820 net.cpp:454] relu1 <- ip1
I0211 09:42:16.615125  4820 net.cpp:397] relu1 -> ip1 (in-place)
I0211 09:42:16.615140  4820 net.cpp:150] Setting up relu1
I0211 09:42:16.615151  4820 net.cpp:157] Top shape: 100 500 (50000)
I0211 09:42:16.615159  4820 net.cpp:165] Memory required for data: 8074800
I0211 09:42:16.615169  4820 layer_factory.hpp:77] Creating layer ip2
I0211 09:42:16.615183  4820 net.cpp:106] Creating Layer ip2
I0211 09:42:16.615191  4820 net.cpp:454] ip2 <- ip1
I0211 09:42:16.615207  4820 net.cpp:411] ip2 -> ip2
I0211 09:42:16.615437  4820 net.cpp:150] Setting up ip2
I0211 09:42:16.615453  4820 net.cpp:157] Top shape: 100 10 (1000)
I0211 09:42:16.615461  4820 net.cpp:165] Memory required for data: 8078800
I0211 09:42:16.615474  4820 layer_factory.hpp:77] Creating layer ip2_ip2_0_split
I0211 09:42:16.615490  4820 net.cpp:106] Creating Layer ip2_ip2_0_split
I0211 09:42:16.615499  4820 net.cpp:454] ip2_ip2_0_split <- ip2
I0211 09:42:16.615511  4820 net.cpp:411] ip2_ip2_0_split -> ip2_ip2_0_split_0
I0211 09:42:16.615528  4820 net.cpp:411] ip2_ip2_0_split -> ip2_ip2_0_split_1
I0211 09:42:16.615586  4820 net.cpp:150] Setting up ip2_ip2_0_split
I0211 09:42:16.615599  4820 net.cpp:157] Top shape: 100 10 (1000)
I0211 09:42:16.615609  4820 net.cpp:157] Top shape: 100 10 (1000)
I0211 09:42:16.615625  4820 net.cpp:165] Memory required for data: 8086800
I0211 09:42:16.615634  4820 layer_factory.hpp:77] Creating layer accuracy
I0211 09:42:16.615659  4820 net.cpp:106] Creating Layer accuracy
I0211 09:42:16.615669  4820 net.cpp:454] accuracy <- ip2_ip2_0_split_0
I0211 09:42:16.615677  4820 net.cpp:454] accuracy <- label_mnist_1_split_0
I0211 09:42:16.615687  4820 net.cpp:411] accuracy -> accuracy
…
