…
I0211 09:46:00.883610  4966 net.cpp:322] The NetState phase (0) differed from the phase (1) specified by a rule in layer mnist
I0211 09:46:00.883693  4966 net.cpp:322] The NetState phase (0) differed from the phase (1) specified by a rule in layer accuracy
I0211 09:46:00.883970  4966 net.cpp:49] Initializing net from parameters: 
name: "LeNet"
state {
  phase: TRAIN
}
layer {
  name: "mnist"
  type: "Data"
  top: "data"
  top: "label"
  include {
    phase: TRAIN
  }
  transform_param {
    scale: 0.00390625
  }
  data_param {
    source: "examples/mnist/mnist_train_lmdb"
    batch_size: 64
    backend: LMDB
  }
}
layer {
  name: "conv1"
  type: "Convolution"
  bottom: "data"
  top: "conv1"
  param {
    lr_mult: 1
  }
  param {
    lr_mult: 2
  }
  convolution_param {
    num_output: 20
    kernel_size: 5
    stride: 1
    weight_filler {
      type: "xavier"
    }
    bias_filler {
      type: "constant"
    }
  }
}
layer {
  name: "pool1"
  type: "Pooling"
  bottom: "conv1"
  top: "pool1"
  pooling_param {
    pool: MAX
    kernel_size: 2
    stride: 2
  }
}
layer {
  name: "conv2"
  type: "Convolution"
  bottom: "pool1"
  top: "conv2"
  param {
    lr_mult: 1
  }
  param {
    lr_mult: 2
  }
  convolution_param {
    num_output: 50
    kernel_size: 5
    stride: 1
    weight_filler {
      type: "xavier"
    }
    bias_filler {
      type: "constant"
    }
  }
}
layer {
  name: "pool2"
  type: "Pooling"
  bottom: "conv2"
  top: "pool2"
  pooling_param {
    pool: MAX
    kernel_size: 2
    stride: 2
  }
}
layer {
  name: "ip1"
  type: "InnerProduct"
  bottom: "pool2"
  top: "ip1"
  param {
    lr_mult: 1
  }
  param {
    lr_mult: 2
  }
  inner_product_param {
    num_output: 500
    weight_filler {
      type: "xavier"
    }
    bias_filler {
      type: "constant"
    }
  }
}
layer {
  name: "relu1"
  type: "ReLU"
  bottom: "ip1"
  top: "ip1"
}
layer {
  name: "ip2"
  type: "InnerProduct"
  bottom: "ip1"
  top: "ip2"
  param {
    lr_mult: 1
  }
  param {
    lr_mult: 2
  }
  inner_product_param {
    num_output: 10
    weight_filler {
      type: "xavier"
    }
    bias_filler {
      type: "constant"
    }
  }
}
layer {
  name: "loss"
  type: "SoftmaxWithLoss"
  bottom: "ip2"
  bottom: "label"
  top: "loss"
}
I0211 09:46:00.884141  4966 layer_factory.hpp:77] Creating layer mnist
I0211 09:46:00.886607  4966 net.cpp:106] Creating Layer mnist
I0211 09:46:00.886658  4966 net.cpp:411] mnist -> data
I0211 09:46:00.886811  4966 net.cpp:411] mnist -> label
I0211 09:46:00.892350  4970 db_lmdb.cpp:38] Opened lmdb examples/mnist/mnist_train_lmdb
I0211 09:46:00.911684  4966 data_layer.cpp:41] output data size: 64,1,28,28
I0211 09:46:00.912971  4966 net.cpp:150] Setting up mnist
I0211 09:46:00.912994  4966 net.cpp:157] Top shape: 64 1 28 28 (50176)
I0211 09:46:00.913003  4966 net.cpp:157] Top shape: 64 (64)
I0211 09:46:00.913007  4966 net.cpp:165] Memory required for data: 200960
I0211 09:46:00.913022  4966 layer_factory.hpp:77] Creating layer conv1
I0211 09:46:00.913053  4966 net.cpp:106] Creating Layer conv1
I0211 09:46:00.913065  4966 net.cpp:454] conv1 <- data
I0211 09:46:00.913085  4966 net.cpp:411] conv1 -> conv1
I0211 09:46:00.914348  4966 net.cpp:150] Setting up conv1
I0211 09:46:00.914363  4966 net.cpp:157] Top shape: 64 20 24 24 (737280)
I0211 09:46:00.914368  4966 net.cpp:165] Memory required for data: 3150080
I0211 09:46:00.914386  4966 layer_factory.hpp:77] Creating layer pool1
I0211 09:46:00.914402  4966 net.cpp:106] Creating Layer pool1
I0211 09:46:00.914408  4966 net.cpp:454] pool1 <- conv1
I0211 09:46:00.914420  4966 net.cpp:411] pool1 -> pool1
I0211 09:46:00.914633  4966 net.cpp:150] Setting up pool1
I0211 09:46:00.914645  4966 net.cpp:157] Top shape: 64 20 12 12 (184320)
I0211 09:46:00.914649  4966 net.cpp:165] Memory required for data: 3887360
I0211 09:46:00.914655  4966 layer_factory.hpp:77] Creating layer conv2
I0211 09:46:00.914670  4966 net.cpp:106] Creating Layer conv2
I0211 09:46:00.914677  4966 net.cpp:454] conv2 <- pool1
I0211 09:46:00.914686  4966 net.cpp:411] conv2 -> conv2
I0211 09:46:00.915105  4966 net.cpp:150] Setting up conv2
I0211 09:46:00.915119  4966 net.cpp:157] Top shape: 64 50 8 8 (204800)
I0211 09:46:00.915124  4966 net.cpp:165] Memory required for data: 4706560
I0211 09:46:00.915137  4966 layer_factory.hpp:77] Creating layer pool2
I0211 09:46:00.915149  4966 net.cpp:106] Creating Layer pool2
I0211 09:46:00.915156  4966 net.cpp:454] pool2 <- conv2
I0211 09:46:00.915168  4966 net.cpp:411] pool2 -> pool2
I0211 09:46:00.915318  4966 net.cpp:150] Setting up pool2
I0211 09:46:00.915328  4966 net.cpp:157] Top shape: 64 50 4 4 (51200)
I0211 09:46:00.915334  4966 net.cpp:165] Memory required for data: 4911360
I0211 09:46:00.915340  4966 layer_factory.hpp:77] Creating layer ip1
I0211 09:46:00.915356  4966 net.cpp:106] Creating Layer ip1
I0211 09:46:00.915364  4966 net.cpp:454] ip1 <- pool2
I0211 09:46:00.915374  4966 net.cpp:411] ip1 -> ip1
I0211 09:46:00.917695  4971 blocking_queue.cpp:50] Waiting for data
I0211 09:46:00.919878  4966 net.cpp:150] Setting up ip1
I0211 09:46:00.919894  4966 net.cpp:157] Top shape: 64 500 (32000)
I0211 09:46:00.919898  4966 net.cpp:165] Memory required for data: 5039360
I0211 09:46:00.919910  4966 layer_factory.hpp:77] Creating layer relu1
I0211 09:46:00.919920  4966 net.cpp:106] Creating Layer relu1
I0211 09:46:00.919925  4966 net.cpp:454] relu1 <- ip1
I0211 09:46:00.919932  4966 net.cpp:397] relu1 -> ip1 (in-place)
I0211 09:46:00.919945  4966 net.cpp:150] Setting up relu1
I0211 09:46:00.919952  4966 net.cpp:157] Top shape: 64 500 (32000)
I0211 09:46:00.919958  4966 net.cpp:165] Memory required for data: 5167360
I0211 09:46:00.919963  4966 layer_factory.hpp:77] Creating layer ip2
I0211 09:46:00.919975  4966 net.cpp:106] Creating Layer ip2
I0211 09:46:00.919982  4966 net.cpp:454] ip2 <- ip1
I0211 09:46:00.919993  4966 net.cpp:411] ip2 -> ip2
I0211 09:46:00.920876  4966 net.cpp:150] Setting up ip2
I0211 09:46:00.920891  4966 net.cpp:157] Top shape: 64 10 (640)
I0211 09:46:00.920894  4966 net.cpp:165] Memory required for data: 5169920
I0211 09:46:00.920903  4966 layer_factory.hpp:77] Creating layer loss
I0211 09:46:00.920914  4966 net.cpp:106] Creating Layer loss
I0211 09:46:00.920920  4966 net.cpp:454] loss <- ip2
I0211 09:46:00.920928  4966 net.cpp:454] loss <- label
I0211 09:46:00.920938  4966 net.cpp:411] loss -> loss
I0211 09:46:00.920958  4966 layer_factory.hpp:77] Creating layer loss
…
I0211 09:46:00.922247  4966 solver.cpp:181] Creating test net (#0) specified by net file: examples/mnist/lenet_train_test.prototxt
I0211 09:46:00.922287  4966 net.cpp:322] The NetState phase (1) differed from the phase (0) specified by a rule in layer mnist
I0211 09:46:00.922466  4966 net.cpp:49] Initializing net from parameters: 
name: "LeNet"
state {
  phase: TEST
}
layer {
  name: "mnist"
  type: "Data"
  top: "data"
  top: "label"
  include {
    phase: TEST
  }
  transform_param {
    scale: 0.00390625
  }
  data_param {
    source: "examples/mnist/mnist_test_lmdb"
    batch_size: 100
    backend: LMDB
  }
}
layer {
  name: "conv1"
  type: "Convolution"
  bottom: "data"
  top: "conv1"
  param {
    lr_mult: 1
  }
  param {
    lr_mult: 2
  }
  convolution_param {
    num_output: 20
    kernel_size: 5
    stride: 1
    weight_filler {
      type: "xavier"
    }
    bias_filler {
      type: "constant"
    }
  }
}
layer {
  name: "pool1"
  type: "Pooling"
  bottom: "conv1"
  top: "pool1"
  pooling_param {
    pool: MAX
    kernel_size: 2
    stride: 2
  }
}
layer {
  name: "conv2"
  type: "Convolution"
  bottom: "pool1"
  top: "conv2"
  param {
    lr_mult: 1
  }
  param {
    lr_mult: 2
  }
  convolution_param {
    num_output: 50
    kernel_size: 5
    stride: 1
    weight_filler {
      type: "xavier"
    }
    bias_filler {
      type: "constant"
    }
  }
}
layer {
  name: "pool2"
  type: "Pooling"
  bottom: "conv2"
  top: "pool2"
  pooling_param {
    pool: MAX
    kernel_size: 2
    stride: 2
  }
}
layer {
  name: "ip1"
  type: "InnerProduct"
  bottom: "pool2"
  top: "ip1"
  param {
    lr_mult: 1
  }
  param {
    lr_mult: 2
  }
  inner_product_param {
    num_output: 500
    weight_filler {
      type: "xavier"
    }
    bias_filler {
      type: "constant"
    }
  }
}
layer {
  name: "relu1"
  type: "ReLU"
  bottom: "ip1"
  top: "ip1"
}
layer {
  name: "ip2"
  type: "InnerProduct"
  bottom: "ip1"
  top: "ip2"
  param {
    lr_mult: 1
  }
  param {
    lr_mult: 2
  }
  inner_product_param {
    num_output: 10
    weight_filler {
      type: "xavier"
    }
    bias_filler {
      type: "constant"
    }
  }
}
layer {
  name: "accuracy"
  type: "Accuracy"
  bottom: "ip2"
  bottom: "label"
  top: "accuracy"
  include {
    phase: TEST
  }
}
layer {
  name: "loss"
  type: "SoftmaxWithLoss"
  bottom: "ip2"
  bottom: "label"
  top: "loss"
}
I0211 09:46:00.922567  4966 layer_factory.hpp:77] Creating layer mnist
I0211 09:46:00.922722  4966 net.cpp:106] Creating Layer mnist
I0211 09:46:00.922735  4966 net.cpp:411] mnist -> data
I0211 09:46:00.922747  4966 net.cpp:411] mnist -> label
I0211 09:46:00.927703  4972 db_lmdb.cpp:38] Opened lmdb examples/mnist/mnist_test_lmdb
I0211 09:46:00.928046  4966 data_layer.cpp:41] output data size: 100,1,28,28
I0211 09:46:00.929464  4966 net.cpp:150] Setting up mnist
I0211 09:46:00.929481  4966 net.cpp:157] Top shape: 100 1 28 28 (78400)
I0211 09:46:00.929487  4966 net.cpp:157] Top shape: 100 (100)
I0211 09:46:00.929491  4966 net.cpp:165] Memory required for data: 314000
I0211 09:46:00.929497  4966 layer_factory.hpp:77] Creating layer label_mnist_1_split
I0211 09:46:00.929507  4966 net.cpp:106] Creating Layer label_mnist_1_split
I0211 09:46:00.929513  4966 net.cpp:454] label_mnist_1_split <- label
I0211 09:46:00.929522  4966 net.cpp:411] label_mnist_1_split -> label_mnist_1_split_0
I0211 09:46:00.929536  4966 net.cpp:411] label_mnist_1_split -> label_mnist_1_split_1
I0211 09:46:00.929591  4966 net.cpp:150] Setting up label_mnist_1_split
I0211 09:46:00.929602  4966 net.cpp:157] Top shape: 100 (100)
I0211 09:46:00.929608  4966 net.cpp:157] Top shape: 100 (100)
I0211 09:46:00.929612  4966 net.cpp:165] Memory required for data: 314800
I0211 09:46:00.929617  4966 layer_factory.hpp:77] Creating layer conv1
I0211 09:46:00.929641  4966 net.cpp:106] Creating Layer conv1
I0211 09:46:00.929647  4966 net.cpp:454] conv1 <- data
I0211 09:46:00.929659  4966 net.cpp:411] conv1 -> conv1
I0211 09:46:00.930162  4966 net.cpp:150] Setting up conv1
I0211 09:46:00.930176  4966 net.cpp:157] Top shape: 100 20 24 24 (1152000)
I0211 09:46:00.930181  4966 net.cpp:165] Memory required for data: 4922800
I0211 09:46:00.930194  4966 layer_factory.hpp:77] Creating layer pool1
I0211 09:46:00.930223  4966 net.cpp:106] Creating Layer pool1
I0211 09:46:00.930230  4966 net.cpp:454] pool1 <- conv1
I0211 09:46:00.930238  4966 net.cpp:411] pool1 -> pool1
I0211 09:46:00.930399  4966 net.cpp:150] Setting up pool1
I0211 09:46:00.930411  4966 net.cpp:157] Top shape: 100 20 12 12 (288000)
I0211 09:46:00.930416  4966 net.cpp:165] Memory required for data: 6074800
I0211 09:46:00.930423  4966 layer_factory.hpp:77] Creating layer conv2
I0211 09:46:00.930438  4966 net.cpp:106] Creating Layer conv2
I0211 09:46:00.930444  4966 net.cpp:454] conv2 <- pool1
I0211 09:46:00.930454  4966 net.cpp:411] conv2 -> conv2
I0211 09:46:00.930892  4966 net.cpp:150] Setting up conv2
I0211 09:46:00.930905  4966 net.cpp:157] Top shape: 100 50 8 8 (320000)
I0211 09:46:00.930912  4966 net.cpp:165] Memory required for data: 7354800
I0211 09:46:00.930922  4966 layer_factory.hpp:77] Creating layer pool2
I0211 09:46:00.930935  4966 net.cpp:106] Creating Layer pool2
I0211 09:46:00.930941  4966 net.cpp:454] pool2 <- conv2
I0211 09:46:00.930951  4966 net.cpp:411] pool2 -> pool2
I0211 09:46:00.931099  4966 net.cpp:150] Setting up pool2
I0211 09:46:00.931110  4966 net.cpp:157] Top shape: 100 50 4 4 (80000)
I0211 09:46:00.931116  4966 net.cpp:165] Memory required for data: 7674800
I0211 09:46:00.931120  4966 layer_factory.hpp:77] Creating layer ip1
I0211 09:46:00.931129  4966 net.cpp:106] Creating Layer ip1
I0211 09:46:00.931134  4966 net.cpp:454] ip1 <- pool2
I0211 09:46:00.931145  4966 net.cpp:411] ip1 -> ip1
I0211 09:46:00.937119  4966 net.cpp:150] Setting up ip1
I0211 09:46:00.937152  4966 net.cpp:157] Top shape: 100 500 (50000)
I0211 09:46:00.937162  4966 net.cpp:165] Memory required for data: 7874800
I0211 09:46:00.937182  4966 layer_factory.hpp:77] Creating layer relu1
I0211 09:46:00.937203  4966 net.cpp:106] Creating Layer relu1
I0211 09:46:00.937217  4966 net.cpp:454] relu1 <- ip1
I0211 09:46:00.937232  4966 net.cpp:397] relu1 -> ip1 (in-place)
I0211 09:46:00.937248  4966 net.cpp:150] Setting up relu1
I0211 09:46:00.937261  4966 net.cpp:157] Top shape: 100 500 (50000)
I0211 09:46:00.937270  4966 net.cpp:165] Memory required for data: 8074800
I0211 09:46:00.937280  4966 layer_factory.hpp:77] Creating layer ip2
I0211 09:46:00.937299  4966 net.cpp:106] Creating Layer ip2
I0211 09:46:00.937309  4966 net.cpp:454] ip2 <- ip1
I0211 09:46:00.937328  4966 net.cpp:411] ip2 -> ip2
I0211 09:46:00.937593  4966 net.cpp:150] Setting up ip2
I0211 09:46:00.937613  4966 net.cpp:157] Top shape: 100 10 (1000)
I0211 09:46:00.937629  4966 net.cpp:165] Memory required for data: 8078800
I0211 09:46:00.937645  4966 layer_factory.hpp:77] Creating layer ip2_ip2_0_split
I0211 09:46:00.937660  4966 net.cpp:106] Creating Layer ip2_ip2_0_split
I0211 09:46:00.937670  4966 net.cpp:454] ip2_ip2_0_split <- ip2
I0211 09:46:00.937683  4966 net.cpp:411] ip2_ip2_0_split -> ip2_ip2_0_split_0
I0211 09:46:00.937700  4966 net.cpp:411] ip2_ip2_0_split -> ip2_ip2_0_split_1
I0211 09:46:00.937768  4966 net.cpp:150] Setting up ip2_ip2_0_split
I0211 09:46:00.937789  4966 net.cpp:157] Top shape: 100 10 (1000)
I0211 09:46:00.937803  4966 net.cpp:157] Top shape: 100 10 (1000)
I0211 09:46:00.937811  4966 net.cpp:165] Memory required for data: 8086800
I0211 09:46:00.937821  4966 layer_factory.hpp:77] Creating layer accuracy
I0211 09:46:00.937842  4966 net.cpp:106] Creating Layer accuracy
I0211 09:46:00.937854  4966 net.cpp:454] accuracy <- ip2_ip2_0_split_0
I0211 09:46:00.937865  4966 net.cpp:454] accuracy <- label_mnist_1_split_0
I0211 09:46:00.937880  4966 net.cpp:411] accuracy -> accuracy
…
