…
I0211 09:35:45.660984  4436 net.cpp:322] The NetState phase (0) differed from the phase (1) specified by a rule in layer mnist
I0211 09:35:45.661036  4436 net.cpp:322] The NetState phase (0) differed from the phase (1) specified by a rule in layer accuracy
I0211 09:35:45.661301  4436 net.cpp:49] Initializing net from parameters: 
name: "LeNet"
state {
  phase: TRAIN
}
layer {
  name: "mnist"
  type: "Data"
  top: "data"
  top: "label"
  include {
    phase: TRAIN
  }
  transform_param {
    scale: 0.00390625
  }
  data_param {
    source: "examples/mnist/mnist_train_lmdb"
    batch_size: 16
    backend: LMDB
  }
}
layer {
  name: "conv1"
  type: "Convolution"
  bottom: "data"
  top: "conv1"
  param {
    lr_mult: 1
  }
  param {
    lr_mult: 2
  }
  convolution_param {
    num_output: 20
    kernel_size: 5
    stride: 1
    weight_filler {
      type: "xavier"
    }
    bias_filler {
      type: "constant"
    }
  }
}
layer {
  name: "pool1"
  type: "Pooling"
  bottom: "conv1"
  top: "pool1"
  pooling_param {
    pool: MAX
    kernel_size: 2
    stride: 2
  }
}
layer {
  name: "conv2"
  type: "Convolution"
  bottom: "pool1"
  top: "conv2"
  param {
    lr_mult: 1
  }
  param {
    lr_mult: 2
  }
  convolution_param {
    num_output: 50
    kernel_size: 5
    stride: 1
    weight_filler {
      type: "xavier"
    }
    bias_filler {
      type: "constant"
    }
  }
}
layer {
  name: "pool2"
  type: "Pooling"
  bottom: "conv2"
  top: "pool2"
  pooling_param {
    pool: MAX
    kernel_size: 2
    stride: 2
  }
}
layer {
  name: "ip1"
  type: "InnerProduct"
  bottom: "pool2"
  top: "ip1"
  param {
    lr_mult: 1
  }
  param {
    lr_mult: 2
  }
  inner_product_param {
    num_output: 500
    weight_filler {
      type: "xavier"
    }
    bias_filler {
      type: "constant"
    }
  }
}
layer {
  name: "relu1"
  type: "ReLU"
  bottom: "ip1"
  top: "ip1"
}
layer {
  name: "ip2"
  type: "InnerProduct"
  bottom: "ip1"
  top: "ip2"
  param {
    lr_mult: 1
  }
  param {
    lr_mult: 2
  }
  inner_product_param {
    num_output: 10
    weight_filler {
      type: "xavier"
    }
    bias_filler {
      type: "constant"
    }
  }
}
layer {
  name: "loss"
  type: "SoftmaxWithLoss"
  bottom: "ip2"
  bottom: "label"
  top: "loss"
}
I0211 09:35:45.661461  4436 layer_factory.hpp:77] Creating layer mnist
I0211 09:35:45.662785  4436 net.cpp:106] Creating Layer mnist
I0211 09:35:45.662813  4436 net.cpp:411] mnist -> data
I0211 09:35:45.662852  4436 net.cpp:411] mnist -> label
I0211 09:35:45.668647  4441 db_lmdb.cpp:38] Opened lmdb examples/mnist/mnist_train_lmdb
I0211 09:35:45.686805  4436 data_layer.cpp:41] output data size: 16,1,28,28
I0211 09:35:45.687868  4436 net.cpp:150] Setting up mnist
I0211 09:35:45.687896  4436 net.cpp:157] Top shape: 16 1 28 28 (12544)
I0211 09:35:45.687906  4436 net.cpp:157] Top shape: 16 (16)
I0211 09:35:45.687911  4436 net.cpp:165] Memory required for data: 50240
I0211 09:35:45.687925  4436 layer_factory.hpp:77] Creating layer conv1
I0211 09:35:45.687954  4436 net.cpp:106] Creating Layer conv1
I0211 09:35:45.687965  4436 net.cpp:454] conv1 <- data
I0211 09:35:45.687988  4436 net.cpp:411] conv1 -> conv1
I0211 09:35:45.689270  4436 net.cpp:150] Setting up conv1
I0211 09:35:45.689285  4436 net.cpp:157] Top shape: 16 20 24 24 (184320)
I0211 09:35:45.689291  4436 net.cpp:165] Memory required for data: 787520
I0211 09:35:45.689306  4436 layer_factory.hpp:77] Creating layer pool1
I0211 09:35:45.689323  4436 net.cpp:106] Creating Layer pool1
I0211 09:35:45.689330  4436 net.cpp:454] pool1 <- conv1
I0211 09:35:45.689339  4436 net.cpp:411] pool1 -> pool1
I0211 09:35:45.689544  4436 net.cpp:150] Setting up pool1
I0211 09:35:45.689558  4436 net.cpp:157] Top shape: 16 20 12 12 (46080)
I0211 09:35:45.689563  4436 net.cpp:165] Memory required for data: 971840
I0211 09:35:45.689568  4436 layer_factory.hpp:77] Creating layer conv2
I0211 09:35:45.689584  4436 net.cpp:106] Creating Layer conv2
I0211 09:35:45.689590  4436 net.cpp:454] conv2 <- pool1
I0211 09:35:45.689601  4436 net.cpp:411] conv2 -> conv2
I0211 09:35:45.690963  4436 net.cpp:150] Setting up conv2
I0211 09:35:45.690979  4436 net.cpp:157] Top shape: 16 50 8 8 (51200)
I0211 09:35:45.690984  4436 net.cpp:165] Memory required for data: 1176640
I0211 09:35:45.690994  4436 layer_factory.hpp:77] Creating layer pool2
I0211 09:35:45.691004  4436 net.cpp:106] Creating Layer pool2
I0211 09:35:45.691010  4436 net.cpp:454] pool2 <- conv2
I0211 09:35:45.691023  4436 net.cpp:411] pool2 -> pool2
I0211 09:35:45.691172  4436 net.cpp:150] Setting up pool2
I0211 09:35:45.691184  4436 net.cpp:157] Top shape: 16 50 4 4 (12800)
I0211 09:35:45.691190  4436 net.cpp:165] Memory required for data: 1227840
I0211 09:35:45.691195  4436 layer_factory.hpp:77] Creating layer ip1
I0211 09:35:45.691213  4436 net.cpp:106] Creating Layer ip1
I0211 09:35:45.691220  4436 net.cpp:454] ip1 <- pool2
I0211 09:35:45.691229  4436 net.cpp:411] ip1 -> ip1
I0211 09:35:45.692569  4442 blocking_queue.cpp:50] Waiting for data
I0211 09:35:45.695783  4436 net.cpp:150] Setting up ip1
I0211 09:35:45.695799  4436 net.cpp:157] Top shape: 16 500 (8000)
I0211 09:35:45.695804  4436 net.cpp:165] Memory required for data: 1259840
I0211 09:35:45.695816  4436 layer_factory.hpp:77] Creating layer relu1
I0211 09:35:45.695828  4436 net.cpp:106] Creating Layer relu1
I0211 09:35:45.695833  4436 net.cpp:454] relu1 <- ip1
I0211 09:35:45.695843  4436 net.cpp:397] relu1 -> ip1 (in-place)
I0211 09:35:45.695855  4436 net.cpp:150] Setting up relu1
I0211 09:35:45.695863  4436 net.cpp:157] Top shape: 16 500 (8000)
I0211 09:35:45.695868  4436 net.cpp:165] Memory required for data: 1291840
I0211 09:35:45.695873  4436 layer_factory.hpp:77] Creating layer ip2
I0211 09:35:45.695883  4436 net.cpp:106] Creating Layer ip2
I0211 09:35:45.695900  4436 net.cpp:454] ip2 <- ip1
I0211 09:35:45.695912  4436 net.cpp:411] ip2 -> ip2
I0211 09:35:45.696058  4436 net.cpp:150] Setting up ip2
I0211 09:35:45.696069  4436 net.cpp:157] Top shape: 16 10 (160)
I0211 09:35:45.696074  4436 net.cpp:165] Memory required for data: 1292480
I0211 09:35:45.696084  4436 layer_factory.hpp:77] Creating layer loss
I0211 09:35:45.696096  4436 net.cpp:106] Creating Layer loss
I0211 09:35:45.696104  4436 net.cpp:454] loss <- ip2
I0211 09:35:45.696110  4436 net.cpp:454] loss <- label
I0211 09:35:45.696120  4436 net.cpp:411] loss -> loss
I0211 09:35:45.696141  4436 layer_factory.hpp:77] Creating layer loss
…
I0211 09:35:45.697485  4436 solver.cpp:181] Creating test net (#0) specified by net file: examples/mnist/lenet_train_test.prototxt
I0211 09:35:45.697527  4436 net.cpp:322] The NetState phase (1) differed from the phase (0) specified by a rule in layer mnist
I0211 09:35:45.697718  4436 net.cpp:49] Initializing net from parameters: 
name: "LeNet"
state {
  phase: TEST
}
layer {
  name: "mnist"
  type: "Data"
  top: "data"
  top: "label"
  include {
    phase: TEST
  }
  transform_param {
    scale: 0.00390625
  }
  data_param {
    source: "examples/mnist/mnist_test_lmdb"
    batch_size: 100
    backend: LMDB
  }
}
layer {
  name: "conv1"
  type: "Convolution"
  bottom: "data"
  top: "conv1"
  param {
    lr_mult: 1
  }
  param {
    lr_mult: 2
  }
  convolution_param {
    num_output: 20
    kernel_size: 5
    stride: 1
    weight_filler {
      type: "xavier"
    }
    bias_filler {
      type: "constant"
    }
  }
}
layer {
  name: "pool1"
  type: "Pooling"
  bottom: "conv1"
  top: "pool1"
  pooling_param {
    pool: MAX
    kernel_size: 2
    stride: 2
  }
}
layer {
  name: "conv2"
  type: "Convolution"
  bottom: "pool1"
  top: "conv2"
  param {
    lr_mult: 1
  }
  param {
    lr_mult: 2
  }
  convolution_param {
    num_output: 50
    kernel_size: 5
    stride: 1
    weight_filler {
      type: "xavier"
    }
    bias_filler {
      type: "constant"
    }
  }
}
layer {
  name: "pool2"
  type: "Pooling"
  bottom: "conv2"
  top: "pool2"
  pooling_param {
    pool: MAX
    kernel_size: 2
    stride: 2
  }
}
layer {
  name: "ip1"
  type: "InnerProduct"
  bottom: "pool2"
  top: "ip1"
  param {
    lr_mult: 1
  }
  param {
    lr_mult: 2
  }
  inner_product_param {
    num_output: 500
    weight_filler {
      type: "xavier"
    }
    bias_filler {
      type: "constant"
    }
  }
}
layer {
  name: "relu1"
  type: "ReLU"
  bottom: "ip1"
  top: "ip1"
}
layer {
  name: "ip2"
  type: "InnerProduct"
  bottom: "ip1"
  top: "ip2"
  param {
    lr_mult: 1
  }
  param {
    lr_mult: 2
  }
  inner_product_param {
    num_output: 10
    weight_filler {
      type: "xavier"
    }
    bias_filler {
      type: "constant"
    }
  }
}
layer {
  name: "accuracy"
  type: "Accuracy"
  bottom: "ip2"
  bottom: "label"
  top: "accuracy"
  include {
    phase: TEST
  }
}
layer {
  name: "loss"
  type: "SoftmaxWithLoss"
  bottom: "ip2"
  bottom: "label"
  top: "loss"
}
I0211 09:35:45.697818  4436 layer_factory.hpp:77] Creating layer mnist
I0211 09:35:45.697958  4436 net.cpp:106] Creating Layer mnist
I0211 09:35:45.697971  4436 net.cpp:411] mnist -> data
I0211 09:35:45.697989  4436 net.cpp:411] mnist -> label
I0211 09:35:45.703433  4443 db_lmdb.cpp:38] Opened lmdb examples/mnist/mnist_test_lmdb
I0211 09:35:45.704010  4436 data_layer.cpp:41] output data size: 100,1,28,28
I0211 09:35:45.707015  4436 net.cpp:150] Setting up mnist
I0211 09:35:45.707051  4436 net.cpp:157] Top shape: 100 1 28 28 (78400)
I0211 09:35:45.707067  4436 net.cpp:157] Top shape: 100 (100)
I0211 09:35:45.707075  4436 net.cpp:165] Memory required for data: 314000
I0211 09:35:45.707087  4436 layer_factory.hpp:77] Creating layer label_mnist_1_split
I0211 09:35:45.707114  4436 net.cpp:106] Creating Layer label_mnist_1_split
I0211 09:35:45.707129  4436 net.cpp:454] label_mnist_1_split <- label
I0211 09:35:45.707145  4436 net.cpp:411] label_mnist_1_split -> label_mnist_1_split_0
I0211 09:35:45.707167  4436 net.cpp:411] label_mnist_1_split -> label_mnist_1_split_1
I0211 09:35:45.707322  4436 net.cpp:150] Setting up label_mnist_1_split
I0211 09:35:45.707345  4436 net.cpp:157] Top shape: 100 (100)
I0211 09:35:45.707360  4436 net.cpp:157] Top shape: 100 (100)
I0211 09:35:45.707370  4436 net.cpp:165] Memory required for data: 314800
I0211 09:35:45.707382  4436 layer_factory.hpp:77] Creating layer conv1
I0211 09:35:45.707415  4436 net.cpp:106] Creating Layer conv1
I0211 09:35:45.707429  4436 net.cpp:454] conv1 <- data
I0211 09:35:45.707451  4436 net.cpp:411] conv1 -> conv1
I0211 09:35:45.707805  4436 net.cpp:150] Setting up conv1
I0211 09:35:45.707818  4436 net.cpp:157] Top shape: 100 20 24 24 (1152000)
I0211 09:35:45.707823  4436 net.cpp:165] Memory required for data: 4922800
I0211 09:35:45.707836  4436 layer_factory.hpp:77] Creating layer pool1
I0211 09:35:45.707850  4436 net.cpp:106] Creating Layer pool1
I0211 09:35:45.707872  4436 net.cpp:454] pool1 <- conv1
I0211 09:35:45.707881  4436 net.cpp:411] pool1 -> pool1
I0211 09:35:45.708039  4436 net.cpp:150] Setting up pool1
I0211 09:35:45.708050  4436 net.cpp:157] Top shape: 100 20 12 12 (288000)
I0211 09:35:45.708055  4436 net.cpp:165] Memory required for data: 6074800
I0211 09:35:45.708061  4436 layer_factory.hpp:77] Creating layer conv2
I0211 09:35:45.708077  4436 net.cpp:106] Creating Layer conv2
I0211 09:35:45.708083  4436 net.cpp:454] conv2 <- pool1
I0211 09:35:45.708093  4436 net.cpp:411] conv2 -> conv2
I0211 09:35:45.708518  4436 net.cpp:150] Setting up conv2
I0211 09:35:45.708529  4436 net.cpp:157] Top shape: 100 50 8 8 (320000)
I0211 09:35:45.708535  4436 net.cpp:165] Memory required for data: 7354800
I0211 09:35:45.708546  4436 layer_factory.hpp:77] Creating layer pool2
I0211 09:35:45.708560  4436 net.cpp:106] Creating Layer pool2
I0211 09:35:45.708566  4436 net.cpp:454] pool2 <- conv2
I0211 09:35:45.708575  4436 net.cpp:411] pool2 -> pool2
I0211 09:35:45.708739  4436 net.cpp:150] Setting up pool2
I0211 09:35:45.708750  4436 net.cpp:157] Top shape: 100 50 4 4 (80000)
I0211 09:35:45.708756  4436 net.cpp:165] Memory required for data: 7674800
I0211 09:35:45.708761  4436 layer_factory.hpp:77] Creating layer ip1
I0211 09:35:45.708775  4436 net.cpp:106] Creating Layer ip1
I0211 09:35:45.708781  4436 net.cpp:454] ip1 <- pool2
I0211 09:35:45.708791  4436 net.cpp:411] ip1 -> ip1
I0211 09:35:45.715049  4436 net.cpp:150] Setting up ip1
I0211 09:35:45.715065  4436 net.cpp:157] Top shape: 100 500 (50000)
I0211 09:35:45.715070  4436 net.cpp:165] Memory required for data: 7874800
I0211 09:35:45.715081  4436 layer_factory.hpp:77] Creating layer relu1
I0211 09:35:45.715090  4436 net.cpp:106] Creating Layer relu1
I0211 09:35:45.715095  4436 net.cpp:454] relu1 <- ip1
I0211 09:35:45.715102  4436 net.cpp:397] relu1 -> ip1 (in-place)
I0211 09:35:45.715112  4436 net.cpp:150] Setting up relu1
I0211 09:35:45.715119  4436 net.cpp:157] Top shape: 100 500 (50000)
I0211 09:35:45.715124  4436 net.cpp:165] Memory required for data: 8074800
I0211 09:35:45.715129  4436 layer_factory.hpp:77] Creating layer ip2
I0211 09:35:45.715143  4436 net.cpp:106] Creating Layer ip2
I0211 09:35:45.715149  4436 net.cpp:454] ip2 <- ip1
I0211 09:35:45.715160  4436 net.cpp:411] ip2 -> ip2
I0211 09:35:45.715312  4436 net.cpp:150] Setting up ip2
I0211 09:35:45.715324  4436 net.cpp:157] Top shape: 100 10 (1000)
I0211 09:35:45.715329  4436 net.cpp:165] Memory required for data: 8078800
I0211 09:35:45.715338  4436 layer_factory.hpp:77] Creating layer ip2_ip2_0_split
I0211 09:35:45.715347  4436 net.cpp:106] Creating Layer ip2_ip2_0_split
I0211 09:35:45.715353  4436 net.cpp:454] ip2_ip2_0_split <- ip2
I0211 09:35:45.715360  4436 net.cpp:411] ip2_ip2_0_split -> ip2_ip2_0_split_0
I0211 09:35:45.715369  4436 net.cpp:411] ip2_ip2_0_split -> ip2_ip2_0_split_1
I0211 09:35:45.715410  4436 net.cpp:150] Setting up ip2_ip2_0_split
I0211 09:35:45.715420  4436 net.cpp:157] Top shape: 100 10 (1000)
I0211 09:35:45.715426  4436 net.cpp:157] Top shape: 100 10 (1000)
I0211 09:35:45.715431  4436 net.cpp:165] Memory required for data: 8086800
I0211 09:35:45.715437  4436 layer_factory.hpp:77] Creating layer accuracy
I0211 09:35:45.715450  4436 net.cpp:106] Creating Layer accuracy
I0211 09:35:45.715456  4436 net.cpp:454] accuracy <- ip2_ip2_0_split_0
I0211 09:35:45.715466  4436 net.cpp:454] accuracy <- label_mnist_1_split_0
I0211 09:35:45.715474  4436 net.cpp:411] accuracy -> accuracy
…
