…
I0211 09:42:01.651690  4794 net.cpp:322] The NetState phase (0) differed from the phase (1) specified by a rule in layer mnist
I0211 09:42:01.651721  4794 net.cpp:322] The NetState phase (0) differed from the phase (1) specified by a rule in layer accuracy
I0211 09:42:01.651856  4794 net.cpp:49] Initializing net from parameters: 
name: "LeNet"
state {
  phase: TRAIN
}
layer {
  name: "mnist"
  type: "Data"
  top: "data"
  top: "label"
  include {
    phase: TRAIN
  }
  transform_param {
    scale: 0.00390625
  }
  data_param {
    source: "examples/mnist/mnist_train_lmdb"
    batch_size: 32
    backend: LMDB
  }
}
layer {
  name: "conv1"
  type: "Convolution"
  bottom: "data"
  top: "conv1"
  param {
    lr_mult: 1
  }
  param {
    lr_mult: 2
  }
  convolution_param {
    num_output: 20
    kernel_size: 5
    stride: 1
    weight_filler {
      type: "xavier"
    }
    bias_filler {
      type: "constant"
    }
  }
}
layer {
  name: "pool1"
  type: "Pooling"
  bottom: "conv1"
  top: "pool1"
  pooling_param {
    pool: MAX
    kernel_size: 2
    stride: 2
  }
}
layer {
  name: "conv2"
  type: "Convolution"
  bottom: "pool1"
  top: "conv2"
  param {
    lr_mult: 1
  }
  param {
    lr_mult: 2
  }
  convolution_param {
    num_output: 50
    kernel_size: 5
    stride: 1
    weight_filler {
      type: "xavier"
    }
    bias_filler {
      type: "constant"
    }
  }
}
layer {
  name: "pool2"
  type: "Pooling"
  bottom: "conv2"
  top: "pool2"
  pooling_param {
    pool: MAX
    kernel_size: 2
    stride: 2
  }
}
layer {
  name: "ip1"
  type: "InnerProduct"
  bottom: "pool2"
  top: "ip1"
  param {
    lr_mult: 1
  }
  param {
    lr_mult: 2
  }
  inner_product_param {
    num_output: 500
    weight_filler {
      type: "xavier"
    }
    bias_filler {
      type: "constant"
    }
  }
}
layer {
  name: "relu1"
  type: "ReLU"
  bottom: "ip1"
  top: "ip1"
}
layer {
  name: "ip2"
  type: "InnerProduct"
  bottom: "ip1"
  top: "ip2"
  param {
    lr_mult: 1
  }
  param {
    lr_mult: 2
  }
  inner_product_param {
    num_output: 10
    weight_filler {
      type: "xavier"
    }
    bias_filler {
      type: "constant"
    }
  }
}
layer {
  name: "loss"
  type: "SoftmaxWithLoss"
  bottom: "ip2"
  bottom: "label"
  top: "loss"
}
I0211 09:42:01.651945  4794 layer_factory.hpp:77] Creating layer mnist
I0211 09:42:01.652720  4794 net.cpp:106] Creating Layer mnist
I0211 09:42:01.652739  4794 net.cpp:411] mnist -> data
I0211 09:42:01.652779  4794 net.cpp:411] mnist -> label
I0211 09:42:01.658818  4799 db_lmdb.cpp:38] Opened lmdb examples/mnist/mnist_train_lmdb
I0211 09:42:01.678457  4794 data_layer.cpp:41] output data size: 32,1,28,28
I0211 09:42:01.679694  4794 net.cpp:150] Setting up mnist
I0211 09:42:01.679718  4794 net.cpp:157] Top shape: 32 1 28 28 (25088)
I0211 09:42:01.679725  4794 net.cpp:157] Top shape: 32 (32)
I0211 09:42:01.679729  4794 net.cpp:165] Memory required for data: 100480
I0211 09:42:01.679744  4794 layer_factory.hpp:77] Creating layer conv1
I0211 09:42:01.679776  4794 net.cpp:106] Creating Layer conv1
I0211 09:42:01.679787  4794 net.cpp:454] conv1 <- data
I0211 09:42:01.679806  4794 net.cpp:411] conv1 -> conv1
I0211 09:42:01.681134  4794 net.cpp:150] Setting up conv1
I0211 09:42:01.681149  4794 net.cpp:157] Top shape: 32 20 24 24 (368640)
I0211 09:42:01.681154  4794 net.cpp:165] Memory required for data: 1575040
I0211 09:42:01.681171  4794 layer_factory.hpp:77] Creating layer pool1
I0211 09:42:01.681188  4794 net.cpp:106] Creating Layer pool1
I0211 09:42:01.681195  4794 net.cpp:454] pool1 <- conv1
I0211 09:42:01.681203  4794 net.cpp:411] pool1 -> pool1
I0211 09:42:01.681414  4794 net.cpp:150] Setting up pool1
I0211 09:42:01.681427  4794 net.cpp:157] Top shape: 32 20 12 12 (92160)
I0211 09:42:01.681432  4794 net.cpp:165] Memory required for data: 1943680
I0211 09:42:01.681438  4794 layer_factory.hpp:77] Creating layer conv2
I0211 09:42:01.681450  4794 net.cpp:106] Creating Layer conv2
I0211 09:42:01.681457  4794 net.cpp:454] conv2 <- pool1
I0211 09:42:01.681468  4794 net.cpp:411] conv2 -> conv2
I0211 09:42:01.681895  4794 net.cpp:150] Setting up conv2
I0211 09:42:01.681908  4794 net.cpp:157] Top shape: 32 50 8 8 (102400)
I0211 09:42:01.681913  4794 net.cpp:165] Memory required for data: 2353280
I0211 09:42:01.681926  4794 layer_factory.hpp:77] Creating layer pool2
I0211 09:42:01.681939  4794 net.cpp:106] Creating Layer pool2
I0211 09:42:01.681946  4794 net.cpp:454] pool2 <- conv2
I0211 09:42:01.681954  4794 net.cpp:411] pool2 -> pool2
I0211 09:42:01.682102  4794 net.cpp:150] Setting up pool2
I0211 09:42:01.682116  4794 net.cpp:157] Top shape: 32 50 4 4 (25600)
I0211 09:42:01.682121  4794 net.cpp:165] Memory required for data: 2455680
I0211 09:42:01.682127  4794 layer_factory.hpp:77] Creating layer ip1
I0211 09:42:01.682142  4794 net.cpp:106] Creating Layer ip1
I0211 09:42:01.682148  4794 net.cpp:454] ip1 <- pool2
I0211 09:42:01.682159  4794 net.cpp:411] ip1 -> ip1
I0211 09:42:01.684532  4800 blocking_queue.cpp:50] Waiting for data
I0211 09:42:01.686676  4794 net.cpp:150] Setting up ip1
I0211 09:42:01.686691  4794 net.cpp:157] Top shape: 32 500 (16000)
I0211 09:42:01.686697  4794 net.cpp:165] Memory required for data: 2519680
I0211 09:42:01.686707  4794 layer_factory.hpp:77] Creating layer relu1
I0211 09:42:01.686720  4794 net.cpp:106] Creating Layer relu1
I0211 09:42:01.686725  4794 net.cpp:454] relu1 <- ip1
I0211 09:42:01.686734  4794 net.cpp:397] relu1 -> ip1 (in-place)
I0211 09:42:01.686746  4794 net.cpp:150] Setting up relu1
I0211 09:42:01.686754  4794 net.cpp:157] Top shape: 32 500 (16000)
I0211 09:42:01.686759  4794 net.cpp:165] Memory required for data: 2583680
I0211 09:42:01.686764  4794 layer_factory.hpp:77] Creating layer ip2
I0211 09:42:01.686774  4794 net.cpp:106] Creating Layer ip2
I0211 09:42:01.686779  4794 net.cpp:454] ip2 <- ip1
I0211 09:42:01.686790  4794 net.cpp:411] ip2 -> ip2
I0211 09:42:01.687669  4794 net.cpp:150] Setting up ip2
I0211 09:42:01.687682  4794 net.cpp:157] Top shape: 32 10 (320)
I0211 09:42:01.687688  4794 net.cpp:165] Memory required for data: 2584960
I0211 09:42:01.687697  4794 layer_factory.hpp:77] Creating layer loss
I0211 09:42:01.687707  4794 net.cpp:106] Creating Layer loss
I0211 09:42:01.687713  4794 net.cpp:454] loss <- ip2
I0211 09:42:01.687719  4794 net.cpp:454] loss <- label
I0211 09:42:01.687728  4794 net.cpp:411] loss -> loss
I0211 09:42:01.687753  4794 layer_factory.hpp:77] Creating layer loss
…
I0211 09:42:01.689187  4794 solver.cpp:181] Creating test net (#0) specified by net file: examples/mnist/lenet_train_test.prototxt
I0211 09:42:01.689230  4794 net.cpp:322] The NetState phase (1) differed from the phase (0) specified by a rule in layer mnist
I0211 09:42:01.689399  4794 net.cpp:49] Initializing net from parameters: 
name: "LeNet"
state {
  phase: TEST
}
layer {
  name: "mnist"
  type: "Data"
  top: "data"
  top: "label"
  include {
    phase: TEST
  }
  transform_param {
    scale: 0.00390625
  }
  data_param {
    source: "examples/mnist/mnist_test_lmdb"
    batch_size: 100
    backend: LMDB
  }
}
layer {
  name: "conv1"
  type: "Convolution"
  bottom: "data"
  top: "conv1"
  param {
    lr_mult: 1
  }
  param {
    lr_mult: 2
  }
  convolution_param {
    num_output: 20
    kernel_size: 5
    stride: 1
    weight_filler {
      type: "xavier"
    }
    bias_filler {
      type: "constant"
    }
  }
}
layer {
  name: "pool1"
  type: "Pooling"
  bottom: "conv1"
  top: "pool1"
  pooling_param {
    pool: MAX
    kernel_size: 2
    stride: 2
  }
}
layer {
  name: "conv2"
  type: "Convolution"
  bottom: "pool1"
  top: "conv2"
  param {
    lr_mult: 1
  }
  param {
    lr_mult: 2
  }
  convolution_param {
    num_output: 50
    kernel_size: 5
    stride: 1
    weight_filler {
      type: "xavier"
    }
    bias_filler {
      type: "constant"
    }
  }
}
layer {
  name: "pool2"
  type: "Pooling"
  bottom: "conv2"
  top: "pool2"
  pooling_param {
    pool: MAX
    kernel_size: 2
    stride: 2
  }
}
layer {
  name: "ip1"
  type: "InnerProduct"
  bottom: "pool2"
  top: "ip1"
  param {
    lr_mult: 1
  }
  param {
    lr_mult: 2
  }
  inner_product_param {
    num_output: 500
    weight_filler {
      type: "xavier"
    }
    bias_filler {
      type: "constant"
    }
  }
}
layer {
  name: "relu1"
  type: "ReLU"
  bottom: "ip1"
  top: "ip1"
}
layer {
  name: "ip2"
  type: "InnerProduct"
  bottom: "ip1"
  top: "ip2"
  param {
    lr_mult: 1
  }
  param {
    lr_mult: 2
  }
  inner_product_param {
    num_output: 10
    weight_filler {
      type: "xavier"
    }
    bias_filler {
      type: "constant"
    }
  }
}
layer {
  name: "accuracy"
  type: "Accuracy"
  bottom: "ip2"
  bottom: "label"
  top: "accuracy"
  include {
    phase: TEST
  }
}
layer {
  name: "loss"
  type: "SoftmaxWithLoss"
  bottom: "ip2"
  bottom: "label"
  top: "loss"
}
I0211 09:42:01.689501  4794 layer_factory.hpp:77] Creating layer mnist
I0211 09:42:01.689646  4794 net.cpp:106] Creating Layer mnist
I0211 09:42:01.689661  4794 net.cpp:411] mnist -> data
I0211 09:42:01.689674  4794 net.cpp:411] mnist -> label
I0211 09:42:01.695305  4801 db_lmdb.cpp:38] Opened lmdb examples/mnist/mnist_test_lmdb
I0211 09:42:01.695724  4794 data_layer.cpp:41] output data size: 100,1,28,28
I0211 09:42:01.698156  4794 net.cpp:150] Setting up mnist
I0211 09:42:01.698180  4794 net.cpp:157] Top shape: 100 1 28 28 (78400)
I0211 09:42:01.698190  4794 net.cpp:157] Top shape: 100 (100)
I0211 09:42:01.698199  4794 net.cpp:165] Memory required for data: 314000
I0211 09:42:01.698209  4794 layer_factory.hpp:77] Creating layer label_mnist_1_split
I0211 09:42:01.698225  4794 net.cpp:106] Creating Layer label_mnist_1_split
I0211 09:42:01.698235  4794 net.cpp:454] label_mnist_1_split <- label
I0211 09:42:01.698247  4794 net.cpp:411] label_mnist_1_split -> label_mnist_1_split_0
I0211 09:42:01.698263  4794 net.cpp:411] label_mnist_1_split -> label_mnist_1_split_1
I0211 09:42:01.698380  4794 net.cpp:150] Setting up label_mnist_1_split
I0211 09:42:01.698396  4794 net.cpp:157] Top shape: 100 (100)
I0211 09:42:01.698407  4794 net.cpp:157] Top shape: 100 (100)
I0211 09:42:01.698415  4794 net.cpp:165] Memory required for data: 314800
I0211 09:42:01.698423  4794 layer_factory.hpp:77] Creating layer conv1
I0211 09:42:01.698446  4794 net.cpp:106] Creating Layer conv1
I0211 09:42:01.698456  4794 net.cpp:454] conv1 <- data
I0211 09:42:01.698472  4794 net.cpp:411] conv1 -> conv1
I0211 09:42:01.698827  4794 net.cpp:150] Setting up conv1
I0211 09:42:01.698846  4794 net.cpp:157] Top shape: 100 20 24 24 (1152000)
I0211 09:42:01.698853  4794 net.cpp:165] Memory required for data: 4922800
I0211 09:42:01.698870  4794 layer_factory.hpp:77] Creating layer pool1
I0211 09:42:01.698910  4794 net.cpp:106] Creating Layer pool1
I0211 09:42:01.698920  4794 net.cpp:454] pool1 <- conv1
I0211 09:42:01.698930  4794 net.cpp:411] pool1 -> pool1
I0211 09:42:01.699151  4794 net.cpp:150] Setting up pool1
I0211 09:42:01.699169  4794 net.cpp:157] Top shape: 100 20 12 12 (288000)
I0211 09:42:01.699177  4794 net.cpp:165] Memory required for data: 6074800
I0211 09:42:01.699187  4794 layer_factory.hpp:77] Creating layer conv2
I0211 09:42:01.699204  4794 net.cpp:106] Creating Layer conv2
I0211 09:42:01.699213  4794 net.cpp:454] conv2 <- pool1
I0211 09:42:01.699234  4794 net.cpp:411] conv2 -> conv2
I0211 09:42:01.699862  4794 net.cpp:150] Setting up conv2
I0211 09:42:01.699880  4794 net.cpp:157] Top shape: 100 50 8 8 (320000)
I0211 09:42:01.699887  4794 net.cpp:165] Memory required for data: 7354800
I0211 09:42:01.699903  4794 layer_factory.hpp:77] Creating layer pool2
I0211 09:42:01.699919  4794 net.cpp:106] Creating Layer pool2
I0211 09:42:01.699926  4794 net.cpp:454] pool2 <- conv2
I0211 09:42:01.699945  4794 net.cpp:411] pool2 -> pool2
I0211 09:42:01.700160  4794 net.cpp:150] Setting up pool2
I0211 09:42:01.700176  4794 net.cpp:157] Top shape: 100 50 4 4 (80000)
I0211 09:42:01.700182  4794 net.cpp:165] Memory required for data: 7674800
I0211 09:42:01.700189  4794 layer_factory.hpp:77] Creating layer ip1
I0211 09:42:01.700202  4794 net.cpp:106] Creating Layer ip1
I0211 09:42:01.700212  4794 net.cpp:454] ip1 <- pool2
I0211 09:42:01.700227  4794 net.cpp:411] ip1 -> ip1
I0211 09:42:01.706290  4794 net.cpp:150] Setting up ip1
I0211 09:42:01.706316  4794 net.cpp:157] Top shape: 100 500 (50000)
I0211 09:42:01.706324  4794 net.cpp:165] Memory required for data: 7874800
I0211 09:42:01.706344  4794 layer_factory.hpp:77] Creating layer relu1
I0211 09:42:01.706362  4794 net.cpp:106] Creating Layer relu1
I0211 09:42:01.706372  4794 net.cpp:454] relu1 <- ip1
I0211 09:42:01.706387  4794 net.cpp:397] relu1 -> ip1 (in-place)
I0211 09:42:01.706403  4794 net.cpp:150] Setting up relu1
I0211 09:42:01.706415  4794 net.cpp:157] Top shape: 100 500 (50000)
I0211 09:42:01.706425  4794 net.cpp:165] Memory required for data: 8074800
I0211 09:42:01.706432  4794 layer_factory.hpp:77] Creating layer ip2
I0211 09:42:01.706449  4794 net.cpp:106] Creating Layer ip2
I0211 09:42:01.706459  4794 net.cpp:454] ip2 <- ip1
I0211 09:42:01.706478  4794 net.cpp:411] ip2 -> ip2
I0211 09:42:01.706755  4794 net.cpp:150] Setting up ip2
I0211 09:42:01.706776  4794 net.cpp:157] Top shape: 100 10 (1000)
I0211 09:42:01.706786  4794 net.cpp:165] Memory required for data: 8078800
I0211 09:42:01.706800  4794 layer_factory.hpp:77] Creating layer ip2_ip2_0_split
I0211 09:42:01.706814  4794 net.cpp:106] Creating Layer ip2_ip2_0_split
I0211 09:42:01.706821  4794 net.cpp:454] ip2_ip2_0_split <- ip2
I0211 09:42:01.706833  4794 net.cpp:411] ip2_ip2_0_split -> ip2_ip2_0_split_0
I0211 09:42:01.706847  4794 net.cpp:411] ip2_ip2_0_split -> ip2_ip2_0_split_1
I0211 09:42:01.706913  4794 net.cpp:150] Setting up ip2_ip2_0_split
I0211 09:42:01.706941  4794 net.cpp:157] Top shape: 100 10 (1000)
I0211 09:42:01.706948  4794 net.cpp:157] Top shape: 100 10 (1000)
I0211 09:42:01.706954  4794 net.cpp:165] Memory required for data: 8086800
I0211 09:42:01.706959  4794 layer_factory.hpp:77] Creating layer accuracy
I0211 09:42:01.706970  4794 net.cpp:106] Creating Layer accuracy
I0211 09:42:01.706977  4794 net.cpp:454] accuracy <- ip2_ip2_0_split_0
I0211 09:42:01.706984  4794 net.cpp:454] accuracy <- label_mnist_1_split_0
I0211 09:42:01.706991  4794 net.cpp:411] accuracy -> accuracy
…
