…
I0211 09:46:43.848511  4985 net.cpp:322] The NetState phase (0) differed from the phase (1) specified by a rule in layer mnist
I0211 09:46:43.848536  4985 net.cpp:322] The NetState phase (0) differed from the phase (1) specified by a rule in layer accuracy
I0211 09:46:43.848670  4985 net.cpp:49] Initializing net from parameters: 
name: "LeNet"
state {
  phase: TRAIN
}
layer {
  name: "mnist"
  type: "Data"
  top: "data"
  top: "label"
  include {
    phase: TRAIN
  }
  transform_param {
    scale: 0.00390625
  }
  data_param {
    source: "examples/mnist/mnist_train_lmdb"
    batch_size: 128
    backend: LMDB
  }
}
layer {
  name: "conv1"
  type: "Convolution"
  bottom: "data"
  top: "conv1"
  param {
    lr_mult: 1
  }
  param {
    lr_mult: 2
  }
  convolution_param {
    num_output: 20
    kernel_size: 5
    stride: 1
    weight_filler {
      type: "xavier"
    }
    bias_filler {
      type: "constant"
    }
  }
}
layer {
  name: "pool1"
  type: "Pooling"
  bottom: "conv1"
  top: "pool1"
  pooling_param {
    pool: MAX
    kernel_size: 2
    stride: 2
  }
}
layer {
  name: "conv2"
  type: "Convolution"
  bottom: "pool1"
  top: "conv2"
  param {
    lr_mult: 1
  }
  param {
    lr_mult: 2
  }
  convolution_param {
    num_output: 50
    kernel_size: 5
    stride: 1
    weight_filler {
      type: "xavier"
    }
    bias_filler {
      type: "constant"
    }
  }
}
layer {
  name: "pool2"
  type: "Pooling"
  bottom: "conv2"
  top: "pool2"
  pooling_param {
    pool: MAX
    kernel_size: 2
    stride: 2
  }
}
layer {
  name: "ip1"
  type: "InnerProduct"
  bottom: "pool2"
  top: "ip1"
  param {
    lr_mult: 1
  }
  param {
    lr_mult: 2
  }
  inner_product_param {
    num_output: 500
    weight_filler {
      type: "xavier"
    }
    bias_filler {
      type: "constant"
    }
  }
}
layer {
  name: "relu1"
  type: "ReLU"
  bottom: "ip1"
  top: "ip1"
}
layer {
  name: "ip2"
  type: "InnerProduct"
  bottom: "ip1"
  top: "ip2"
  param {
    lr_mult: 1
  }
  param {
    lr_mult: 2
  }
  inner_product_param {
    num_output: 10
    weight_filler {
      type: "xavier"
    }
    bias_filler {
      type: "constant"
    }
  }
}
layer {
  name: "loss"
  type: "SoftmaxWithLoss"
  bottom: "ip2"
  bottom: "label"
  top: "loss"
}
I0211 09:46:43.848758  4985 layer_factory.hpp:77] Creating layer mnist
I0211 09:46:43.849510  4985 net.cpp:106] Creating Layer mnist
I0211 09:46:43.849530  4985 net.cpp:411] mnist -> data
I0211 09:46:43.849567  4985 net.cpp:411] mnist -> label
I0211 09:46:43.856031  4990 db_lmdb.cpp:38] Opened lmdb examples/mnist/mnist_train_lmdb
I0211 09:46:43.870877  4985 data_layer.cpp:41] output data size: 128,1,28,28
I0211 09:46:43.873703  4985 net.cpp:150] Setting up mnist
I0211 09:46:43.873726  4985 net.cpp:157] Top shape: 128 1 28 28 (100352)
I0211 09:46:43.873735  4985 net.cpp:157] Top shape: 128 (128)
I0211 09:46:43.873740  4985 net.cpp:165] Memory required for data: 401920
I0211 09:46:43.873755  4985 layer_factory.hpp:77] Creating layer conv1
I0211 09:46:43.873790  4985 net.cpp:106] Creating Layer conv1
I0211 09:46:43.873800  4985 net.cpp:454] conv1 <- data
I0211 09:46:43.873821  4985 net.cpp:411] conv1 -> conv1
I0211 09:46:43.875222  4985 net.cpp:150] Setting up conv1
I0211 09:46:43.875238  4985 net.cpp:157] Top shape: 128 20 24 24 (1474560)
I0211 09:46:43.875242  4985 net.cpp:165] Memory required for data: 6300160
I0211 09:46:43.875260  4985 layer_factory.hpp:77] Creating layer pool1
I0211 09:46:43.875279  4985 net.cpp:106] Creating Layer pool1
I0211 09:46:43.875286  4985 net.cpp:454] pool1 <- conv1
I0211 09:46:43.875294  4985 net.cpp:411] pool1 -> pool1
I0211 09:46:43.875499  4985 net.cpp:150] Setting up pool1
I0211 09:46:43.875514  4985 net.cpp:157] Top shape: 128 20 12 12 (368640)
I0211 09:46:43.875519  4985 net.cpp:165] Memory required for data: 7774720
I0211 09:46:43.875525  4985 layer_factory.hpp:77] Creating layer conv2
I0211 09:46:43.875536  4985 net.cpp:106] Creating Layer conv2
I0211 09:46:43.875543  4985 net.cpp:454] conv2 <- pool1
I0211 09:46:43.875555  4985 net.cpp:411] conv2 -> conv2
I0211 09:46:43.877194  4985 net.cpp:150] Setting up conv2
I0211 09:46:43.877209  4985 net.cpp:157] Top shape: 128 50 8 8 (409600)
I0211 09:46:43.877214  4985 net.cpp:165] Memory required for data: 9413120
I0211 09:46:43.877226  4985 layer_factory.hpp:77] Creating layer pool2
I0211 09:46:43.877240  4985 net.cpp:106] Creating Layer pool2
I0211 09:46:43.877246  4985 net.cpp:454] pool2 <- conv2
I0211 09:46:43.877254  4985 net.cpp:411] pool2 -> pool2
I0211 09:46:43.877411  4985 net.cpp:150] Setting up pool2
I0211 09:46:43.877423  4985 net.cpp:157] Top shape: 128 50 4 4 (102400)
I0211 09:46:43.877429  4985 net.cpp:165] Memory required for data: 9822720
I0211 09:46:43.877434  4985 layer_factory.hpp:77] Creating layer ip1
I0211 09:46:43.877452  4985 net.cpp:106] Creating Layer ip1
I0211 09:46:43.877460  4985 net.cpp:454] ip1 <- pool2
I0211 09:46:43.877470  4985 net.cpp:411] ip1 -> ip1
I0211 09:46:43.882159  4985 net.cpp:150] Setting up ip1
I0211 09:46:43.882174  4985 net.cpp:157] Top shape: 128 500 (64000)
I0211 09:46:43.882180  4985 net.cpp:165] Memory required for data: 10078720
I0211 09:46:43.882194  4985 layer_factory.hpp:77] Creating layer relu1
I0211 09:46:43.882206  4985 net.cpp:106] Creating Layer relu1
I0211 09:46:43.882213  4985 net.cpp:454] relu1 <- ip1
I0211 09:46:43.882220  4985 net.cpp:397] relu1 -> ip1 (in-place)
I0211 09:46:43.882232  4985 net.cpp:150] Setting up relu1
I0211 09:46:43.882241  4985 net.cpp:157] Top shape: 128 500 (64000)
I0211 09:46:43.882246  4985 net.cpp:165] Memory required for data: 10334720
I0211 09:46:43.882251  4985 layer_factory.hpp:77] Creating layer ip2
I0211 09:46:43.882263  4985 net.cpp:106] Creating Layer ip2
I0211 09:46:43.882269  4985 net.cpp:454] ip2 <- ip1
I0211 09:46:43.882277  4985 net.cpp:411] ip2 -> ip2
I0211 09:46:43.883164  4985 net.cpp:150] Setting up ip2
I0211 09:46:43.883179  4985 net.cpp:157] Top shape: 128 10 (1280)
I0211 09:46:43.883184  4985 net.cpp:165] Memory required for data: 10339840
I0211 09:46:43.883193  4985 layer_factory.hpp:77] Creating layer loss
I0211 09:46:43.883205  4985 net.cpp:106] Creating Layer loss
I0211 09:46:43.883211  4985 net.cpp:454] loss <- ip2
I0211 09:46:43.883218  4985 net.cpp:454] loss <- label
I0211 09:46:43.883226  4985 net.cpp:411] loss -> loss
I0211 09:46:43.883249  4985 layer_factory.hpp:77] Creating layer loss
…
I0211 09:46:43.885382  4985 solver.cpp:181] Creating test net (#0) specified by net file: examples/mnist/lenet_train_test.prototxt
I0211 09:46:43.885422  4985 net.cpp:322] The NetState phase (1) differed from the phase (0) specified by a rule in layer mnist
I0211 09:46:43.885598  4985 net.cpp:49] Initializing net from parameters: 
name: "LeNet"
state {
  phase: TEST
}
layer {
  name: "mnist"
  type: "Data"
  top: "data"
  top: "label"
  include {
    phase: TEST
  }
  transform_param {
    scale: 0.00390625
  }
  data_param {
    source: "examples/mnist/mnist_test_lmdb"
    batch_size: 100
    backend: LMDB
  }
}
layer {
  name: "conv1"
  type: "Convolution"
  bottom: "data"
  top: "conv1"
  param {
    lr_mult: 1
  }
  param {
    lr_mult: 2
  }
  convolution_param {
    num_output: 20
    kernel_size: 5
    stride: 1
    weight_filler {
      type: "xavier"
    }
    bias_filler {
      type: "constant"
    }
  }
}
layer {
  name: "pool1"
  type: "Pooling"
  bottom: "conv1"
  top: "pool1"
  pooling_param {
    pool: MAX
    kernel_size: 2
    stride: 2
  }
}
layer {
  name: "conv2"
  type: "Convolution"
  bottom: "pool1"
  top: "conv2"
  param {
    lr_mult: 1
  }
  param {
    lr_mult: 2
  }
  convolution_param {
    num_output: 50
    kernel_size: 5
    stride: 1
    weight_filler {
      type: "xavier"
    }
    bias_filler {
      type: "constant"
    }
  }
}
layer {
  name: "pool2"
  type: "Pooling"
  bottom: "conv2"
  top: "pool2"
  pooling_param {
    pool: MAX
    kernel_size: 2
    stride: 2
  }
}
layer {
  name: "ip1"
  type: "InnerProduct"
  bottom: "pool2"
  top: "ip1"
  param {
    lr_mult: 1
  }
  param {
    lr_mult: 2
  }
  inner_product_param {
    num_output: 500
    weight_filler {
      type: "xavier"
    }
    bias_filler {
      type: "constant"
    }
  }
}
layer {
  name: "relu1"
  type: "ReLU"
  bottom: "ip1"
  top: "ip1"
}
layer {
  name: "ip2"
  type: "InnerProduct"
  bottom: "ip1"
  top: "ip2"
  param {
    lr_mult: 1
  }
  param {
    lr_mult: 2
  }
  inner_product_param {
    num_output: 10
    weight_filler {
      type: "xavier"
    }
    bias_filler {
      type: "constant"
    }
  }
}
layer {
  name: "accuracy"
  type: "Accuracy"
  bottom: "ip2"
  bottom: "label"
  top: "accuracy"
  include {
    phase: TEST
  }
}
layer {
  name: "loss"
  type: "SoftmaxWithLoss"
  bottom: "ip2"
  bottom: "label"
  top: "loss"
}
I0211 09:46:43.885707  4985 layer_factory.hpp:77] Creating layer mnist
I0211 09:46:43.885843  4985 net.cpp:106] Creating Layer mnist
I0211 09:46:43.885856  4985 net.cpp:411] mnist -> data
I0211 09:46:43.885869  4985 net.cpp:411] mnist -> label
I0211 09:46:43.892653  4992 db_lmdb.cpp:38] Opened lmdb examples/mnist/mnist_test_lmdb
I0211 09:46:43.893035  4985 data_layer.cpp:41] output data size: 100,1,28,28
I0211 09:46:43.895501  4985 net.cpp:150] Setting up mnist
I0211 09:46:43.895520  4985 net.cpp:157] Top shape: 100 1 28 28 (78400)
I0211 09:46:43.895529  4985 net.cpp:157] Top shape: 100 (100)
I0211 09:46:43.895534  4985 net.cpp:165] Memory required for data: 314000
I0211 09:46:43.895540  4985 layer_factory.hpp:77] Creating layer label_mnist_1_split
I0211 09:46:43.895572  4985 net.cpp:106] Creating Layer label_mnist_1_split
I0211 09:46:43.895581  4985 net.cpp:454] label_mnist_1_split <- label
I0211 09:46:43.895591  4985 net.cpp:411] label_mnist_1_split -> label_mnist_1_split_0
I0211 09:46:43.895604  4985 net.cpp:411] label_mnist_1_split -> label_mnist_1_split_1
I0211 09:46:43.895773  4985 net.cpp:150] Setting up label_mnist_1_split
I0211 09:46:43.895787  4985 net.cpp:157] Top shape: 100 (100)
I0211 09:46:43.895795  4985 net.cpp:157] Top shape: 100 (100)
I0211 09:46:43.895799  4985 net.cpp:165] Memory required for data: 314800
I0211 09:46:43.895805  4985 layer_factory.hpp:77] Creating layer conv1
I0211 09:46:43.895823  4985 net.cpp:106] Creating Layer conv1
I0211 09:46:43.895831  4985 net.cpp:454] conv1 <- data
I0211 09:46:43.895844  4985 net.cpp:411] conv1 -> conv1
I0211 09:46:43.896152  4985 net.cpp:150] Setting up conv1
I0211 09:46:43.896167  4985 net.cpp:157] Top shape: 100 20 24 24 (1152000)
I0211 09:46:43.896173  4985 net.cpp:165] Memory required for data: 4922800
I0211 09:46:43.896188  4985 layer_factory.hpp:77] Creating layer pool1
I0211 09:46:43.896203  4985 net.cpp:106] Creating Layer pool1
I0211 09:46:43.896226  4985 net.cpp:454] pool1 <- conv1
I0211 09:46:43.896236  4985 net.cpp:411] pool1 -> pool1
I0211 09:46:43.896487  4985 net.cpp:150] Setting up pool1
I0211 09:46:43.896503  4985 net.cpp:157] Top shape: 100 20 12 12 (288000)
I0211 09:46:43.896510  4985 net.cpp:165] Memory required for data: 6074800
I0211 09:46:43.896517  4985 layer_factory.hpp:77] Creating layer conv2
I0211 09:46:43.896531  4985 net.cpp:106] Creating Layer conv2
I0211 09:46:43.896539  4985 net.cpp:454] conv2 <- pool1
I0211 09:46:43.896553  4985 net.cpp:411] conv2 -> conv2
I0211 09:46:43.897073  4985 net.cpp:150] Setting up conv2
I0211 09:46:43.897089  4985 net.cpp:157] Top shape: 100 50 8 8 (320000)
I0211 09:46:43.897096  4985 net.cpp:165] Memory required for data: 7354800
I0211 09:46:43.897109  4985 layer_factory.hpp:77] Creating layer pool2
I0211 09:46:43.897125  4985 net.cpp:106] Creating Layer pool2
I0211 09:46:43.897131  4985 net.cpp:454] pool2 <- conv2
I0211 09:46:43.897141  4985 net.cpp:411] pool2 -> pool2
I0211 09:46:43.897322  4985 net.cpp:150] Setting up pool2
I0211 09:46:43.897336  4985 net.cpp:157] Top shape: 100 50 4 4 (80000)
I0211 09:46:43.897358  4985 net.cpp:165] Memory required for data: 7674800
I0211 09:46:43.897368  4985 layer_factory.hpp:77] Creating layer ip1
I0211 09:46:43.897387  4985 net.cpp:106] Creating Layer ip1
I0211 09:46:43.897399  4985 net.cpp:454] ip1 <- pool2
I0211 09:46:43.897423  4985 net.cpp:411] ip1 -> ip1
I0211 09:46:43.903054  4985 net.cpp:150] Setting up ip1
I0211 09:46:43.903069  4985 net.cpp:157] Top shape: 100 500 (50000)
I0211 09:46:43.903074  4985 net.cpp:165] Memory required for data: 7874800
I0211 09:46:43.903087  4985 layer_factory.hpp:77] Creating layer relu1
I0211 09:46:43.903096  4985 net.cpp:106] Creating Layer relu1
I0211 09:46:43.903102  4985 net.cpp:454] relu1 <- ip1
I0211 09:46:43.903115  4985 net.cpp:397] relu1 -> ip1 (in-place)
I0211 09:46:43.903125  4985 net.cpp:150] Setting up relu1
I0211 09:46:43.903133  4985 net.cpp:157] Top shape: 100 500 (50000)
I0211 09:46:43.903139  4985 net.cpp:165] Memory required for data: 8074800
I0211 09:46:43.903144  4985 layer_factory.hpp:77] Creating layer ip2
I0211 09:46:43.903154  4985 net.cpp:106] Creating Layer ip2
I0211 09:46:43.903162  4985 net.cpp:454] ip2 <- ip1
I0211 09:46:43.903172  4985 net.cpp:411] ip2 -> ip2
I0211 09:46:43.903333  4985 net.cpp:150] Setting up ip2
I0211 09:46:43.903345  4985 net.cpp:157] Top shape: 100 10 (1000)
I0211 09:46:43.903352  4985 net.cpp:165] Memory required for data: 8078800
I0211 09:46:43.903362  4985 layer_factory.hpp:77] Creating layer ip2_ip2_0_split
I0211 09:46:43.903370  4985 net.cpp:106] Creating Layer ip2_ip2_0_split
I0211 09:46:43.903376  4985 net.cpp:454] ip2_ip2_0_split <- ip2
I0211 09:46:43.903385  4985 net.cpp:411] ip2_ip2_0_split -> ip2_ip2_0_split_0
I0211 09:46:43.903395  4985 net.cpp:411] ip2_ip2_0_split -> ip2_ip2_0_split_1
I0211 09:46:43.903437  4985 net.cpp:150] Setting up ip2_ip2_0_split
I0211 09:46:43.903447  4985 net.cpp:157] Top shape: 100 10 (1000)
I0211 09:46:43.903455  4985 net.cpp:157] Top shape: 100 10 (1000)
I0211 09:46:43.903461  4985 net.cpp:165] Memory required for data: 8086800
I0211 09:46:43.903467  4985 layer_factory.hpp:77] Creating layer accuracy
I0211 09:46:43.903483  4985 net.cpp:106] Creating Layer accuracy
I0211 09:46:43.903491  4985 net.cpp:454] accuracy <- ip2_ip2_0_split_0
I0211 09:46:43.903499  4985 net.cpp:454] accuracy <- label_mnist_1_split_0
I0211 09:46:43.903507  4985 net.cpp:411] accuracy -> accuracy
…
