…
I0211 09:45:42.317551  4949 net.cpp:322] The NetState phase (0) differed from the phase (1) specified by a rule in layer mnist
I0211 09:45:42.317605  4949 net.cpp:322] The NetState phase (0) differed from the phase (1) specified by a rule in layer accuracy
I0211 09:45:42.317885  4949 net.cpp:49] Initializing net from parameters: 
name: "LeNet"
state {
  phase: TRAIN
}
layer {
  name: "mnist"
  type: "Data"
  top: "data"
  top: "label"
  include {
    phase: TRAIN
  }
  transform_param {
    scale: 0.00390625
  }
  data_param {
    source: "examples/mnist/mnist_train_lmdb"
    batch_size: 64
    backend: LMDB
  }
}
layer {
  name: "conv1"
  type: "Convolution"
  bottom: "data"
  top: "conv1"
  param {
    lr_mult: 1
  }
  param {
    lr_mult: 2
  }
  convolution_param {
    num_output: 20
    kernel_size: 5
    stride: 1
    weight_filler {
      type: "xavier"
    }
    bias_filler {
      type: "constant"
    }
  }
}
layer {
  name: "pool1"
  type: "Pooling"
  bottom: "conv1"
  top: "pool1"
  pooling_param {
    pool: MAX
    kernel_size: 2
    stride: 2
  }
}
layer {
  name: "conv2"
  type: "Convolution"
  bottom: "pool1"
  top: "conv2"
  param {
    lr_mult: 1
  }
  param {
    lr_mult: 2
  }
  convolution_param {
    num_output: 50
    kernel_size: 5
    stride: 1
    weight_filler {
      type: "xavier"
    }
    bias_filler {
      type: "constant"
    }
  }
}
layer {
  name: "pool2"
  type: "Pooling"
  bottom: "conv2"
  top: "pool2"
  pooling_param {
    pool: MAX
    kernel_size: 2
    stride: 2
  }
}
layer {
  name: "ip1"
  type: "InnerProduct"
  bottom: "pool2"
  top: "ip1"
  param {
    lr_mult: 1
  }
  param {
    lr_mult: 2
  }
  inner_product_param {
    num_output: 500
    weight_filler {
      type: "xavier"
    }
    bias_filler {
      type: "constant"
    }
  }
}
layer {
  name: "relu1"
  type: "ReLU"
  bottom: "ip1"
  top: "ip1"
}
layer {
  name: "ip2"
  type: "InnerProduct"
  bottom: "ip1"
  top: "ip2"
  param {
    lr_mult: 1
  }
  param {
    lr_mult: 2
  }
  inner_product_param {
    num_output: 10
    weight_filler {
      type: "xavier"
    }
    bias_filler {
      type: "constant"
    }
  }
}
layer {
  name: "loss"
  type: "SoftmaxWithLoss"
  bottom: "ip2"
  bottom: "label"
  top: "loss"
}
I0211 09:45:42.318055  4949 layer_factory.hpp:77] Creating layer mnist
I0211 09:45:42.319535  4949 net.cpp:106] Creating Layer mnist
I0211 09:45:42.319571  4949 net.cpp:411] mnist -> data
I0211 09:45:42.319703  4949 net.cpp:411] mnist -> label
I0211 09:45:42.325091  4954 db_lmdb.cpp:38] Opened lmdb examples/mnist/mnist_train_lmdb
I0211 09:45:42.348050  4949 data_layer.cpp:41] output data size: 64,1,28,28
I0211 09:45:42.349324  4949 net.cpp:150] Setting up mnist
I0211 09:45:42.349346  4949 net.cpp:157] Top shape: 64 1 28 28 (50176)
I0211 09:45:42.349354  4949 net.cpp:157] Top shape: 64 (64)
I0211 09:45:42.349359  4949 net.cpp:165] Memory required for data: 200960
I0211 09:45:42.349370  4949 layer_factory.hpp:77] Creating layer conv1
I0211 09:45:42.349402  4949 net.cpp:106] Creating Layer conv1
I0211 09:45:42.349414  4949 net.cpp:454] conv1 <- data
I0211 09:45:42.349434  4949 net.cpp:411] conv1 -> conv1
I0211 09:45:42.350689  4949 net.cpp:150] Setting up conv1
I0211 09:45:42.350705  4949 net.cpp:157] Top shape: 64 20 24 24 (737280)
I0211 09:45:42.350710  4949 net.cpp:165] Memory required for data: 3150080
I0211 09:45:42.350728  4949 layer_factory.hpp:77] Creating layer pool1
I0211 09:45:42.350745  4949 net.cpp:106] Creating Layer pool1
I0211 09:45:42.350752  4949 net.cpp:454] pool1 <- conv1
I0211 09:45:42.350761  4949 net.cpp:411] pool1 -> pool1
I0211 09:45:42.350965  4949 net.cpp:150] Setting up pool1
I0211 09:45:42.350980  4949 net.cpp:157] Top shape: 64 20 12 12 (184320)
I0211 09:45:42.350986  4949 net.cpp:165] Memory required for data: 3887360
I0211 09:45:42.350991  4949 layer_factory.hpp:77] Creating layer conv2
I0211 09:45:42.351004  4949 net.cpp:106] Creating Layer conv2
I0211 09:45:42.351011  4949 net.cpp:454] conv2 <- pool1
I0211 09:45:42.351022  4949 net.cpp:411] conv2 -> conv2
I0211 09:45:42.351439  4949 net.cpp:150] Setting up conv2
I0211 09:45:42.351451  4949 net.cpp:157] Top shape: 64 50 8 8 (204800)
I0211 09:45:42.351457  4949 net.cpp:165] Memory required for data: 4706560
I0211 09:45:42.351469  4949 layer_factory.hpp:77] Creating layer pool2
I0211 09:45:42.351482  4949 net.cpp:106] Creating Layer pool2
I0211 09:45:42.351490  4949 net.cpp:454] pool2 <- conv2
I0211 09:45:42.351497  4949 net.cpp:411] pool2 -> pool2
I0211 09:45:42.351652  4949 net.cpp:150] Setting up pool2
I0211 09:45:42.351666  4949 net.cpp:157] Top shape: 64 50 4 4 (51200)
I0211 09:45:42.351672  4949 net.cpp:165] Memory required for data: 4911360
I0211 09:45:42.351677  4949 layer_factory.hpp:77] Creating layer ip1
I0211 09:45:42.351692  4949 net.cpp:106] Creating Layer ip1
I0211 09:45:42.351697  4949 net.cpp:454] ip1 <- pool2
I0211 09:45:42.351706  4949 net.cpp:411] ip1 -> ip1
I0211 09:45:42.354058  4955 blocking_queue.cpp:50] Waiting for data
I0211 09:45:42.356214  4949 net.cpp:150] Setting up ip1
I0211 09:45:42.356230  4949 net.cpp:157] Top shape: 64 500 (32000)
I0211 09:45:42.356235  4949 net.cpp:165] Memory required for data: 5039360
I0211 09:45:42.356246  4949 layer_factory.hpp:77] Creating layer relu1
I0211 09:45:42.356258  4949 net.cpp:106] Creating Layer relu1
I0211 09:45:42.356263  4949 net.cpp:454] relu1 <- ip1
I0211 09:45:42.356271  4949 net.cpp:397] relu1 -> ip1 (in-place)
I0211 09:45:42.356283  4949 net.cpp:150] Setting up relu1
I0211 09:45:42.356290  4949 net.cpp:157] Top shape: 64 500 (32000)
I0211 09:45:42.356295  4949 net.cpp:165] Memory required for data: 5167360
I0211 09:45:42.356300  4949 layer_factory.hpp:77] Creating layer ip2
I0211 09:45:42.356310  4949 net.cpp:106] Creating Layer ip2
I0211 09:45:42.356317  4949 net.cpp:454] ip2 <- ip1
I0211 09:45:42.356326  4949 net.cpp:411] ip2 -> ip2
I0211 09:45:42.357203  4949 net.cpp:150] Setting up ip2
I0211 09:45:42.357216  4949 net.cpp:157] Top shape: 64 10 (640)
I0211 09:45:42.357221  4949 net.cpp:165] Memory required for data: 5169920
I0211 09:45:42.357229  4949 layer_factory.hpp:77] Creating layer loss
I0211 09:45:42.357239  4949 net.cpp:106] Creating Layer loss
I0211 09:45:42.357245  4949 net.cpp:454] loss <- ip2
I0211 09:45:42.357252  4949 net.cpp:454] loss <- label
I0211 09:45:42.357260  4949 net.cpp:411] loss -> loss
I0211 09:45:42.357282  4949 layer_factory.hpp:77] Creating layer loss
…
I0211 09:45:42.358670  4949 solver.cpp:181] Creating test net (#0) specified by net file: examples/mnist/lenet_train_test.prototxt
I0211 09:45:42.358714  4949 net.cpp:322] The NetState phase (1) differed from the phase (0) specified by a rule in layer mnist
I0211 09:45:42.358885  4949 net.cpp:49] Initializing net from parameters: 
name: "LeNet"
state {
  phase: TEST
}
layer {
  name: "mnist"
  type: "Data"
  top: "data"
  top: "label"
  include {
    phase: TEST
  }
  transform_param {
    scale: 0.00390625
  }
  data_param {
    source: "examples/mnist/mnist_test_lmdb"
    batch_size: 100
    backend: LMDB
  }
}
layer {
  name: "conv1"
  type: "Convolution"
  bottom: "data"
  top: "conv1"
  param {
    lr_mult: 1
  }
  param {
    lr_mult: 2
  }
  convolution_param {
    num_output: 20
    kernel_size: 5
    stride: 1
    weight_filler {
      type: "xavier"
    }
    bias_filler {
      type: "constant"
    }
  }
}
layer {
  name: "pool1"
  type: "Pooling"
  bottom: "conv1"
  top: "pool1"
  pooling_param {
    pool: MAX
    kernel_size: 2
    stride: 2
  }
}
layer {
  name: "conv2"
  type: "Convolution"
  bottom: "pool1"
  top: "conv2"
  param {
    lr_mult: 1
  }
  param {
    lr_mult: 2
  }
  convolution_param {
    num_output: 50
    kernel_size: 5
    stride: 1
    weight_filler {
      type: "xavier"
    }
    bias_filler {
      type: "constant"
    }
  }
}
layer {
  name: "pool2"
  type: "Pooling"
  bottom: "conv2"
  top: "pool2"
  pooling_param {
    pool: MAX
    kernel_size: 2
    stride: 2
  }
}
layer {
  name: "ip1"
  type: "InnerProduct"
  bottom: "pool2"
  top: "ip1"
  param {
    lr_mult: 1
  }
  param {
    lr_mult: 2
  }
  inner_product_param {
    num_output: 500
    weight_filler {
      type: "xavier"
    }
    bias_filler {
      type: "constant"
    }
  }
}
layer {
  name: "relu1"
  type: "ReLU"
  bottom: "ip1"
  top: "ip1"
}
layer {
  name: "ip2"
  type: "InnerProduct"
  bottom: "ip1"
  top: "ip2"
  param {
    lr_mult: 1
  }
  param {
    lr_mult: 2
  }
  inner_product_param {
    num_output: 10
    weight_filler {
      type: "xavier"
    }
    bias_filler {
      type: "constant"
    }
  }
}
layer {
  name: "accuracy"
  type: "Accuracy"
  bottom: "ip2"
  bottom: "label"
  top: "accuracy"
  include {
    phase: TEST
  }
}
layer {
  name: "loss"
  type: "SoftmaxWithLoss"
  bottom: "ip2"
  bottom: "label"
  top: "loss"
}
I0211 09:45:42.358985  4949 layer_factory.hpp:77] Creating layer mnist
I0211 09:45:42.359609  4949 net.cpp:106] Creating Layer mnist
I0211 09:45:42.359630  4949 net.cpp:411] mnist -> data
I0211 09:45:42.359643  4949 net.cpp:411] mnist -> label
I0211 09:45:42.364737  4956 db_lmdb.cpp:38] Opened lmdb examples/mnist/mnist_test_lmdb
I0211 09:45:42.365151  4949 data_layer.cpp:41] output data size: 100,1,28,28
I0211 09:45:42.367014  4949 net.cpp:150] Setting up mnist
I0211 09:45:42.367040  4949 net.cpp:157] Top shape: 100 1 28 28 (78400)
I0211 09:45:42.367053  4949 net.cpp:157] Top shape: 100 (100)
I0211 09:45:42.367059  4949 net.cpp:165] Memory required for data: 314000
I0211 09:45:42.367068  4949 layer_factory.hpp:77] Creating layer label_mnist_1_split
I0211 09:45:42.367085  4949 net.cpp:106] Creating Layer label_mnist_1_split
I0211 09:45:42.367094  4949 net.cpp:454] label_mnist_1_split <- label
I0211 09:45:42.367103  4949 net.cpp:411] label_mnist_1_split -> label_mnist_1_split_0
I0211 09:45:42.367121  4949 net.cpp:411] label_mnist_1_split -> label_mnist_1_split_1
I0211 09:45:42.367261  4949 net.cpp:150] Setting up label_mnist_1_split
I0211 09:45:42.367279  4949 net.cpp:157] Top shape: 100 (100)
I0211 09:45:42.367290  4949 net.cpp:157] Top shape: 100 (100)
I0211 09:45:42.367296  4949 net.cpp:165] Memory required for data: 314800
I0211 09:45:42.367305  4949 layer_factory.hpp:77] Creating layer conv1
I0211 09:45:42.367329  4949 net.cpp:106] Creating Layer conv1
I0211 09:45:42.367339  4949 net.cpp:454] conv1 <- data
I0211 09:45:42.367357  4949 net.cpp:411] conv1 -> conv1
I0211 09:45:42.367715  4949 net.cpp:150] Setting up conv1
I0211 09:45:42.367734  4949 net.cpp:157] Top shape: 100 20 24 24 (1152000)
I0211 09:45:42.367741  4949 net.cpp:165] Memory required for data: 4922800
I0211 09:45:42.367760  4949 layer_factory.hpp:77] Creating layer pool1
I0211 09:45:42.367796  4949 net.cpp:106] Creating Layer pool1
I0211 09:45:42.367806  4949 net.cpp:454] pool1 <- conv1
I0211 09:45:42.367820  4949 net.cpp:411] pool1 -> pool1
I0211 09:45:42.368037  4949 net.cpp:150] Setting up pool1
I0211 09:45:42.368054  4949 net.cpp:157] Top shape: 100 20 12 12 (288000)
I0211 09:45:42.368062  4949 net.cpp:165] Memory required for data: 6074800
I0211 09:45:42.368070  4949 layer_factory.hpp:77] Creating layer conv2
I0211 09:45:42.368093  4949 net.cpp:106] Creating Layer conv2
I0211 09:45:42.368101  4949 net.cpp:454] conv2 <- pool1
I0211 09:45:42.368118  4949 net.cpp:411] conv2 -> conv2
I0211 09:45:42.368749  4949 net.cpp:150] Setting up conv2
I0211 09:45:42.368767  4949 net.cpp:157] Top shape: 100 50 8 8 (320000)
I0211 09:45:42.368777  4949 net.cpp:165] Memory required for data: 7354800
I0211 09:45:42.368791  4949 layer_factory.hpp:77] Creating layer pool2
I0211 09:45:42.368803  4949 net.cpp:106] Creating Layer pool2
I0211 09:45:42.368810  4949 net.cpp:454] pool2 <- conv2
I0211 09:45:42.368824  4949 net.cpp:411] pool2 -> pool2
I0211 09:45:42.369032  4949 net.cpp:150] Setting up pool2
I0211 09:45:42.369048  4949 net.cpp:157] Top shape: 100 50 4 4 (80000)
I0211 09:45:42.369055  4949 net.cpp:165] Memory required for data: 7674800
I0211 09:45:42.369061  4949 layer_factory.hpp:77] Creating layer ip1
I0211 09:45:42.369078  4949 net.cpp:106] Creating Layer ip1
I0211 09:45:42.369087  4949 net.cpp:454] ip1 <- pool2
I0211 09:45:42.369101  4949 net.cpp:411] ip1 -> ip1
I0211 09:45:42.375814  4949 net.cpp:150] Setting up ip1
I0211 09:45:42.375838  4949 net.cpp:157] Top shape: 100 500 (50000)
I0211 09:45:42.375845  4949 net.cpp:165] Memory required for data: 7874800
I0211 09:45:42.375865  4949 layer_factory.hpp:77] Creating layer relu1
I0211 09:45:42.375885  4949 net.cpp:106] Creating Layer relu1
I0211 09:45:42.375895  4949 net.cpp:454] relu1 <- ip1
I0211 09:45:42.375908  4949 net.cpp:397] relu1 -> ip1 (in-place)
I0211 09:45:42.375924  4949 net.cpp:150] Setting up relu1
I0211 09:45:42.375936  4949 net.cpp:157] Top shape: 100 500 (50000)
I0211 09:45:42.375944  4949 net.cpp:165] Memory required for data: 8074800
I0211 09:45:42.375953  4949 layer_factory.hpp:77] Creating layer ip2
I0211 09:45:42.375974  4949 net.cpp:106] Creating Layer ip2
I0211 09:45:42.375984  4949 net.cpp:454] ip2 <- ip1
I0211 09:45:42.375998  4949 net.cpp:411] ip2 -> ip2
I0211 09:45:42.376245  4949 net.cpp:150] Setting up ip2
I0211 09:45:42.376265  4949 net.cpp:157] Top shape: 100 10 (1000)
I0211 09:45:42.376273  4949 net.cpp:165] Memory required for data: 8078800
I0211 09:45:42.376287  4949 layer_factory.hpp:77] Creating layer ip2_ip2_0_split
I0211 09:45:42.376304  4949 net.cpp:106] Creating Layer ip2_ip2_0_split
I0211 09:45:42.376314  4949 net.cpp:454] ip2_ip2_0_split <- ip2
I0211 09:45:42.376327  4949 net.cpp:411] ip2_ip2_0_split -> ip2_ip2_0_split_0
I0211 09:45:42.376343  4949 net.cpp:411] ip2_ip2_0_split -> ip2_ip2_0_split_1
I0211 09:45:42.376407  4949 net.cpp:150] Setting up ip2_ip2_0_split
I0211 09:45:42.376423  4949 net.cpp:157] Top shape: 100 10 (1000)
I0211 09:45:42.376435  4949 net.cpp:157] Top shape: 100 10 (1000)
I0211 09:45:42.376443  4949 net.cpp:165] Memory required for data: 8086800
I0211 09:45:42.376453  4949 layer_factory.hpp:77] Creating layer accuracy
I0211 09:45:42.376477  4949 net.cpp:106] Creating Layer accuracy
I0211 09:45:42.376487  4949 net.cpp:454] accuracy <- ip2_ip2_0_split_0
I0211 09:45:42.376498  4949 net.cpp:454] accuracy <- label_mnist_1_split_0
I0211 09:45:42.376512  4949 net.cpp:411] accuracy -> accuracy
…
