…
I0211 09:43:48.472043  4889 net.cpp:322] The NetState phase (0) differed from the phase (1) specified by a rule in layer mnist
I0211 09:43:48.472070  4889 net.cpp:322] The NetState phase (0) differed from the phase (1) specified by a rule in layer accuracy
I0211 09:43:48.472225  4889 net.cpp:49] Initializing net from parameters: 
name: "LeNet"
state {
  phase: TRAIN
}
layer {
  name: "mnist"
  type: "Data"
  top: "data"
  top: "label"
  include {
    phase: TRAIN
  }
  transform_param {
    scale: 0.00390625
  }
  data_param {
    source: "examples/mnist/mnist_train_lmdb"
    batch_size: 43
    backend: LMDB
  }
}
layer {
  name: "conv1"
  type: "Convolution"
  bottom: "data"
  top: "conv1"
  param {
    lr_mult: 1
  }
  param {
    lr_mult: 2
  }
  convolution_param {
    num_output: 20
    kernel_size: 5
    stride: 1
    weight_filler {
      type: "xavier"
    }
    bias_filler {
      type: "constant"
    }
  }
}
layer {
  name: "pool1"
  type: "Pooling"
  bottom: "conv1"
  top: "pool1"
  pooling_param {
    pool: MAX
    kernel_size: 2
    stride: 2
  }
}
layer {
  name: "conv2"
  type: "Convolution"
  bottom: "pool1"
  top: "conv2"
  param {
    lr_mult: 1
  }
  param {
    lr_mult: 2
  }
  convolution_param {
    num_output: 50
    kernel_size: 5
    stride: 1
    weight_filler {
      type: "xavier"
    }
    bias_filler {
      type: "constant"
    }
  }
}
layer {
  name: "pool2"
  type: "Pooling"
  bottom: "conv2"
  top: "pool2"
  pooling_param {
    pool: MAX
    kernel_size: 2
    stride: 2
  }
}
layer {
  name: "ip1"
  type: "InnerProduct"
  bottom: "pool2"
  top: "ip1"
  param {
    lr_mult: 1
  }
  param {
    lr_mult: 2
  }
  inner_product_param {
    num_output: 500
    weight_filler {
      type: "xavier"
    }
    bias_filler {
      type: "constant"
    }
  }
}
layer {
  name: "relu1"
  type: "ReLU"
  bottom: "ip1"
  top: "ip1"
}
layer {
  name: "ip2"
  type: "InnerProduct"
  bottom: "ip1"
  top: "ip2"
  param {
    lr_mult: 1
  }
  param {
    lr_mult: 2
  }
  inner_product_param {
    num_output: 10
    weight_filler {
      type: "xavier"
    }
    bias_filler {
      type: "constant"
    }
  }
}
layer {
  name: "loss"
  type: "SoftmaxWithLoss"
  bottom: "ip2"
  bottom: "label"
  top: "loss"
}
I0211 09:43:48.472323  4889 layer_factory.hpp:77] Creating layer mnist
I0211 09:43:48.473565  4889 net.cpp:106] Creating Layer mnist
I0211 09:43:48.473587  4889 net.cpp:411] mnist -> data
I0211 09:43:48.473625  4889 net.cpp:411] mnist -> label
I0211 09:43:48.479027  4893 db_lmdb.cpp:38] Opened lmdb examples/mnist/mnist_train_lmdb
I0211 09:43:48.497808  4889 data_layer.cpp:41] output data size: 43,1,28,28
I0211 09:43:48.499073  4889 net.cpp:150] Setting up mnist
I0211 09:43:48.499096  4889 net.cpp:157] Top shape: 43 1 28 28 (33712)
I0211 09:43:48.499104  4889 net.cpp:157] Top shape: 43 (43)
I0211 09:43:48.499109  4889 net.cpp:165] Memory required for data: 135020
I0211 09:43:48.499122  4889 layer_factory.hpp:77] Creating layer conv1
I0211 09:43:48.499157  4889 net.cpp:106] Creating Layer conv1
I0211 09:43:48.499169  4889 net.cpp:454] conv1 <- data
I0211 09:43:48.499187  4889 net.cpp:411] conv1 -> conv1
I0211 09:43:48.500455  4889 net.cpp:150] Setting up conv1
I0211 09:43:48.500470  4889 net.cpp:157] Top shape: 43 20 24 24 (495360)
I0211 09:43:48.500475  4889 net.cpp:165] Memory required for data: 2116460
I0211 09:43:48.500491  4889 layer_factory.hpp:77] Creating layer pool1
I0211 09:43:48.500511  4889 net.cpp:106] Creating Layer pool1
I0211 09:43:48.500519  4889 net.cpp:454] pool1 <- conv1
I0211 09:43:48.500530  4889 net.cpp:411] pool1 -> pool1
I0211 09:43:48.500743  4889 net.cpp:150] Setting up pool1
I0211 09:43:48.500756  4889 net.cpp:157] Top shape: 43 20 12 12 (123840)
I0211 09:43:48.500761  4889 net.cpp:165] Memory required for data: 2611820
I0211 09:43:48.500766  4889 layer_factory.hpp:77] Creating layer conv2
I0211 09:43:48.500778  4889 net.cpp:106] Creating Layer conv2
I0211 09:43:48.500785  4889 net.cpp:454] conv2 <- pool1
I0211 09:43:48.500797  4889 net.cpp:411] conv2 -> conv2
I0211 09:43:48.501220  4889 net.cpp:150] Setting up conv2
I0211 09:43:48.501233  4889 net.cpp:157] Top shape: 43 50 8 8 (137600)
I0211 09:43:48.501237  4889 net.cpp:165] Memory required for data: 3162220
I0211 09:43:48.501248  4889 layer_factory.hpp:77] Creating layer pool2
I0211 09:43:48.501261  4889 net.cpp:106] Creating Layer pool2
I0211 09:43:48.501267  4889 net.cpp:454] pool2 <- conv2
I0211 09:43:48.501278  4889 net.cpp:411] pool2 -> pool2
I0211 09:43:48.501426  4889 net.cpp:150] Setting up pool2
I0211 09:43:48.501436  4889 net.cpp:157] Top shape: 43 50 4 4 (34400)
I0211 09:43:48.501442  4889 net.cpp:165] Memory required for data: 3299820
I0211 09:43:48.501447  4889 layer_factory.hpp:77] Creating layer ip1
I0211 09:43:48.501462  4889 net.cpp:106] Creating Layer ip1
I0211 09:43:48.501469  4889 net.cpp:454] ip1 <- pool2
I0211 09:43:48.501483  4889 net.cpp:411] ip1 -> ip1
I0211 09:43:48.503824  4894 blocking_queue.cpp:50] Waiting for data
I0211 09:43:48.505990  4889 net.cpp:150] Setting up ip1
I0211 09:43:48.506006  4889 net.cpp:157] Top shape: 43 500 (21500)
I0211 09:43:48.506011  4889 net.cpp:165] Memory required for data: 3385820
I0211 09:43:48.506022  4889 layer_factory.hpp:77] Creating layer relu1
I0211 09:43:48.506031  4889 net.cpp:106] Creating Layer relu1
I0211 09:43:48.506036  4889 net.cpp:454] relu1 <- ip1
I0211 09:43:48.506043  4889 net.cpp:397] relu1 -> ip1 (in-place)
I0211 09:43:48.506057  4889 net.cpp:150] Setting up relu1
I0211 09:43:48.506063  4889 net.cpp:157] Top shape: 43 500 (21500)
I0211 09:43:48.506068  4889 net.cpp:165] Memory required for data: 3471820
I0211 09:43:48.506073  4889 layer_factory.hpp:77] Creating layer ip2
I0211 09:43:48.506086  4889 net.cpp:106] Creating Layer ip2
I0211 09:43:48.506093  4889 net.cpp:454] ip2 <- ip1
I0211 09:43:48.506100  4889 net.cpp:411] ip2 -> ip2
I0211 09:43:48.506981  4889 net.cpp:150] Setting up ip2
I0211 09:43:48.506995  4889 net.cpp:157] Top shape: 43 10 (430)
I0211 09:43:48.507000  4889 net.cpp:165] Memory required for data: 3473540
I0211 09:43:48.507009  4889 layer_factory.hpp:77] Creating layer loss
I0211 09:43:48.507019  4889 net.cpp:106] Creating Layer loss
I0211 09:43:48.507025  4889 net.cpp:454] loss <- ip2
I0211 09:43:48.507031  4889 net.cpp:454] loss <- label
I0211 09:43:48.507042  4889 net.cpp:411] loss -> loss
I0211 09:43:48.507062  4889 layer_factory.hpp:77] Creating layer loss
…
I0211 09:43:48.508558  4889 solver.cpp:181] Creating test net (#0) specified by net file: examples/mnist/lenet_train_test.prototxt
I0211 09:43:48.508604  4889 net.cpp:322] The NetState phase (1) differed from the phase (0) specified by a rule in layer mnist
I0211 09:43:48.508796  4889 net.cpp:49] Initializing net from parameters: 
name: "LeNet"
state {
  phase: TEST
}
layer {
  name: "mnist"
  type: "Data"
  top: "data"
  top: "label"
  include {
    phase: TEST
  }
  transform_param {
    scale: 0.00390625
  }
  data_param {
    source: "examples/mnist/mnist_test_lmdb"
    batch_size: 100
    backend: LMDB
  }
}
layer {
  name: "conv1"
  type: "Convolution"
  bottom: "data"
  top: "conv1"
  param {
    lr_mult: 1
  }
  param {
    lr_mult: 2
  }
  convolution_param {
    num_output: 20
    kernel_size: 5
    stride: 1
    weight_filler {
      type: "xavier"
    }
    bias_filler {
      type: "constant"
    }
  }
}
layer {
  name: "pool1"
  type: "Pooling"
  bottom: "conv1"
  top: "pool1"
  pooling_param {
    pool: MAX
    kernel_size: 2
    stride: 2
  }
}
layer {
  name: "conv2"
  type: "Convolution"
  bottom: "pool1"
  top: "conv2"
  param {
    lr_mult: 1
  }
  param {
    lr_mult: 2
  }
  convolution_param {
    num_output: 50
    kernel_size: 5
    stride: 1
    weight_filler {
      type: "xavier"
    }
    bias_filler {
      type: "constant"
    }
  }
}
layer {
  name: "pool2"
  type: "Pooling"
  bottom: "conv2"
  top: "pool2"
  pooling_param {
    pool: MAX
    kernel_size: 2
    stride: 2
  }
}
layer {
  name: "ip1"
  type: "InnerProduct"
  bottom: "pool2"
  top: "ip1"
  param {
    lr_mult: 1
  }
  param {
    lr_mult: 2
  }
  inner_product_param {
    num_output: 500
    weight_filler {
      type: "xavier"
    }
    bias_filler {
      type: "constant"
    }
  }
}
layer {
  name: "relu1"
  type: "ReLU"
  bottom: "ip1"
  top: "ip1"
}
layer {
  name: "ip2"
  type: "InnerProduct"
  bottom: "ip1"
  top: "ip2"
  param {
    lr_mult: 1
  }
  param {
    lr_mult: 2
  }
  inner_product_param {
    num_output: 10
    weight_filler {
      type: "xavier"
    }
    bias_filler {
      type: "constant"
    }
  }
}
layer {
  name: "accuracy"
  type: "Accuracy"
  bottom: "ip2"
  bottom: "label"
  top: "accuracy"
  include {
    phase: TEST
  }
}
layer {
  name: "loss"
  type: "SoftmaxWithLoss"
  bottom: "ip2"
  bottom: "label"
  top: "loss"
}
I0211 09:43:48.508899  4889 layer_factory.hpp:77] Creating layer mnist
I0211 09:43:48.509037  4889 net.cpp:106] Creating Layer mnist
I0211 09:43:48.509050  4889 net.cpp:411] mnist -> data
I0211 09:43:48.509063  4889 net.cpp:411] mnist -> label
I0211 09:43:48.514236  4895 db_lmdb.cpp:38] Opened lmdb examples/mnist/mnist_test_lmdb
I0211 09:43:48.514739  4889 data_layer.cpp:41] output data size: 100,1,28,28
I0211 09:43:48.516777  4889 net.cpp:150] Setting up mnist
I0211 09:43:48.516803  4889 net.cpp:157] Top shape: 100 1 28 28 (78400)
I0211 09:43:48.516813  4889 net.cpp:157] Top shape: 100 (100)
I0211 09:43:48.516820  4889 net.cpp:165] Memory required for data: 314000
I0211 09:43:48.516829  4889 layer_factory.hpp:77] Creating layer label_mnist_1_split
I0211 09:43:48.516849  4889 net.cpp:106] Creating Layer label_mnist_1_split
I0211 09:43:48.516860  4889 net.cpp:454] label_mnist_1_split <- label
I0211 09:43:48.516873  4889 net.cpp:411] label_mnist_1_split -> label_mnist_1_split_0
I0211 09:43:48.516891  4889 net.cpp:411] label_mnist_1_split -> label_mnist_1_split_1
I0211 09:43:48.517098  4889 net.cpp:150] Setting up label_mnist_1_split
I0211 09:43:48.517117  4889 net.cpp:157] Top shape: 100 (100)
I0211 09:43:48.517128  4889 net.cpp:157] Top shape: 100 (100)
I0211 09:43:48.517137  4889 net.cpp:165] Memory required for data: 314800
I0211 09:43:48.517146  4889 layer_factory.hpp:77] Creating layer conv1
I0211 09:43:48.517171  4889 net.cpp:106] Creating Layer conv1
I0211 09:43:48.517182  4889 net.cpp:454] conv1 <- data
I0211 09:43:48.517200  4889 net.cpp:411] conv1 -> conv1
I0211 09:43:48.517597  4889 net.cpp:150] Setting up conv1
I0211 09:43:48.517624  4889 net.cpp:157] Top shape: 100 20 24 24 (1152000)
I0211 09:43:48.517634  4889 net.cpp:165] Memory required for data: 4922800
I0211 09:43:48.517657  4889 layer_factory.hpp:77] Creating layer pool1
I0211 09:43:48.517701  4889 net.cpp:106] Creating Layer pool1
I0211 09:43:48.517712  4889 net.cpp:454] pool1 <- conv1
I0211 09:43:48.517729  4889 net.cpp:411] pool1 -> pool1
I0211 09:43:48.517984  4889 net.cpp:150] Setting up pool1
I0211 09:43:48.518002  4889 net.cpp:157] Top shape: 100 20 12 12 (288000)
I0211 09:43:48.518012  4889 net.cpp:165] Memory required for data: 6074800
I0211 09:43:48.518019  4889 layer_factory.hpp:77] Creating layer conv2
I0211 09:43:48.518041  4889 net.cpp:106] Creating Layer conv2
I0211 09:43:48.518049  4889 net.cpp:454] conv2 <- pool1
I0211 09:43:48.518062  4889 net.cpp:411] conv2 -> conv2
I0211 09:43:48.518772  4889 net.cpp:150] Setting up conv2
I0211 09:43:48.518792  4889 net.cpp:157] Top shape: 100 50 8 8 (320000)
I0211 09:43:48.518800  4889 net.cpp:165] Memory required for data: 7354800
I0211 09:43:48.518817  4889 layer_factory.hpp:77] Creating layer pool2
I0211 09:43:48.518836  4889 net.cpp:106] Creating Layer pool2
I0211 09:43:48.518846  4889 net.cpp:454] pool2 <- conv2
I0211 09:43:48.518863  4889 net.cpp:411] pool2 -> pool2
I0211 09:43:48.519104  4889 net.cpp:150] Setting up pool2
I0211 09:43:48.519121  4889 net.cpp:157] Top shape: 100 50 4 4 (80000)
I0211 09:43:48.519130  4889 net.cpp:165] Memory required for data: 7674800
I0211 09:43:48.519139  4889 layer_factory.hpp:77] Creating layer ip1
I0211 09:43:48.519152  4889 net.cpp:106] Creating Layer ip1
I0211 09:43:48.519162  4889 net.cpp:454] ip1 <- pool2
I0211 09:43:48.519179  4889 net.cpp:411] ip1 -> ip1
I0211 09:43:48.526515  4889 net.cpp:150] Setting up ip1
I0211 09:43:48.526540  4889 net.cpp:157] Top shape: 100 500 (50000)
I0211 09:43:48.526548  4889 net.cpp:165] Memory required for data: 7874800
I0211 09:43:48.526569  4889 layer_factory.hpp:77] Creating layer relu1
I0211 09:43:48.526592  4889 net.cpp:106] Creating Layer relu1
I0211 09:43:48.526602  4889 net.cpp:454] relu1 <- ip1
I0211 09:43:48.526613  4889 net.cpp:397] relu1 -> ip1 (in-place)
I0211 09:43:48.526635  4889 net.cpp:150] Setting up relu1
I0211 09:43:48.526648  4889 net.cpp:157] Top shape: 100 500 (50000)
I0211 09:43:48.526654  4889 net.cpp:165] Memory required for data: 8074800
I0211 09:43:48.526664  4889 layer_factory.hpp:77] Creating layer ip2
I0211 09:43:48.526679  4889 net.cpp:106] Creating Layer ip2
I0211 09:43:48.526690  4889 net.cpp:454] ip2 <- ip1
I0211 09:43:48.526706  4889 net.cpp:411] ip2 -> ip2
I0211 09:43:48.526968  4889 net.cpp:150] Setting up ip2
I0211 09:43:48.526988  4889 net.cpp:157] Top shape: 100 10 (1000)
I0211 09:43:48.526996  4889 net.cpp:165] Memory required for data: 8078800
I0211 09:43:48.527012  4889 layer_factory.hpp:77] Creating layer ip2_ip2_0_split
I0211 09:43:48.527025  4889 net.cpp:106] Creating Layer ip2_ip2_0_split
I0211 09:43:48.527035  4889 net.cpp:454] ip2_ip2_0_split <- ip2
I0211 09:43:48.527050  4889 net.cpp:411] ip2_ip2_0_split -> ip2_ip2_0_split_0
I0211 09:43:48.527065  4889 net.cpp:411] ip2_ip2_0_split -> ip2_ip2_0_split_1
I0211 09:43:48.527138  4889 net.cpp:150] Setting up ip2_ip2_0_split
I0211 09:43:48.527155  4889 net.cpp:157] Top shape: 100 10 (1000)
I0211 09:43:48.527166  4889 net.cpp:157] Top shape: 100 10 (1000)
I0211 09:43:48.527175  4889 net.cpp:165] Memory required for data: 8086800
I0211 09:43:48.527185  4889 layer_factory.hpp:77] Creating layer accuracy
I0211 09:43:48.527209  4889 net.cpp:106] Creating Layer accuracy
I0211 09:43:48.527218  4889 net.cpp:454] accuracy <- ip2_ip2_0_split_0
I0211 09:43:48.527231  4889 net.cpp:454] accuracy <- label_mnist_1_split_0
I0211 09:43:48.527245  4889 net.cpp:411] accuracy -> accuracy
…
