…
I0211 09:37:14.461633  4486 net.cpp:322] The NetState phase (0) differed from the phase (1) specified by a rule in layer mnist
I0211 09:37:14.461659  4486 net.cpp:322] The NetState phase (0) differed from the phase (1) specified by a rule in layer accuracy
I0211 09:37:14.461787  4486 net.cpp:49] Initializing net from parameters: 
name: "LeNet"
state {
  phase: TRAIN
}
layer {
  name: "mnist"
  type: "Data"
  top: "data"
  top: "label"
  include {
    phase: TRAIN
  }
  transform_param {
    scale: 0.00390625
  }
  data_param {
    source: "examples/mnist/mnist_train_lmdb"
    batch_size: 18
    backend: LMDB
  }
}
layer {
  name: "conv1"
  type: "Convolution"
  bottom: "data"
  top: "conv1"
  param {
    lr_mult: 1
  }
  param {
    lr_mult: 2
  }
  convolution_param {
    num_output: 20
    kernel_size: 5
    stride: 1
    weight_filler {
      type: "xavier"
    }
    bias_filler {
      type: "constant"
    }
  }
}
layer {
  name: "pool1"
  type: "Pooling"
  bottom: "conv1"
  top: "pool1"
  pooling_param {
    pool: MAX
    kernel_size: 2
    stride: 2
  }
}
layer {
  name: "conv2"
  type: "Convolution"
  bottom: "pool1"
  top: "conv2"
  param {
    lr_mult: 1
  }
  param {
    lr_mult: 2
  }
  convolution_param {
    num_output: 50
    kernel_size: 5
    stride: 1
    weight_filler {
      type: "xavier"
    }
    bias_filler {
      type: "constant"
    }
  }
}
layer {
  name: "pool2"
  type: "Pooling"
  bottom: "conv2"
  top: "pool2"
  pooling_param {
    pool: MAX
    kernel_size: 2
    stride: 2
  }
}
layer {
  name: "ip1"
  type: "InnerProduct"
  bottom: "pool2"
  top: "ip1"
  param {
    lr_mult: 1
  }
  param {
    lr_mult: 2
  }
  inner_product_param {
    num_output: 500
    weight_filler {
      type: "xavier"
    }
    bias_filler {
      type: "constant"
    }
  }
}
layer {
  name: "relu1"
  type: "ReLU"
  bottom: "ip1"
  top: "ip1"
}
layer {
  name: "ip2"
  type: "InnerProduct"
  bottom: "ip1"
  top: "ip2"
  param {
    lr_mult: 1
  }
  param {
    lr_mult: 2
  }
  inner_product_param {
    num_output: 10
    weight_filler {
      type: "xavier"
    }
    bias_filler {
      type: "constant"
    }
  }
}
layer {
  name: "loss"
  type: "SoftmaxWithLoss"
  bottom: "ip2"
  bottom: "label"
  top: "loss"
}
I0211 09:37:14.461870  4486 layer_factory.hpp:77] Creating layer mnist
I0211 09:37:14.463065  4486 net.cpp:106] Creating Layer mnist
I0211 09:37:14.463102  4486 net.cpp:411] mnist -> data
I0211 09:37:14.463232  4486 net.cpp:411] mnist -> label
I0211 09:37:14.469712  4490 db_lmdb.cpp:38] Opened lmdb examples/mnist/mnist_train_lmdb
I0211 09:37:14.490305  4486 data_layer.cpp:41] output data size: 18,1,28,28
I0211 09:37:14.491384  4486 net.cpp:150] Setting up mnist
I0211 09:37:14.491405  4486 net.cpp:157] Top shape: 18 1 28 28 (14112)
I0211 09:37:14.491417  4486 net.cpp:157] Top shape: 18 (18)
I0211 09:37:14.491422  4486 net.cpp:165] Memory required for data: 56520
I0211 09:37:14.491436  4486 layer_factory.hpp:77] Creating layer conv1
I0211 09:37:14.491466  4486 net.cpp:106] Creating Layer conv1
I0211 09:37:14.491477  4486 net.cpp:454] conv1 <- data
I0211 09:37:14.491498  4486 net.cpp:411] conv1 -> conv1
I0211 09:37:14.492766  4486 net.cpp:150] Setting up conv1
I0211 09:37:14.492781  4486 net.cpp:157] Top shape: 18 20 24 24 (207360)
I0211 09:37:14.492786  4486 net.cpp:165] Memory required for data: 885960
I0211 09:37:14.492802  4486 layer_factory.hpp:77] Creating layer pool1
I0211 09:37:14.492817  4486 net.cpp:106] Creating Layer pool1
I0211 09:37:14.492825  4486 net.cpp:454] pool1 <- conv1
I0211 09:37:14.492833  4486 net.cpp:411] pool1 -> pool1
I0211 09:37:14.493047  4486 net.cpp:150] Setting up pool1
I0211 09:37:14.493060  4486 net.cpp:157] Top shape: 18 20 12 12 (51840)
I0211 09:37:14.493067  4486 net.cpp:165] Memory required for data: 1093320
I0211 09:37:14.493072  4486 layer_factory.hpp:77] Creating layer conv2
I0211 09:37:14.493087  4486 net.cpp:106] Creating Layer conv2
I0211 09:37:14.493093  4486 net.cpp:454] conv2 <- pool1
I0211 09:37:14.493103  4486 net.cpp:411] conv2 -> conv2
I0211 09:37:14.494480  4486 net.cpp:150] Setting up conv2
I0211 09:37:14.494495  4486 net.cpp:157] Top shape: 18 50 8 8 (57600)
I0211 09:37:14.494500  4486 net.cpp:165] Memory required for data: 1323720
I0211 09:37:14.494510  4486 layer_factory.hpp:77] Creating layer pool2
I0211 09:37:14.494520  4486 net.cpp:106] Creating Layer pool2
I0211 09:37:14.494526  4486 net.cpp:454] pool2 <- conv2
I0211 09:37:14.494536  4486 net.cpp:411] pool2 -> pool2
I0211 09:37:14.494688  4486 net.cpp:150] Setting up pool2
I0211 09:37:14.494699  4486 net.cpp:157] Top shape: 18 50 4 4 (14400)
I0211 09:37:14.494702  4486 net.cpp:165] Memory required for data: 1381320
I0211 09:37:14.494707  4486 layer_factory.hpp:77] Creating layer ip1
I0211 09:37:14.494724  4486 net.cpp:106] Creating Layer ip1
I0211 09:37:14.494730  4486 net.cpp:454] ip1 <- pool2
I0211 09:37:14.494738  4486 net.cpp:411] ip1 -> ip1
I0211 09:37:14.496080  4491 blocking_queue.cpp:50] Waiting for data
I0211 09:37:14.499248  4486 net.cpp:150] Setting up ip1
I0211 09:37:14.499264  4486 net.cpp:157] Top shape: 18 500 (9000)
I0211 09:37:14.499269  4486 net.cpp:165] Memory required for data: 1417320
I0211 09:37:14.499280  4486 layer_factory.hpp:77] Creating layer relu1
I0211 09:37:14.499289  4486 net.cpp:106] Creating Layer relu1
I0211 09:37:14.499294  4486 net.cpp:454] relu1 <- ip1
I0211 09:37:14.499305  4486 net.cpp:397] relu1 -> ip1 (in-place)
I0211 09:37:14.499317  4486 net.cpp:150] Setting up relu1
I0211 09:37:14.499325  4486 net.cpp:157] Top shape: 18 500 (9000)
I0211 09:37:14.499330  4486 net.cpp:165] Memory required for data: 1453320
I0211 09:37:14.499336  4486 layer_factory.hpp:77] Creating layer ip2
I0211 09:37:14.499346  4486 net.cpp:106] Creating Layer ip2
I0211 09:37:14.499351  4486 net.cpp:454] ip2 <- ip1
I0211 09:37:14.499361  4486 net.cpp:411] ip2 -> ip2
I0211 09:37:14.499512  4486 net.cpp:150] Setting up ip2
I0211 09:37:14.499523  4486 net.cpp:157] Top shape: 18 10 (180)
I0211 09:37:14.499528  4486 net.cpp:165] Memory required for data: 1454040
I0211 09:37:14.499538  4486 layer_factory.hpp:77] Creating layer loss
I0211 09:37:14.499552  4486 net.cpp:106] Creating Layer loss
I0211 09:37:14.499557  4486 net.cpp:454] loss <- ip2
I0211 09:37:14.499564  4486 net.cpp:454] loss <- label
I0211 09:37:14.499575  4486 net.cpp:411] loss -> loss
I0211 09:37:14.499593  4486 layer_factory.hpp:77] Creating layer loss
…
I0211 09:37:14.501044  4486 solver.cpp:181] Creating test net (#0) specified by net file: examples/mnist/lenet_train_test.prototxt
I0211 09:37:14.501098  4486 net.cpp:322] The NetState phase (1) differed from the phase (0) specified by a rule in layer mnist
I0211 09:37:14.501267  4486 net.cpp:49] Initializing net from parameters: 
name: "LeNet"
state {
  phase: TEST
}
layer {
  name: "mnist"
  type: "Data"
  top: "data"
  top: "label"
  include {
    phase: TEST
  }
  transform_param {
    scale: 0.00390625
  }
  data_param {
    source: "examples/mnist/mnist_test_lmdb"
    batch_size: 100
    backend: LMDB
  }
}
layer {
  name: "conv1"
  type: "Convolution"
  bottom: "data"
  top: "conv1"
  param {
    lr_mult: 1
  }
  param {
    lr_mult: 2
  }
  convolution_param {
    num_output: 20
    kernel_size: 5
    stride: 1
    weight_filler {
      type: "xavier"
    }
    bias_filler {
      type: "constant"
    }
  }
}
layer {
  name: "pool1"
  type: "Pooling"
  bottom: "conv1"
  top: "pool1"
  pooling_param {
    pool: MAX
    kernel_size: 2
    stride: 2
  }
}
layer {
  name: "conv2"
  type: "Convolution"
  bottom: "pool1"
  top: "conv2"
  param {
    lr_mult: 1
  }
  param {
    lr_mult: 2
  }
  convolution_param {
    num_output: 50
    kernel_size: 5
    stride: 1
    weight_filler {
      type: "xavier"
    }
    bias_filler {
      type: "constant"
    }
  }
}
layer {
  name: "pool2"
  type: "Pooling"
  bottom: "conv2"
  top: "pool2"
  pooling_param {
    pool: MAX
    kernel_size: 2
    stride: 2
  }
}
layer {
  name: "ip1"
  type: "InnerProduct"
  bottom: "pool2"
  top: "ip1"
  param {
    lr_mult: 1
  }
  param {
    lr_mult: 2
  }
  inner_product_param {
    num_output: 500
    weight_filler {
      type: "xavier"
    }
    bias_filler {
      type: "constant"
    }
  }
}
layer {
  name: "relu1"
  type: "ReLU"
  bottom: "ip1"
  top: "ip1"
}
layer {
  name: "ip2"
  type: "InnerProduct"
  bottom: "ip1"
  top: "ip2"
  param {
    lr_mult: 1
  }
  param {
    lr_mult: 2
  }
  inner_product_param {
    num_output: 10
    weight_filler {
      type: "xavier"
    }
    bias_filler {
      type: "constant"
    }
  }
}
layer {
  name: "accuracy"
  type: "Accuracy"
  bottom: "ip2"
  bottom: "label"
  top: "accuracy"
  include {
    phase: TEST
  }
}
layer {
  name: "loss"
  type: "SoftmaxWithLoss"
  bottom: "ip2"
  bottom: "label"
  top: "loss"
}
I0211 09:37:14.501365  4486 layer_factory.hpp:77] Creating layer mnist
I0211 09:37:14.501502  4486 net.cpp:106] Creating Layer mnist
I0211 09:37:14.501518  4486 net.cpp:411] mnist -> data
I0211 09:37:14.501530  4486 net.cpp:411] mnist -> label
I0211 09:37:14.507448  4492 db_lmdb.cpp:38] Opened lmdb examples/mnist/mnist_test_lmdb
I0211 09:37:14.507814  4486 data_layer.cpp:41] output data size: 100,1,28,28
I0211 09:37:14.509920  4486 net.cpp:150] Setting up mnist
I0211 09:37:14.509943  4486 net.cpp:157] Top shape: 100 1 28 28 (78400)
I0211 09:37:14.509951  4486 net.cpp:157] Top shape: 100 (100)
I0211 09:37:14.509958  4486 net.cpp:165] Memory required for data: 314000
I0211 09:37:14.509964  4486 layer_factory.hpp:77] Creating layer label_mnist_1_split
I0211 09:37:14.509975  4486 net.cpp:106] Creating Layer label_mnist_1_split
I0211 09:37:14.509981  4486 net.cpp:454] label_mnist_1_split <- label
I0211 09:37:14.509991  4486 net.cpp:411] label_mnist_1_split -> label_mnist_1_split_0
I0211 09:37:14.510007  4486 net.cpp:411] label_mnist_1_split -> label_mnist_1_split_1
I0211 09:37:14.510071  4486 net.cpp:150] Setting up label_mnist_1_split
I0211 09:37:14.510083  4486 net.cpp:157] Top shape: 100 (100)
I0211 09:37:14.510092  4486 net.cpp:157] Top shape: 100 (100)
I0211 09:37:14.510097  4486 net.cpp:165] Memory required for data: 314800
I0211 09:37:14.510104  4486 layer_factory.hpp:77] Creating layer conv1
I0211 09:37:14.510123  4486 net.cpp:106] Creating Layer conv1
I0211 09:37:14.510130  4486 net.cpp:454] conv1 <- data
I0211 09:37:14.510144  4486 net.cpp:411] conv1 -> conv1
I0211 09:37:14.510655  4486 net.cpp:150] Setting up conv1
I0211 09:37:14.510670  4486 net.cpp:157] Top shape: 100 20 24 24 (1152000)
I0211 09:37:14.510678  4486 net.cpp:165] Memory required for data: 4922800
I0211 09:37:14.510692  4486 layer_factory.hpp:77] Creating layer pool1
I0211 09:37:14.510710  4486 net.cpp:106] Creating Layer pool1
I0211 09:37:14.510735  4486 net.cpp:454] pool1 <- conv1
I0211 09:37:14.510746  4486 net.cpp:411] pool1 -> pool1
I0211 09:37:14.510937  4486 net.cpp:150] Setting up pool1
I0211 09:37:14.510951  4486 net.cpp:157] Top shape: 100 20 12 12 (288000)
I0211 09:37:14.510958  4486 net.cpp:165] Memory required for data: 6074800
I0211 09:37:14.510967  4486 layer_factory.hpp:77] Creating layer conv2
I0211 09:37:14.510987  4486 net.cpp:106] Creating Layer conv2
I0211 09:37:14.510993  4486 net.cpp:454] conv2 <- pool1
I0211 09:37:14.511003  4486 net.cpp:411] conv2 -> conv2
I0211 09:37:14.511450  4486 net.cpp:150] Setting up conv2
I0211 09:37:14.511466  4486 net.cpp:157] Top shape: 100 50 8 8 (320000)
I0211 09:37:14.511471  4486 net.cpp:165] Memory required for data: 7354800
I0211 09:37:14.511482  4486 layer_factory.hpp:77] Creating layer pool2
I0211 09:37:14.511492  4486 net.cpp:106] Creating Layer pool2
I0211 09:37:14.511497  4486 net.cpp:454] pool2 <- conv2
I0211 09:37:14.511505  4486 net.cpp:411] pool2 -> pool2
I0211 09:37:14.511654  4486 net.cpp:150] Setting up pool2
I0211 09:37:14.511665  4486 net.cpp:157] Top shape: 100 50 4 4 (80000)
I0211 09:37:14.511670  4486 net.cpp:165] Memory required for data: 7674800
I0211 09:37:14.511677  4486 layer_factory.hpp:77] Creating layer ip1
I0211 09:37:14.511688  4486 net.cpp:106] Creating Layer ip1
I0211 09:37:14.511695  4486 net.cpp:454] ip1 <- pool2
I0211 09:37:14.511706  4486 net.cpp:411] ip1 -> ip1
I0211 09:37:14.518992  4486 net.cpp:150] Setting up ip1
I0211 09:37:14.519019  4486 net.cpp:157] Top shape: 100 500 (50000)
I0211 09:37:14.519027  4486 net.cpp:165] Memory required for data: 7874800
I0211 09:37:14.519048  4486 layer_factory.hpp:77] Creating layer relu1
I0211 09:37:14.519067  4486 net.cpp:106] Creating Layer relu1
I0211 09:37:14.519078  4486 net.cpp:454] relu1 <- ip1
I0211 09:37:14.519098  4486 net.cpp:397] relu1 -> ip1 (in-place)
I0211 09:37:14.519116  4486 net.cpp:150] Setting up relu1
I0211 09:37:14.519129  4486 net.cpp:157] Top shape: 100 500 (50000)
I0211 09:37:14.519140  4486 net.cpp:165] Memory required for data: 8074800
I0211 09:37:14.519150  4486 layer_factory.hpp:77] Creating layer ip2
I0211 09:37:14.519168  4486 net.cpp:106] Creating Layer ip2
I0211 09:37:14.519179  4486 net.cpp:454] ip2 <- ip1
I0211 09:37:14.519198  4486 net.cpp:411] ip2 -> ip2
I0211 09:37:14.519480  4486 net.cpp:150] Setting up ip2
I0211 09:37:14.519501  4486 net.cpp:157] Top shape: 100 10 (1000)
I0211 09:37:14.519511  4486 net.cpp:165] Memory required for data: 8078800
I0211 09:37:14.519528  4486 layer_factory.hpp:77] Creating layer ip2_ip2_0_split
I0211 09:37:14.519543  4486 net.cpp:106] Creating Layer ip2_ip2_0_split
I0211 09:37:14.519553  4486 net.cpp:454] ip2_ip2_0_split <- ip2
I0211 09:37:14.519567  4486 net.cpp:411] ip2_ip2_0_split -> ip2_ip2_0_split_0
I0211 09:37:14.519585  4486 net.cpp:411] ip2_ip2_0_split -> ip2_ip2_0_split_1
I0211 09:37:14.519661  4486 net.cpp:150] Setting up ip2_ip2_0_split
I0211 09:37:14.519671  4486 net.cpp:157] Top shape: 100 10 (1000)
I0211 09:37:14.519678  4486 net.cpp:157] Top shape: 100 10 (1000)
I0211 09:37:14.519683  4486 net.cpp:165] Memory required for data: 8086800
I0211 09:37:14.519688  4486 layer_factory.hpp:77] Creating layer accuracy
I0211 09:37:14.519703  4486 net.cpp:106] Creating Layer accuracy
I0211 09:37:14.519711  4486 net.cpp:454] accuracy <- ip2_ip2_0_split_0
I0211 09:37:14.519716  4486 net.cpp:454] accuracy <- label_mnist_1_split_0
I0211 09:37:14.519723  4486 net.cpp:411] accuracy -> accuracy
…
