…
I0211 09:43:33.370328  4869 net.cpp:322] The NetState phase (0) differed from the phase (1) specified by a rule in layer mnist
I0211 09:43:33.370389  4869 net.cpp:322] The NetState phase (0) differed from the phase (1) specified by a rule in layer accuracy
I0211 09:43:33.370672  4869 net.cpp:49] Initializing net from parameters: 
name: "LeNet"
state {
  phase: TRAIN
}
layer {
  name: "mnist"
  type: "Data"
  top: "data"
  top: "label"
  include {
    phase: TRAIN
  }
  transform_param {
    scale: 0.00390625
  }
  data_param {
    source: "examples/mnist/mnist_train_lmdb"
    batch_size: 43
    backend: LMDB
  }
}
layer {
  name: "conv1"
  type: "Convolution"
  bottom: "data"
  top: "conv1"
  param {
    lr_mult: 1
  }
  param {
    lr_mult: 2
  }
  convolution_param {
    num_output: 20
    kernel_size: 5
    stride: 1
    weight_filler {
      type: "xavier"
    }
    bias_filler {
      type: "constant"
    }
  }
}
layer {
  name: "pool1"
  type: "Pooling"
  bottom: "conv1"
  top: "pool1"
  pooling_param {
    pool: MAX
    kernel_size: 2
    stride: 2
  }
}
layer {
  name: "conv2"
  type: "Convolution"
  bottom: "pool1"
  top: "conv2"
  param {
    lr_mult: 1
  }
  param {
    lr_mult: 2
  }
  convolution_param {
    num_output: 50
    kernel_size: 5
    stride: 1
    weight_filler {
      type: "xavier"
    }
    bias_filler {
      type: "constant"
    }
  }
}
layer {
  name: "pool2"
  type: "Pooling"
  bottom: "conv2"
  top: "pool2"
  pooling_param {
    pool: MAX
    kernel_size: 2
    stride: 2
  }
}
layer {
  name: "ip1"
  type: "InnerProduct"
  bottom: "pool2"
  top: "ip1"
  param {
    lr_mult: 1
  }
  param {
    lr_mult: 2
  }
  inner_product_param {
    num_output: 500
    weight_filler {
      type: "xavier"
    }
    bias_filler {
      type: "constant"
    }
  }
}
layer {
  name: "relu1"
  type: "ReLU"
  bottom: "ip1"
  top: "ip1"
}
layer {
  name: "ip2"
  type: "InnerProduct"
  bottom: "ip1"
  top: "ip2"
  param {
    lr_mult: 1
  }
  param {
    lr_mult: 2
  }
  inner_product_param {
    num_output: 10
    weight_filler {
      type: "xavier"
    }
    bias_filler {
      type: "constant"
    }
  }
}
layer {
  name: "loss"
  type: "SoftmaxWithLoss"
  bottom: "ip2"
  bottom: "label"
  top: "loss"
}
I0211 09:43:33.370846  4869 layer_factory.hpp:77] Creating layer mnist
I0211 09:43:33.371964  4869 net.cpp:106] Creating Layer mnist
I0211 09:43:33.371985  4869 net.cpp:411] mnist -> data
I0211 09:43:33.372021  4869 net.cpp:411] mnist -> label
I0211 09:43:33.377913  4873 db_lmdb.cpp:38] Opened lmdb examples/mnist/mnist_train_lmdb
I0211 09:43:33.399171  4869 data_layer.cpp:41] output data size: 43,1,28,28
I0211 09:43:33.400420  4869 net.cpp:150] Setting up mnist
I0211 09:43:33.400442  4869 net.cpp:157] Top shape: 43 1 28 28 (33712)
I0211 09:43:33.400450  4869 net.cpp:157] Top shape: 43 (43)
I0211 09:43:33.400455  4869 net.cpp:165] Memory required for data: 135020
I0211 09:43:33.400468  4869 layer_factory.hpp:77] Creating layer conv1
I0211 09:43:33.400499  4869 net.cpp:106] Creating Layer conv1
I0211 09:43:33.400511  4869 net.cpp:454] conv1 <- data
I0211 09:43:33.400528  4869 net.cpp:411] conv1 -> conv1
I0211 09:43:33.401785  4869 net.cpp:150] Setting up conv1
I0211 09:43:33.401800  4869 net.cpp:157] Top shape: 43 20 24 24 (495360)
I0211 09:43:33.401805  4869 net.cpp:165] Memory required for data: 2116460
I0211 09:43:33.401823  4869 layer_factory.hpp:77] Creating layer pool1
I0211 09:43:33.401840  4869 net.cpp:106] Creating Layer pool1
I0211 09:43:33.401847  4869 net.cpp:454] pool1 <- conv1
I0211 09:43:33.401857  4869 net.cpp:411] pool1 -> pool1
I0211 09:43:33.402060  4869 net.cpp:150] Setting up pool1
I0211 09:43:33.402072  4869 net.cpp:157] Top shape: 43 20 12 12 (123840)
I0211 09:43:33.402078  4869 net.cpp:165] Memory required for data: 2611820
I0211 09:43:33.402083  4869 layer_factory.hpp:77] Creating layer conv2
I0211 09:43:33.402102  4869 net.cpp:106] Creating Layer conv2
I0211 09:43:33.402109  4869 net.cpp:454] conv2 <- pool1
I0211 09:43:33.402118  4869 net.cpp:411] conv2 -> conv2
I0211 09:43:33.402536  4869 net.cpp:150] Setting up conv2
I0211 09:43:33.402549  4869 net.cpp:157] Top shape: 43 50 8 8 (137600)
I0211 09:43:33.402554  4869 net.cpp:165] Memory required for data: 3162220
I0211 09:43:33.402565  4869 layer_factory.hpp:77] Creating layer pool2
I0211 09:43:33.402578  4869 net.cpp:106] Creating Layer pool2
I0211 09:43:33.402585  4869 net.cpp:454] pool2 <- conv2
I0211 09:43:33.402596  4869 net.cpp:411] pool2 -> pool2
I0211 09:43:33.402750  4869 net.cpp:150] Setting up pool2
I0211 09:43:33.402760  4869 net.cpp:157] Top shape: 43 50 4 4 (34400)
I0211 09:43:33.402766  4869 net.cpp:165] Memory required for data: 3299820
I0211 09:43:33.402771  4869 layer_factory.hpp:77] Creating layer ip1
I0211 09:43:33.402787  4869 net.cpp:106] Creating Layer ip1
I0211 09:43:33.402793  4869 net.cpp:454] ip1 <- pool2
I0211 09:43:33.402804  4869 net.cpp:411] ip1 -> ip1
I0211 09:43:33.404393  4874 blocking_queue.cpp:50] Waiting for data
I0211 09:43:33.407336  4869 net.cpp:150] Setting up ip1
I0211 09:43:33.407354  4869 net.cpp:157] Top shape: 43 500 (21500)
I0211 09:43:33.407359  4869 net.cpp:165] Memory required for data: 3385820
I0211 09:43:33.407371  4869 layer_factory.hpp:77] Creating layer relu1
I0211 09:43:33.407380  4869 net.cpp:106] Creating Layer relu1
I0211 09:43:33.407387  4869 net.cpp:454] relu1 <- ip1
I0211 09:43:33.407393  4869 net.cpp:397] relu1 -> ip1 (in-place)
I0211 09:43:33.407405  4869 net.cpp:150] Setting up relu1
I0211 09:43:33.407413  4869 net.cpp:157] Top shape: 43 500 (21500)
I0211 09:43:33.407418  4869 net.cpp:165] Memory required for data: 3471820
I0211 09:43:33.407425  4869 layer_factory.hpp:77] Creating layer ip2
I0211 09:43:33.407438  4869 net.cpp:106] Creating Layer ip2
I0211 09:43:33.407444  4869 net.cpp:454] ip2 <- ip1
I0211 09:43:33.407455  4869 net.cpp:411] ip2 -> ip2
I0211 09:43:33.408337  4869 net.cpp:150] Setting up ip2
I0211 09:43:33.408351  4869 net.cpp:157] Top shape: 43 10 (430)
I0211 09:43:33.408359  4869 net.cpp:165] Memory required for data: 3473540
I0211 09:43:33.408366  4869 layer_factory.hpp:77] Creating layer loss
I0211 09:43:33.408380  4869 net.cpp:106] Creating Layer loss
I0211 09:43:33.408385  4869 net.cpp:454] loss <- ip2
I0211 09:43:33.408391  4869 net.cpp:454] loss <- label
I0211 09:43:33.408401  4869 net.cpp:411] loss -> loss
I0211 09:43:33.408421  4869 layer_factory.hpp:77] Creating layer loss
…
I0211 09:43:33.409797  4869 solver.cpp:181] Creating test net (#0) specified by net file: examples/mnist/lenet_train_test.prototxt
I0211 09:43:33.409842  4869 net.cpp:322] The NetState phase (1) differed from the phase (0) specified by a rule in layer mnist
I0211 09:43:33.410013  4869 net.cpp:49] Initializing net from parameters: 
name: "LeNet"
state {
  phase: TEST
}
layer {
  name: "mnist"
  type: "Data"
  top: "data"
  top: "label"
  include {
    phase: TEST
  }
  transform_param {
    scale: 0.00390625
  }
  data_param {
    source: "examples/mnist/mnist_test_lmdb"
    batch_size: 100
    backend: LMDB
  }
}
layer {
  name: "conv1"
  type: "Convolution"
  bottom: "data"
  top: "conv1"
  param {
    lr_mult: 1
  }
  param {
    lr_mult: 2
  }
  convolution_param {
    num_output: 20
    kernel_size: 5
    stride: 1
    weight_filler {
      type: "xavier"
    }
    bias_filler {
      type: "constant"
    }
  }
}
layer {
  name: "pool1"
  type: "Pooling"
  bottom: "conv1"
  top: "pool1"
  pooling_param {
    pool: MAX
    kernel_size: 2
    stride: 2
  }
}
layer {
  name: "conv2"
  type: "Convolution"
  bottom: "pool1"
  top: "conv2"
  param {
    lr_mult: 1
  }
  param {
    lr_mult: 2
  }
  convolution_param {
    num_output: 50
    kernel_size: 5
    stride: 1
    weight_filler {
      type: "xavier"
    }
    bias_filler {
      type: "constant"
    }
  }
}
layer {
  name: "pool2"
  type: "Pooling"
  bottom: "conv2"
  top: "pool2"
  pooling_param {
    pool: MAX
    kernel_size: 2
    stride: 2
  }
}
layer {
  name: "ip1"
  type: "InnerProduct"
  bottom: "pool2"
  top: "ip1"
  param {
    lr_mult: 1
  }
  param {
    lr_mult: 2
  }
  inner_product_param {
    num_output: 500
    weight_filler {
      type: "xavier"
    }
    bias_filler {
      type: "constant"
    }
  }
}
layer {
  name: "relu1"
  type: "ReLU"
  bottom: "ip1"
  top: "ip1"
}
layer {
  name: "ip2"
  type: "InnerProduct"
  bottom: "ip1"
  top: "ip2"
  param {
    lr_mult: 1
  }
  param {
    lr_mult: 2
  }
  inner_product_param {
    num_output: 10
    weight_filler {
      type: "xavier"
    }
    bias_filler {
      type: "constant"
    }
  }
}
layer {
  name: "accuracy"
  type: "Accuracy"
  bottom: "ip2"
  bottom: "label"
  top: "accuracy"
  include {
    phase: TEST
  }
}
layer {
  name: "loss"
  type: "SoftmaxWithLoss"
  bottom: "ip2"
  bottom: "label"
  top: "loss"
}
I0211 09:43:33.410115  4869 layer_factory.hpp:77] Creating layer mnist
I0211 09:43:33.410751  4869 net.cpp:106] Creating Layer mnist
I0211 09:43:33.410764  4869 net.cpp:411] mnist -> data
I0211 09:43:33.410776  4869 net.cpp:411] mnist -> label
I0211 09:43:33.414773  4875 db_lmdb.cpp:38] Opened lmdb examples/mnist/mnist_test_lmdb
I0211 09:43:33.415112  4869 data_layer.cpp:41] output data size: 100,1,28,28
I0211 09:43:33.416751  4869 net.cpp:150] Setting up mnist
I0211 09:43:33.416767  4869 net.cpp:157] Top shape: 100 1 28 28 (78400)
I0211 09:43:33.416774  4869 net.cpp:157] Top shape: 100 (100)
I0211 09:43:33.416780  4869 net.cpp:165] Memory required for data: 314000
I0211 09:43:33.416787  4869 layer_factory.hpp:77] Creating layer label_mnist_1_split
I0211 09:43:33.416798  4869 net.cpp:106] Creating Layer label_mnist_1_split
I0211 09:43:33.416805  4869 net.cpp:454] label_mnist_1_split <- label
I0211 09:43:33.416813  4869 net.cpp:411] label_mnist_1_split -> label_mnist_1_split_0
I0211 09:43:33.416826  4869 net.cpp:411] label_mnist_1_split -> label_mnist_1_split_1
I0211 09:43:33.416883  4869 net.cpp:150] Setting up label_mnist_1_split
I0211 09:43:33.416893  4869 net.cpp:157] Top shape: 100 (100)
I0211 09:43:33.416900  4869 net.cpp:157] Top shape: 100 (100)
I0211 09:43:33.416906  4869 net.cpp:165] Memory required for data: 314800
I0211 09:43:33.416913  4869 layer_factory.hpp:77] Creating layer conv1
I0211 09:43:33.416929  4869 net.cpp:106] Creating Layer conv1
I0211 09:43:33.416935  4869 net.cpp:454] conv1 <- data
I0211 09:43:33.416944  4869 net.cpp:411] conv1 -> conv1
I0211 09:43:33.417438  4869 net.cpp:150] Setting up conv1
I0211 09:43:33.417450  4869 net.cpp:157] Top shape: 100 20 24 24 (1152000)
I0211 09:43:33.417456  4869 net.cpp:165] Memory required for data: 4922800
I0211 09:43:33.417469  4869 layer_factory.hpp:77] Creating layer pool1
I0211 09:43:33.417498  4869 net.cpp:106] Creating Layer pool1
I0211 09:43:33.417505  4869 net.cpp:454] pool1 <- conv1
I0211 09:43:33.417516  4869 net.cpp:411] pool1 -> pool1
I0211 09:43:33.417677  4869 net.cpp:150] Setting up pool1
I0211 09:43:33.417690  4869 net.cpp:157] Top shape: 100 20 12 12 (288000)
I0211 09:43:33.417695  4869 net.cpp:165] Memory required for data: 6074800
I0211 09:43:33.417701  4869 layer_factory.hpp:77] Creating layer conv2
I0211 09:43:33.417716  4869 net.cpp:106] Creating Layer conv2
I0211 09:43:33.417721  4869 net.cpp:454] conv2 <- pool1
I0211 09:43:33.417729  4869 net.cpp:411] conv2 -> conv2
I0211 09:43:33.418166  4869 net.cpp:150] Setting up conv2
I0211 09:43:33.418179  4869 net.cpp:157] Top shape: 100 50 8 8 (320000)
I0211 09:43:33.418184  4869 net.cpp:165] Memory required for data: 7354800
I0211 09:43:33.418197  4869 layer_factory.hpp:77] Creating layer pool2
I0211 09:43:33.418210  4869 net.cpp:106] Creating Layer pool2
I0211 09:43:33.418216  4869 net.cpp:454] pool2 <- conv2
I0211 09:43:33.418225  4869 net.cpp:411] pool2 -> pool2
I0211 09:43:33.418372  4869 net.cpp:150] Setting up pool2
I0211 09:43:33.418383  4869 net.cpp:157] Top shape: 100 50 4 4 (80000)
I0211 09:43:33.418388  4869 net.cpp:165] Memory required for data: 7674800
I0211 09:43:33.418395  4869 layer_factory.hpp:77] Creating layer ip1
I0211 09:43:33.418406  4869 net.cpp:106] Creating Layer ip1
I0211 09:43:33.418412  4869 net.cpp:454] ip1 <- pool2
I0211 09:43:33.418421  4869 net.cpp:411] ip1 -> ip1
I0211 09:43:33.423079  4869 net.cpp:150] Setting up ip1
I0211 09:43:33.423099  4869 net.cpp:157] Top shape: 100 500 (50000)
I0211 09:43:33.423106  4869 net.cpp:165] Memory required for data: 7874800
I0211 09:43:33.423118  4869 layer_factory.hpp:77] Creating layer relu1
I0211 09:43:33.423128  4869 net.cpp:106] Creating Layer relu1
I0211 09:43:33.423135  4869 net.cpp:454] relu1 <- ip1
I0211 09:43:33.423143  4869 net.cpp:397] relu1 -> ip1 (in-place)
I0211 09:43:33.423153  4869 net.cpp:150] Setting up relu1
I0211 09:43:33.423161  4869 net.cpp:157] Top shape: 100 500 (50000)
I0211 09:43:33.423166  4869 net.cpp:165] Memory required for data: 8074800
I0211 09:43:33.423172  4869 layer_factory.hpp:77] Creating layer ip2
I0211 09:43:33.423187  4869 net.cpp:106] Creating Layer ip2
I0211 09:43:33.423192  4869 net.cpp:454] ip2 <- ip1
I0211 09:43:33.423202  4869 net.cpp:411] ip2 -> ip2
I0211 09:43:33.423358  4869 net.cpp:150] Setting up ip2
I0211 09:43:33.423370  4869 net.cpp:157] Top shape: 100 10 (1000)
I0211 09:43:33.423377  4869 net.cpp:165] Memory required for data: 8078800
I0211 09:43:33.423385  4869 layer_factory.hpp:77] Creating layer ip2_ip2_0_split
I0211 09:43:33.423395  4869 net.cpp:106] Creating Layer ip2_ip2_0_split
I0211 09:43:33.423401  4869 net.cpp:454] ip2_ip2_0_split <- ip2
I0211 09:43:33.423410  4869 net.cpp:411] ip2_ip2_0_split -> ip2_ip2_0_split_0
I0211 09:43:33.423419  4869 net.cpp:411] ip2_ip2_0_split -> ip2_ip2_0_split_1
I0211 09:43:33.423473  4869 net.cpp:150] Setting up ip2_ip2_0_split
I0211 09:43:33.423482  4869 net.cpp:157] Top shape: 100 10 (1000)
I0211 09:43:33.423490  4869 net.cpp:157] Top shape: 100 10 (1000)
I0211 09:43:33.423496  4869 net.cpp:165] Memory required for data: 8086800
I0211 09:43:33.423501  4869 layer_factory.hpp:77] Creating layer accuracy
I0211 09:43:33.423513  4869 net.cpp:106] Creating Layer accuracy
I0211 09:43:33.423521  4869 net.cpp:454] accuracy <- ip2_ip2_0_split_0
I0211 09:43:33.423527  4869 net.cpp:454] accuracy <- label_mnist_1_split_0
I0211 09:43:33.423537  4869 net.cpp:411] accuracy -> accuracy
…
