…
I0211 09:41:04.332023  4762 net.cpp:322] The NetState phase (0) differed from the phase (1) specified by a rule in layer mnist
I0211 09:41:04.332051  4762 net.cpp:322] The NetState phase (0) differed from the phase (1) specified by a rule in layer accuracy
I0211 09:41:04.332201  4762 net.cpp:49] Initializing net from parameters: 
name: "LeNet"
state {
  phase: TRAIN
}
layer {
  name: "mnist"
  type: "Data"
  top: "data"
  top: "label"
  include {
    phase: TRAIN
  }
  transform_param {
    scale: 0.00390625
  }
  data_param {
    source: "examples/mnist/mnist_train_lmdb"
    batch_size: 26
    backend: LMDB
  }
}
layer {
  name: "conv1"
  type: "Convolution"
  bottom: "data"
  top: "conv1"
  param {
    lr_mult: 1
  }
  param {
    lr_mult: 2
  }
  convolution_param {
    num_output: 20
    kernel_size: 5
    stride: 1
    weight_filler {
      type: "xavier"
    }
    bias_filler {
      type: "constant"
    }
  }
}
layer {
  name: "pool1"
  type: "Pooling"
  bottom: "conv1"
  top: "pool1"
  pooling_param {
    pool: MAX
    kernel_size: 2
    stride: 2
  }
}
layer {
  name: "conv2"
  type: "Convolution"
  bottom: "pool1"
  top: "conv2"
  param {
    lr_mult: 1
  }
  param {
    lr_mult: 2
  }
  convolution_param {
    num_output: 50
    kernel_size: 5
    stride: 1
    weight_filler {
      type: "xavier"
    }
    bias_filler {
      type: "constant"
    }
  }
}
layer {
  name: "pool2"
  type: "Pooling"
  bottom: "conv2"
  top: "pool2"
  pooling_param {
    pool: MAX
    kernel_size: 2
    stride: 2
  }
}
layer {
  name: "ip1"
  type: "InnerProduct"
  bottom: "pool2"
  top: "ip1"
  param {
    lr_mult: 1
  }
  param {
    lr_mult: 2
  }
  inner_product_param {
    num_output: 500
    weight_filler {
      type: "xavier"
    }
    bias_filler {
      type: "constant"
    }
  }
}
layer {
  name: "relu1"
  type: "ReLU"
  bottom: "ip1"
  top: "ip1"
}
layer {
  name: "ip2"
  type: "InnerProduct"
  bottom: "ip1"
  top: "ip2"
  param {
    lr_mult: 1
  }
  param {
    lr_mult: 2
  }
  inner_product_param {
    num_output: 10
    weight_filler {
      type: "xavier"
    }
    bias_filler {
      type: "constant"
    }
  }
}
layer {
  name: "loss"
  type: "SoftmaxWithLoss"
  bottom: "ip2"
  bottom: "label"
  top: "loss"
}
I0211 09:41:04.332288  4762 layer_factory.hpp:77] Creating layer mnist
I0211 09:41:04.333225  4762 net.cpp:106] Creating Layer mnist
I0211 09:41:04.333245  4762 net.cpp:411] mnist -> data
I0211 09:41:04.333281  4762 net.cpp:411] mnist -> label
I0211 09:41:04.339107  4766 db_lmdb.cpp:38] Opened lmdb examples/mnist/mnist_train_lmdb
I0211 09:41:04.358397  4762 data_layer.cpp:41] output data size: 26,1,28,28
I0211 09:41:04.359627  4762 net.cpp:150] Setting up mnist
I0211 09:41:04.359649  4762 net.cpp:157] Top shape: 26 1 28 28 (20384)
I0211 09:41:04.359658  4762 net.cpp:157] Top shape: 26 (26)
I0211 09:41:04.359663  4762 net.cpp:165] Memory required for data: 81640
I0211 09:41:04.359678  4762 layer_factory.hpp:77] Creating layer conv1
I0211 09:41:04.359707  4762 net.cpp:106] Creating Layer conv1
I0211 09:41:04.359719  4762 net.cpp:454] conv1 <- data
I0211 09:41:04.359737  4762 net.cpp:411] conv1 -> conv1
I0211 09:41:04.361035  4762 net.cpp:150] Setting up conv1
I0211 09:41:04.361050  4762 net.cpp:157] Top shape: 26 20 24 24 (299520)
I0211 09:41:04.361055  4762 net.cpp:165] Memory required for data: 1279720
I0211 09:41:04.361071  4762 layer_factory.hpp:77] Creating layer pool1
I0211 09:41:04.361088  4762 net.cpp:106] Creating Layer pool1
I0211 09:41:04.361094  4762 net.cpp:454] pool1 <- conv1
I0211 09:41:04.361104  4762 net.cpp:411] pool1 -> pool1
I0211 09:41:04.361310  4762 net.cpp:150] Setting up pool1
I0211 09:41:04.361322  4762 net.cpp:157] Top shape: 26 20 12 12 (74880)
I0211 09:41:04.361327  4762 net.cpp:165] Memory required for data: 1579240
I0211 09:41:04.361333  4762 layer_factory.hpp:77] Creating layer conv2
I0211 09:41:04.361348  4762 net.cpp:106] Creating Layer conv2
I0211 09:41:04.361354  4762 net.cpp:454] conv2 <- pool1
I0211 09:41:04.361363  4762 net.cpp:411] conv2 -> conv2
I0211 09:41:04.361786  4762 net.cpp:150] Setting up conv2
I0211 09:41:04.361800  4762 net.cpp:157] Top shape: 26 50 8 8 (83200)
I0211 09:41:04.361804  4762 net.cpp:165] Memory required for data: 1912040
I0211 09:41:04.361816  4762 layer_factory.hpp:77] Creating layer pool2
I0211 09:41:04.361826  4762 net.cpp:106] Creating Layer pool2
I0211 09:41:04.361832  4762 net.cpp:454] pool2 <- conv2
I0211 09:41:04.361845  4762 net.cpp:411] pool2 -> pool2
I0211 09:41:04.361999  4762 net.cpp:150] Setting up pool2
I0211 09:41:04.362010  4762 net.cpp:157] Top shape: 26 50 4 4 (20800)
I0211 09:41:04.362015  4762 net.cpp:165] Memory required for data: 1995240
I0211 09:41:04.362021  4762 layer_factory.hpp:77] Creating layer ip1
I0211 09:41:04.362040  4762 net.cpp:106] Creating Layer ip1
I0211 09:41:04.362046  4762 net.cpp:454] ip1 <- pool2
I0211 09:41:04.362056  4762 net.cpp:411] ip1 -> ip1
I0211 09:41:04.364377  4767 blocking_queue.cpp:50] Waiting for data
I0211 09:41:04.366564  4762 net.cpp:150] Setting up ip1
I0211 09:41:04.366580  4762 net.cpp:157] Top shape: 26 500 (13000)
I0211 09:41:04.366585  4762 net.cpp:165] Memory required for data: 2047240
I0211 09:41:04.366595  4762 layer_factory.hpp:77] Creating layer relu1
I0211 09:41:04.366605  4762 net.cpp:106] Creating Layer relu1
I0211 09:41:04.366610  4762 net.cpp:454] relu1 <- ip1
I0211 09:41:04.366619  4762 net.cpp:397] relu1 -> ip1 (in-place)
I0211 09:41:04.366632  4762 net.cpp:150] Setting up relu1
I0211 09:41:04.366641  4762 net.cpp:157] Top shape: 26 500 (13000)
I0211 09:41:04.366646  4762 net.cpp:165] Memory required for data: 2099240
I0211 09:41:04.366650  4762 layer_factory.hpp:77] Creating layer ip2
I0211 09:41:04.366659  4762 net.cpp:106] Creating Layer ip2
I0211 09:41:04.366665  4762 net.cpp:454] ip2 <- ip1
I0211 09:41:04.366673  4762 net.cpp:411] ip2 -> ip2
I0211 09:41:04.367543  4762 net.cpp:150] Setting up ip2
I0211 09:41:04.367557  4762 net.cpp:157] Top shape: 26 10 (260)
I0211 09:41:04.367561  4762 net.cpp:165] Memory required for data: 2100280
I0211 09:41:04.367569  4762 layer_factory.hpp:77] Creating layer loss
I0211 09:41:04.367583  4762 net.cpp:106] Creating Layer loss
I0211 09:41:04.367589  4762 net.cpp:454] loss <- ip2
I0211 09:41:04.367596  4762 net.cpp:454] loss <- label
I0211 09:41:04.367605  4762 net.cpp:411] loss -> loss
I0211 09:41:04.367625  4762 layer_factory.hpp:77] Creating layer loss
…
I0211 09:41:04.369105  4762 solver.cpp:181] Creating test net (#0) specified by net file: examples/mnist/lenet_train_test.prototxt
I0211 09:41:04.369148  4762 net.cpp:322] The NetState phase (1) differed from the phase (0) specified by a rule in layer mnist
I0211 09:41:04.369320  4762 net.cpp:49] Initializing net from parameters: 
name: "LeNet"
state {
  phase: TEST
}
layer {
  name: "mnist"
  type: "Data"
  top: "data"
  top: "label"
  include {
    phase: TEST
  }
  transform_param {
    scale: 0.00390625
  }
  data_param {
    source: "examples/mnist/mnist_test_lmdb"
    batch_size: 100
    backend: LMDB
  }
}
layer {
  name: "conv1"
  type: "Convolution"
  bottom: "data"
  top: "conv1"
  param {
    lr_mult: 1
  }
  param {
    lr_mult: 2
  }
  convolution_param {
    num_output: 20
    kernel_size: 5
    stride: 1
    weight_filler {
      type: "xavier"
    }
    bias_filler {
      type: "constant"
    }
  }
}
layer {
  name: "pool1"
  type: "Pooling"
  bottom: "conv1"
  top: "pool1"
  pooling_param {
    pool: MAX
    kernel_size: 2
    stride: 2
  }
}
layer {
  name: "conv2"
  type: "Convolution"
  bottom: "pool1"
  top: "conv2"
  param {
    lr_mult: 1
  }
  param {
    lr_mult: 2
  }
  convolution_param {
    num_output: 50
    kernel_size: 5
    stride: 1
    weight_filler {
      type: "xavier"
    }
    bias_filler {
      type: "constant"
    }
  }
}
layer {
  name: "pool2"
  type: "Pooling"
  bottom: "conv2"
  top: "pool2"
  pooling_param {
    pool: MAX
    kernel_size: 2
    stride: 2
  }
}
layer {
  name: "ip1"
  type: "InnerProduct"
  bottom: "pool2"
  top: "ip1"
  param {
    lr_mult: 1
  }
  param {
    lr_mult: 2
  }
  inner_product_param {
    num_output: 500
    weight_filler {
      type: "xavier"
    }
    bias_filler {
      type: "constant"
    }
  }
}
layer {
  name: "relu1"
  type: "ReLU"
  bottom: "ip1"
  top: "ip1"
}
layer {
  name: "ip2"
  type: "InnerProduct"
  bottom: "ip1"
  top: "ip2"
  param {
    lr_mult: 1
  }
  param {
    lr_mult: 2
  }
  inner_product_param {
    num_output: 10
    weight_filler {
      type: "xavier"
    }
    bias_filler {
      type: "constant"
    }
  }
}
layer {
  name: "accuracy"
  type: "Accuracy"
  bottom: "ip2"
  bottom: "label"
  top: "accuracy"
  include {
    phase: TEST
  }
}
layer {
  name: "loss"
  type: "SoftmaxWithLoss"
  bottom: "ip2"
  bottom: "label"
  top: "loss"
}
I0211 09:41:04.369418  4762 layer_factory.hpp:77] Creating layer mnist
I0211 09:41:04.369556  4762 net.cpp:106] Creating Layer mnist
I0211 09:41:04.369570  4762 net.cpp:411] mnist -> data
I0211 09:41:04.369582  4762 net.cpp:411] mnist -> label
I0211 09:41:04.375031  4768 db_lmdb.cpp:38] Opened lmdb examples/mnist/mnist_test_lmdb
I0211 09:41:04.375458  4762 data_layer.cpp:41] output data size: 100,1,28,28
I0211 09:41:04.377881  4762 net.cpp:150] Setting up mnist
I0211 09:41:04.377913  4762 net.cpp:157] Top shape: 100 1 28 28 (78400)
I0211 09:41:04.377924  4762 net.cpp:157] Top shape: 100 (100)
I0211 09:41:04.377930  4762 net.cpp:165] Memory required for data: 314000
I0211 09:41:04.377939  4762 layer_factory.hpp:77] Creating layer label_mnist_1_split
I0211 09:41:04.377957  4762 net.cpp:106] Creating Layer label_mnist_1_split
I0211 09:41:04.377967  4762 net.cpp:454] label_mnist_1_split <- label
I0211 09:41:04.377985  4762 net.cpp:411] label_mnist_1_split -> label_mnist_1_split_0
I0211 09:41:04.378005  4762 net.cpp:411] label_mnist_1_split -> label_mnist_1_split_1
I0211 09:41:04.378173  4762 net.cpp:150] Setting up label_mnist_1_split
I0211 09:41:04.378190  4762 net.cpp:157] Top shape: 100 (100)
I0211 09:41:04.378201  4762 net.cpp:157] Top shape: 100 (100)
I0211 09:41:04.378209  4762 net.cpp:165] Memory required for data: 314800
I0211 09:41:04.378218  4762 layer_factory.hpp:77] Creating layer conv1
I0211 09:41:04.378250  4762 net.cpp:106] Creating Layer conv1
I0211 09:41:04.378262  4762 net.cpp:454] conv1 <- data
I0211 09:41:04.378276  4762 net.cpp:411] conv1 -> conv1
I0211 09:41:04.378654  4762 net.cpp:150] Setting up conv1
I0211 09:41:04.378667  4762 net.cpp:157] Top shape: 100 20 24 24 (1152000)
I0211 09:41:04.378672  4762 net.cpp:165] Memory required for data: 4922800
I0211 09:41:04.378684  4762 layer_factory.hpp:77] Creating layer pool1
I0211 09:41:04.378695  4762 net.cpp:106] Creating Layer pool1
I0211 09:41:04.378717  4762 net.cpp:454] pool1 <- conv1
I0211 09:41:04.378729  4762 net.cpp:411] pool1 -> pool1
I0211 09:41:04.378885  4762 net.cpp:150] Setting up pool1
I0211 09:41:04.378901  4762 net.cpp:157] Top shape: 100 20 12 12 (288000)
I0211 09:41:04.378906  4762 net.cpp:165] Memory required for data: 6074800
I0211 09:41:04.378912  4762 layer_factory.hpp:77] Creating layer conv2
I0211 09:41:04.378927  4762 net.cpp:106] Creating Layer conv2
I0211 09:41:04.378934  4762 net.cpp:454] conv2 <- pool1
I0211 09:41:04.378943  4762 net.cpp:411] conv2 -> conv2
I0211 09:41:04.379385  4762 net.cpp:150] Setting up conv2
I0211 09:41:04.379397  4762 net.cpp:157] Top shape: 100 50 8 8 (320000)
I0211 09:41:04.379402  4762 net.cpp:165] Memory required for data: 7354800
I0211 09:41:04.379415  4762 layer_factory.hpp:77] Creating layer pool2
I0211 09:41:04.379423  4762 net.cpp:106] Creating Layer pool2
I0211 09:41:04.379429  4762 net.cpp:454] pool2 <- conv2
I0211 09:41:04.379441  4762 net.cpp:411] pool2 -> pool2
I0211 09:41:04.379590  4762 net.cpp:150] Setting up pool2
I0211 09:41:04.379601  4762 net.cpp:157] Top shape: 100 50 4 4 (80000)
I0211 09:41:04.379607  4762 net.cpp:165] Memory required for data: 7674800
I0211 09:41:04.379611  4762 layer_factory.hpp:77] Creating layer ip1
I0211 09:41:04.379624  4762 net.cpp:106] Creating Layer ip1
I0211 09:41:04.379631  4762 net.cpp:454] ip1 <- pool2
I0211 09:41:04.379639  4762 net.cpp:411] ip1 -> ip1
I0211 09:41:04.385799  4762 net.cpp:150] Setting up ip1
I0211 09:41:04.385823  4762 net.cpp:157] Top shape: 100 500 (50000)
I0211 09:41:04.385833  4762 net.cpp:165] Memory required for data: 7874800
I0211 09:41:04.385849  4762 layer_factory.hpp:77] Creating layer relu1
I0211 09:41:04.385869  4762 net.cpp:106] Creating Layer relu1
I0211 09:41:04.385879  4762 net.cpp:454] relu1 <- ip1
I0211 09:41:04.385897  4762 net.cpp:397] relu1 -> ip1 (in-place)
I0211 09:41:04.385913  4762 net.cpp:150] Setting up relu1
I0211 09:41:04.385926  4762 net.cpp:157] Top shape: 100 500 (50000)
I0211 09:41:04.385932  4762 net.cpp:165] Memory required for data: 8074800
I0211 09:41:04.385939  4762 layer_factory.hpp:77] Creating layer ip2
I0211 09:41:04.385958  4762 net.cpp:106] Creating Layer ip2
I0211 09:41:04.385967  4762 net.cpp:454] ip2 <- ip1
I0211 09:41:04.385980  4762 net.cpp:411] ip2 -> ip2
I0211 09:41:04.386217  4762 net.cpp:150] Setting up ip2
I0211 09:41:04.386234  4762 net.cpp:157] Top shape: 100 10 (1000)
I0211 09:41:04.386242  4762 net.cpp:165] Memory required for data: 8078800
I0211 09:41:04.386255  4762 layer_factory.hpp:77] Creating layer ip2_ip2_0_split
I0211 09:41:04.386268  4762 net.cpp:106] Creating Layer ip2_ip2_0_split
I0211 09:41:04.386277  4762 net.cpp:454] ip2_ip2_0_split <- ip2
I0211 09:41:04.386292  4762 net.cpp:411] ip2_ip2_0_split -> ip2_ip2_0_split_0
I0211 09:41:04.386307  4762 net.cpp:411] ip2_ip2_0_split -> ip2_ip2_0_split_1
I0211 09:41:04.386373  4762 net.cpp:150] Setting up ip2_ip2_0_split
I0211 09:41:04.386389  4762 net.cpp:157] Top shape: 100 10 (1000)
I0211 09:41:04.386399  4762 net.cpp:157] Top shape: 100 10 (1000)
I0211 09:41:04.386406  4762 net.cpp:165] Memory required for data: 8086800
I0211 09:41:04.386415  4762 layer_factory.hpp:77] Creating layer accuracy
I0211 09:41:04.386433  4762 net.cpp:106] Creating Layer accuracy
I0211 09:41:04.386442  4762 net.cpp:454] accuracy <- ip2_ip2_0_split_0
I0211 09:41:04.386453  4762 net.cpp:454] accuracy <- label_mnist_1_split_0
I0211 09:41:04.386469  4762 net.cpp:411] accuracy -> accuracy
…
