…
I0211 09:35:08.403403  4358 net.cpp:322] The NetState phase (0) differed from the phase (1) specified by a rule in layer mnist
I0211 09:35:08.403460  4358 net.cpp:322] The NetState phase (0) differed from the phase (1) specified by a rule in layer accuracy
I0211 09:35:08.403746  4358 net.cpp:49] Initializing net from parameters: 
name: "LeNet"
state {
  phase: TRAIN
}
layer {
  name: "mnist"
  type: "Data"
  top: "data"
  top: "label"
  include {
    phase: TRAIN
  }
  transform_param {
    scale: 0.00390625
  }
  data_param {
    source: "examples/mnist/mnist_train_lmdb"
    batch_size: 16
    backend: LMDB
  }
}
layer {
  name: "conv1"
  type: "Convolution"
  bottom: "data"
  top: "conv1"
  param {
    lr_mult: 1
  }
  param {
    lr_mult: 2
  }
  convolution_param {
    num_output: 20
    kernel_size: 5
    stride: 1
    weight_filler {
      type: "xavier"
    }
    bias_filler {
      type: "constant"
    }
  }
}
layer {
  name: "pool1"
  type: "Pooling"
  bottom: "conv1"
  top: "pool1"
  pooling_param {
    pool: MAX
    kernel_size: 2
    stride: 2
  }
}
layer {
  name: "conv2"
  type: "Convolution"
  bottom: "pool1"
  top: "conv2"
  param {
    lr_mult: 1
  }
  param {
    lr_mult: 2
  }
  convolution_param {
    num_output: 50
    kernel_size: 5
    stride: 1
    weight_filler {
      type: "xavier"
    }
    bias_filler {
      type: "constant"
    }
  }
}
layer {
  name: "pool2"
  type: "Pooling"
  bottom: "conv2"
  top: "pool2"
  pooling_param {
    pool: MAX
    kernel_size: 2
    stride: 2
  }
}
layer {
  name: "ip1"
  type: "InnerProduct"
  bottom: "pool2"
  top: "ip1"
  param {
    lr_mult: 1
  }
  param {
    lr_mult: 2
  }
  inner_product_param {
    num_output: 500
    weight_filler {
      type: "xavier"
    }
    bias_filler {
      type: "constant"
    }
  }
}
layer {
  name: "relu1"
  type: "ReLU"
  bottom: "ip1"
  top: "ip1"
}
layer {
  name: "ip2"
  type: "InnerProduct"
  bottom: "ip1"
  top: "ip2"
  param {
    lr_mult: 1
  }
  param {
    lr_mult: 2
  }
  inner_product_param {
    num_output: 10
    weight_filler {
      type: "xavier"
    }
    bias_filler {
      type: "constant"
    }
  }
}
layer {
  name: "loss"
  type: "SoftmaxWithLoss"
  bottom: "ip2"
  bottom: "label"
  top: "loss"
}
I0211 09:35:08.403975  4358 layer_factory.hpp:77] Creating layer mnist
I0211 09:35:08.405395  4358 net.cpp:106] Creating Layer mnist
I0211 09:35:08.405436  4358 net.cpp:411] mnist -> data
I0211 09:35:08.405583  4358 net.cpp:411] mnist -> label
I0211 09:35:08.412879  4362 db_lmdb.cpp:38] Opened lmdb examples/mnist/mnist_train_lmdb
I0211 09:35:08.452119  4358 data_layer.cpp:41] output data size: 16,1,28,28
I0211 09:35:08.453250  4358 net.cpp:150] Setting up mnist
I0211 09:35:08.453274  4358 net.cpp:157] Top shape: 16 1 28 28 (12544)
I0211 09:35:08.453281  4358 net.cpp:157] Top shape: 16 (16)
I0211 09:35:08.453286  4358 net.cpp:165] Memory required for data: 50240
I0211 09:35:08.453301  4358 layer_factory.hpp:77] Creating layer conv1
I0211 09:35:08.453338  4358 net.cpp:106] Creating Layer conv1
I0211 09:35:08.453349  4358 net.cpp:454] conv1 <- data
I0211 09:35:08.453372  4358 net.cpp:411] conv1 -> conv1
I0211 09:35:08.454638  4358 net.cpp:150] Setting up conv1
I0211 09:35:08.454653  4358 net.cpp:157] Top shape: 16 20 24 24 (184320)
I0211 09:35:08.454658  4358 net.cpp:165] Memory required for data: 787520
I0211 09:35:08.454674  4358 layer_factory.hpp:77] Creating layer pool1
I0211 09:35:08.454689  4358 net.cpp:106] Creating Layer pool1
I0211 09:35:08.454695  4358 net.cpp:454] pool1 <- conv1
I0211 09:35:08.454706  4358 net.cpp:411] pool1 -> pool1
I0211 09:35:08.454916  4358 net.cpp:150] Setting up pool1
I0211 09:35:08.454929  4358 net.cpp:157] Top shape: 16 20 12 12 (46080)
I0211 09:35:08.454936  4358 net.cpp:165] Memory required for data: 971840
I0211 09:35:08.454941  4358 layer_factory.hpp:77] Creating layer conv2
I0211 09:35:08.454957  4358 net.cpp:106] Creating Layer conv2
I0211 09:35:08.454962  4358 net.cpp:454] conv2 <- pool1
I0211 09:35:08.454974  4358 net.cpp:411] conv2 -> conv2
I0211 09:35:08.456358  4358 net.cpp:150] Setting up conv2
I0211 09:35:08.456374  4358 net.cpp:157] Top shape: 16 50 8 8 (51200)
I0211 09:35:08.456379  4358 net.cpp:165] Memory required for data: 1176640
I0211 09:35:08.456390  4358 layer_factory.hpp:77] Creating layer pool2
I0211 09:35:08.456403  4358 net.cpp:106] Creating Layer pool2
I0211 09:35:08.456411  4358 net.cpp:454] pool2 <- conv2
I0211 09:35:08.456419  4358 net.cpp:411] pool2 -> pool2
I0211 09:35:08.456573  4358 net.cpp:150] Setting up pool2
I0211 09:35:08.456583  4358 net.cpp:157] Top shape: 16 50 4 4 (12800)
I0211 09:35:08.456589  4358 net.cpp:165] Memory required for data: 1227840
I0211 09:35:08.456594  4358 layer_factory.hpp:77] Creating layer ip1
I0211 09:35:08.456609  4358 net.cpp:106] Creating Layer ip1
I0211 09:35:08.456615  4358 net.cpp:454] ip1 <- pool2
I0211 09:35:08.456627  4358 net.cpp:411] ip1 -> ip1
I0211 09:35:08.457998  4363 blocking_queue.cpp:50] Waiting for data
I0211 09:35:08.461179  4358 net.cpp:150] Setting up ip1
I0211 09:35:08.461195  4358 net.cpp:157] Top shape: 16 500 (8000)
I0211 09:35:08.461200  4358 net.cpp:165] Memory required for data: 1259840
I0211 09:35:08.461212  4358 layer_factory.hpp:77] Creating layer relu1
I0211 09:35:08.461221  4358 net.cpp:106] Creating Layer relu1
I0211 09:35:08.461226  4358 net.cpp:454] relu1 <- ip1
I0211 09:35:08.461235  4358 net.cpp:397] relu1 -> ip1 (in-place)
I0211 09:35:08.461246  4358 net.cpp:150] Setting up relu1
I0211 09:35:08.461253  4358 net.cpp:157] Top shape: 16 500 (8000)
I0211 09:35:08.461258  4358 net.cpp:165] Memory required for data: 1291840
I0211 09:35:08.461263  4358 layer_factory.hpp:77] Creating layer ip2
I0211 09:35:08.461277  4358 net.cpp:106] Creating Layer ip2
I0211 09:35:08.461282  4358 net.cpp:454] ip2 <- ip1
I0211 09:35:08.461293  4358 net.cpp:411] ip2 -> ip2
I0211 09:35:08.461437  4358 net.cpp:150] Setting up ip2
I0211 09:35:08.461448  4358 net.cpp:157] Top shape: 16 10 (160)
I0211 09:35:08.461453  4358 net.cpp:165] Memory required for data: 1292480
I0211 09:35:08.461462  4358 layer_factory.hpp:77] Creating layer loss
I0211 09:35:08.461473  4358 net.cpp:106] Creating Layer loss
I0211 09:35:08.461479  4358 net.cpp:454] loss <- ip2
I0211 09:35:08.461486  4358 net.cpp:454] loss <- label
I0211 09:35:08.461495  4358 net.cpp:411] loss -> loss
I0211 09:35:08.461514  4358 layer_factory.hpp:77] Creating layer loss
…
I0211 09:35:08.683590  4358 solver.cpp:181] Creating test net (#0) specified by net file: examples/mnist/lenet_train_test.prototxt
I0211 09:35:08.683708  4358 net.cpp:322] The NetState phase (1) differed from the phase (0) specified by a rule in layer mnist
I0211 09:35:08.684152  4358 net.cpp:49] Initializing net from parameters: 
name: "LeNet"
state {
  phase: TEST
}
layer {
  name: "mnist"
  type: "Data"
  top: "data"
  top: "label"
  include {
    phase: TEST
  }
  transform_param {
    scale: 0.00390625
  }
  data_param {
    source: "examples/mnist/mnist_test_lmdb"
    batch_size: 100
    backend: LMDB
  }
}
layer {
  name: "conv1"
  type: "Convolution"
  bottom: "data"
  top: "conv1"
  param {
    lr_mult: 1
  }
  param {
    lr_mult: 2
  }
  convolution_param {
    num_output: 20
    kernel_size: 5
    stride: 1
    weight_filler {
      type: "xavier"
    }
    bias_filler {
      type: "constant"
    }
  }
}
layer {
  name: "pool1"
  type: "Pooling"
  bottom: "conv1"
  top: "pool1"
  pooling_param {
    pool: MAX
    kernel_size: 2
    stride: 2
  }
}
layer {
  name: "conv2"
  type: "Convolution"
  bottom: "pool1"
  top: "conv2"
  param {
    lr_mult: 1
  }
  param {
    lr_mult: 2
  }
  convolution_param {
    num_output: 50
    kernel_size: 5
    stride: 1
    weight_filler {
      type: "xavier"
    }
    bias_filler {
      type: "constant"
    }
  }
}
layer {
  name: "pool2"
  type: "Pooling"
  bottom: "conv2"
  top: "pool2"
  pooling_param {
    pool: MAX
    kernel_size: 2
    stride: 2
  }
}
layer {
  name: "ip1"
  type: "InnerProduct"
  bottom: "pool2"
  top: "ip1"
  param {
    lr_mult: 1
  }
  param {
    lr_mult: 2
  }
  inner_product_param {
    num_output: 500
    weight_filler {
      type: "xavier"
    }
    bias_filler {
      type: "constant"
    }
  }
}
layer {
  name: "relu1"
  type: "ReLU"
  bottom: "ip1"
  top: "ip1"
}
layer {
  name: "ip2"
  type: "InnerProduct"
  bottom: "ip1"
  top: "ip2"
  param {
    lr_mult: 1
  }
  param {
    lr_mult: 2
  }
  inner_product_param {
    num_output: 10
    weight_filler {
      type: "xavier"
    }
    bias_filler {
      type: "constant"
    }
  }
}
layer {
  name: "accuracy"
  type: "Accuracy"
  bottom: "ip2"
  bottom: "label"
  top: "accuracy"
  include {
    phase: TEST
  }
}
layer {
  name: "loss"
  type: "SoftmaxWithLoss"
  bottom: "ip2"
  bottom: "label"
  top: "loss"
}
I0211 09:35:08.684376  4358 layer_factory.hpp:77] Creating layer mnist
I0211 09:35:08.685456  4358 net.cpp:106] Creating Layer mnist
I0211 09:35:08.685487  4358 net.cpp:411] mnist -> data
I0211 09:35:08.685530  4358 net.cpp:411] mnist -> label
I0211 09:35:08.691862  4364 db_lmdb.cpp:38] Opened lmdb examples/mnist/mnist_test_lmdb
I0211 09:35:08.703578  4358 data_layer.cpp:41] output data size: 100,1,28,28
I0211 09:35:08.705153  4358 net.cpp:150] Setting up mnist
I0211 09:35:08.705171  4358 net.cpp:157] Top shape: 100 1 28 28 (78400)
I0211 09:35:08.705178  4358 net.cpp:157] Top shape: 100 (100)
I0211 09:35:08.705183  4358 net.cpp:165] Memory required for data: 314000
I0211 09:35:08.705189  4358 layer_factory.hpp:77] Creating layer label_mnist_1_split
I0211 09:35:08.705199  4358 net.cpp:106] Creating Layer label_mnist_1_split
I0211 09:35:08.705206  4358 net.cpp:454] label_mnist_1_split <- label
I0211 09:35:08.705235  4358 net.cpp:411] label_mnist_1_split -> label_mnist_1_split_0
I0211 09:35:08.705252  4358 net.cpp:411] label_mnist_1_split -> label_mnist_1_split_1
I0211 09:35:08.705384  4358 net.cpp:150] Setting up label_mnist_1_split
I0211 09:35:08.705395  4358 net.cpp:157] Top shape: 100 (100)
I0211 09:35:08.705401  4358 net.cpp:157] Top shape: 100 (100)
I0211 09:35:08.705406  4358 net.cpp:165] Memory required for data: 314800
I0211 09:35:08.705412  4358 layer_factory.hpp:77] Creating layer conv1
I0211 09:35:08.705432  4358 net.cpp:106] Creating Layer conv1
I0211 09:35:08.705440  4358 net.cpp:454] conv1 <- data
I0211 09:35:08.705449  4358 net.cpp:411] conv1 -> conv1
I0211 09:35:08.705835  4358 net.cpp:150] Setting up conv1
I0211 09:35:08.705848  4358 net.cpp:157] Top shape: 100 20 24 24 (1152000)
I0211 09:35:08.705853  4358 net.cpp:165] Memory required for data: 4922800
I0211 09:35:08.705867  4358 layer_factory.hpp:77] Creating layer pool1
I0211 09:35:08.705876  4358 net.cpp:106] Creating Layer pool1
I0211 09:35:08.705905  4358 net.cpp:454] pool1 <- conv1
I0211 09:35:08.705921  4358 net.cpp:411] pool1 -> pool1
I0211 09:35:08.706087  4358 net.cpp:150] Setting up pool1
I0211 09:35:08.706099  4358 net.cpp:157] Top shape: 100 20 12 12 (288000)
I0211 09:35:08.706105  4358 net.cpp:165] Memory required for data: 6074800
I0211 09:35:08.706110  4358 layer_factory.hpp:77] Creating layer conv2
I0211 09:35:08.706126  4358 net.cpp:106] Creating Layer conv2
I0211 09:35:08.706132  4358 net.cpp:454] conv2 <- pool1
I0211 09:35:08.706145  4358 net.cpp:411] conv2 -> conv2
I0211 09:35:08.706723  4358 net.cpp:150] Setting up conv2
I0211 09:35:08.706737  4358 net.cpp:157] Top shape: 100 50 8 8 (320000)
I0211 09:35:08.706743  4358 net.cpp:165] Memory required for data: 7354800
I0211 09:35:08.706753  4358 layer_factory.hpp:77] Creating layer pool2
I0211 09:35:08.706763  4358 net.cpp:106] Creating Layer pool2
I0211 09:35:08.706768  4358 net.cpp:454] pool2 <- conv2
I0211 09:35:08.706778  4358 net.cpp:411] pool2 -> pool2
I0211 09:35:08.706943  4358 net.cpp:150] Setting up pool2
I0211 09:35:08.706954  4358 net.cpp:157] Top shape: 100 50 4 4 (80000)
I0211 09:35:08.706959  4358 net.cpp:165] Memory required for data: 7674800
I0211 09:35:08.706965  4358 layer_factory.hpp:77] Creating layer ip1
I0211 09:35:08.706990  4358 net.cpp:106] Creating Layer ip1
I0211 09:35:08.706997  4358 net.cpp:454] ip1 <- pool2
I0211 09:35:08.707015  4358 net.cpp:411] ip1 -> ip1
I0211 09:35:08.711815  4358 net.cpp:150] Setting up ip1
I0211 09:35:08.711830  4358 net.cpp:157] Top shape: 100 500 (50000)
I0211 09:35:08.711835  4358 net.cpp:165] Memory required for data: 7874800
I0211 09:35:08.711846  4358 layer_factory.hpp:77] Creating layer relu1
I0211 09:35:08.711859  4358 net.cpp:106] Creating Layer relu1
I0211 09:35:08.711865  4358 net.cpp:454] relu1 <- ip1
I0211 09:35:08.711874  4358 net.cpp:397] relu1 -> ip1 (in-place)
I0211 09:35:08.711884  4358 net.cpp:150] Setting up relu1
I0211 09:35:08.711896  4358 net.cpp:157] Top shape: 100 500 (50000)
I0211 09:35:08.711902  4358 net.cpp:165] Memory required for data: 8074800
I0211 09:35:08.711907  4358 layer_factory.hpp:77] Creating layer ip2
I0211 09:35:08.711920  4358 net.cpp:106] Creating Layer ip2
I0211 09:35:08.711926  4358 net.cpp:454] ip2 <- ip1
I0211 09:35:08.711935  4358 net.cpp:411] ip2 -> ip2
I0211 09:35:08.712096  4358 net.cpp:150] Setting up ip2
I0211 09:35:08.712107  4358 net.cpp:157] Top shape: 100 10 (1000)
I0211 09:35:08.712113  4358 net.cpp:165] Memory required for data: 8078800
I0211 09:35:08.712124  4358 layer_factory.hpp:77] Creating layer ip2_ip2_0_split
I0211 09:35:08.712136  4358 net.cpp:106] Creating Layer ip2_ip2_0_split
I0211 09:35:08.712143  4358 net.cpp:454] ip2_ip2_0_split <- ip2
I0211 09:35:08.712152  4358 net.cpp:411] ip2_ip2_0_split -> ip2_ip2_0_split_0
I0211 09:35:08.712162  4358 net.cpp:411] ip2_ip2_0_split -> ip2_ip2_0_split_1
I0211 09:35:08.712203  4358 net.cpp:150] Setting up ip2_ip2_0_split
I0211 09:35:08.712213  4358 net.cpp:157] Top shape: 100 10 (1000)
I0211 09:35:08.712220  4358 net.cpp:157] Top shape: 100 10 (1000)
I0211 09:35:08.712226  4358 net.cpp:165] Memory required for data: 8086800
I0211 09:35:08.712234  4358 layer_factory.hpp:77] Creating layer accuracy
I0211 09:35:08.712246  4358 net.cpp:106] Creating Layer accuracy
I0211 09:35:08.712255  4358 net.cpp:454] accuracy <- ip2_ip2_0_split_0
I0211 09:35:08.712262  4358 net.cpp:454] accuracy <- label_mnist_1_split_0
I0211 09:35:08.712270  4358 net.cpp:411] accuracy -> accuracy
…
