…
I0211 09:42:31.551666  4841 net.cpp:322] The NetState phase (0) differed from the phase (1) specified by a rule in layer mnist
I0211 09:42:31.551723  4841 net.cpp:322] The NetState phase (0) differed from the phase (1) specified by a rule in layer accuracy
I0211 09:42:31.551993  4841 net.cpp:49] Initializing net from parameters: 
name: "LeNet"
state {
  phase: TRAIN
}
layer {
  name: "mnist"
  type: "Data"
  top: "data"
  top: "label"
  include {
    phase: TRAIN
  }
  transform_param {
    scale: 0.00390625
  }
  data_param {
    source: "examples/mnist/mnist_train_lmdb"
    batch_size: 32
    backend: LMDB
  }
}
layer {
  name: "conv1"
  type: "Convolution"
  bottom: "data"
  top: "conv1"
  param {
    lr_mult: 1
  }
  param {
    lr_mult: 2
  }
  convolution_param {
    num_output: 20
    kernel_size: 5
    stride: 1
    weight_filler {
      type: "xavier"
    }
    bias_filler {
      type: "constant"
    }
  }
}
layer {
  name: "pool1"
  type: "Pooling"
  bottom: "conv1"
  top: "pool1"
  pooling_param {
    pool: MAX
    kernel_size: 2
    stride: 2
  }
}
layer {
  name: "conv2"
  type: "Convolution"
  bottom: "pool1"
  top: "conv2"
  param {
    lr_mult: 1
  }
  param {
    lr_mult: 2
  }
  convolution_param {
    num_output: 50
    kernel_size: 5
    stride: 1
    weight_filler {
      type: "xavier"
    }
    bias_filler {
      type: "constant"
    }
  }
}
layer {
  name: "pool2"
  type: "Pooling"
  bottom: "conv2"
  top: "pool2"
  pooling_param {
    pool: MAX
    kernel_size: 2
    stride: 2
  }
}
layer {
  name: "ip1"
  type: "InnerProduct"
  bottom: "pool2"
  top: "ip1"
  param {
    lr_mult: 1
  }
  param {
    lr_mult: 2
  }
  inner_product_param {
    num_output: 500
    weight_filler {
      type: "xavier"
    }
    bias_filler {
      type: "constant"
    }
  }
}
layer {
  name: "relu1"
  type: "ReLU"
  bottom: "ip1"
  top: "ip1"
}
layer {
  name: "ip2"
  type: "InnerProduct"
  bottom: "ip1"
  top: "ip2"
  param {
    lr_mult: 1
  }
  param {
    lr_mult: 2
  }
  inner_product_param {
    num_output: 10
    weight_filler {
      type: "xavier"
    }
    bias_filler {
      type: "constant"
    }
  }
}
layer {
  name: "loss"
  type: "SoftmaxWithLoss"
  bottom: "ip2"
  bottom: "label"
  top: "loss"
}
I0211 09:42:31.552103  4841 layer_factory.hpp:77] Creating layer mnist
I0211 09:42:31.552961  4841 net.cpp:106] Creating Layer mnist
I0211 09:42:31.553004  4841 net.cpp:411] mnist -> data
I0211 09:42:31.553148  4841 net.cpp:411] mnist -> label
I0211 09:42:31.558699  4845 db_lmdb.cpp:38] Opened lmdb examples/mnist/mnist_train_lmdb
I0211 09:42:31.576745  4841 data_layer.cpp:41] output data size: 32,1,28,28
I0211 09:42:31.578460  4841 net.cpp:150] Setting up mnist
I0211 09:42:31.578485  4841 net.cpp:157] Top shape: 32 1 28 28 (25088)
I0211 09:42:31.578493  4841 net.cpp:157] Top shape: 32 (32)
I0211 09:42:31.578497  4841 net.cpp:165] Memory required for data: 100480
I0211 09:42:31.578511  4841 layer_factory.hpp:77] Creating layer conv1
I0211 09:42:31.578544  4841 net.cpp:106] Creating Layer conv1
I0211 09:42:31.578555  4841 net.cpp:454] conv1 <- data
I0211 09:42:31.578573  4841 net.cpp:411] conv1 -> conv1
I0211 09:42:31.579830  4841 net.cpp:150] Setting up conv1
I0211 09:42:31.579846  4841 net.cpp:157] Top shape: 32 20 24 24 (368640)
I0211 09:42:31.579851  4841 net.cpp:165] Memory required for data: 1575040
I0211 09:42:31.579869  4841 layer_factory.hpp:77] Creating layer pool1
I0211 09:42:31.579886  4841 net.cpp:106] Creating Layer pool1
I0211 09:42:31.579892  4841 net.cpp:454] pool1 <- conv1
I0211 09:42:31.579901  4841 net.cpp:411] pool1 -> pool1
I0211 09:42:31.580121  4841 net.cpp:150] Setting up pool1
I0211 09:42:31.580133  4841 net.cpp:157] Top shape: 32 20 12 12 (92160)
I0211 09:42:31.580139  4841 net.cpp:165] Memory required for data: 1943680
I0211 09:42:31.580145  4841 layer_factory.hpp:77] Creating layer conv2
I0211 09:42:31.580163  4841 net.cpp:106] Creating Layer conv2
I0211 09:42:31.580169  4841 net.cpp:454] conv2 <- pool1
I0211 09:42:31.580179  4841 net.cpp:411] conv2 -> conv2
I0211 09:42:31.580598  4841 net.cpp:150] Setting up conv2
I0211 09:42:31.580611  4841 net.cpp:157] Top shape: 32 50 8 8 (102400)
I0211 09:42:31.580616  4841 net.cpp:165] Memory required for data: 2353280
I0211 09:42:31.580634  4841 layer_factory.hpp:77] Creating layer pool2
I0211 09:42:31.580647  4841 net.cpp:106] Creating Layer pool2
I0211 09:42:31.580652  4841 net.cpp:454] pool2 <- conv2
I0211 09:42:31.580659  4841 net.cpp:411] pool2 -> pool2
I0211 09:42:31.580811  4841 net.cpp:150] Setting up pool2
I0211 09:42:31.580821  4841 net.cpp:157] Top shape: 32 50 4 4 (25600)
I0211 09:42:31.580826  4841 net.cpp:165] Memory required for data: 2455680
I0211 09:42:31.580831  4841 layer_factory.hpp:77] Creating layer ip1
I0211 09:42:31.580848  4841 net.cpp:106] Creating Layer ip1
I0211 09:42:31.580855  4841 net.cpp:454] ip1 <- pool2
I0211 09:42:31.580867  4841 net.cpp:411] ip1 -> ip1
I0211 09:42:31.583212  4846 blocking_queue.cpp:50] Waiting for data
I0211 09:42:31.585400  4841 net.cpp:150] Setting up ip1
I0211 09:42:31.585418  4841 net.cpp:157] Top shape: 32 500 (16000)
I0211 09:42:31.585423  4841 net.cpp:165] Memory required for data: 2519680
I0211 09:42:31.585434  4841 layer_factory.hpp:77] Creating layer relu1
I0211 09:42:31.585446  4841 net.cpp:106] Creating Layer relu1
I0211 09:42:31.585451  4841 net.cpp:454] relu1 <- ip1
I0211 09:42:31.585458  4841 net.cpp:397] relu1 -> ip1 (in-place)
I0211 09:42:31.585471  4841 net.cpp:150] Setting up relu1
I0211 09:42:31.585479  4841 net.cpp:157] Top shape: 32 500 (16000)
I0211 09:42:31.585484  4841 net.cpp:165] Memory required for data: 2583680
I0211 09:42:31.585489  4841 layer_factory.hpp:77] Creating layer ip2
I0211 09:42:31.585501  4841 net.cpp:106] Creating Layer ip2
I0211 09:42:31.585507  4841 net.cpp:454] ip2 <- ip1
I0211 09:42:31.585516  4841 net.cpp:411] ip2 -> ip2
I0211 09:42:31.586392  4841 net.cpp:150] Setting up ip2
I0211 09:42:31.586405  4841 net.cpp:157] Top shape: 32 10 (320)
I0211 09:42:31.586410  4841 net.cpp:165] Memory required for data: 2584960
I0211 09:42:31.586418  4841 layer_factory.hpp:77] Creating layer loss
I0211 09:42:31.586428  4841 net.cpp:106] Creating Layer loss
I0211 09:42:31.586434  4841 net.cpp:454] loss <- ip2
I0211 09:42:31.586441  4841 net.cpp:454] loss <- label
I0211 09:42:31.586452  4841 net.cpp:411] loss -> loss
I0211 09:42:31.586470  4841 layer_factory.hpp:77] Creating layer loss
…
I0211 09:42:31.587932  4841 solver.cpp:181] Creating test net (#0) specified by net file: examples/mnist/lenet_train_test.prototxt
I0211 09:42:31.587976  4841 net.cpp:322] The NetState phase (1) differed from the phase (0) specified by a rule in layer mnist
I0211 09:42:31.588155  4841 net.cpp:49] Initializing net from parameters: 
name: "LeNet"
state {
  phase: TEST
}
layer {
  name: "mnist"
  type: "Data"
  top: "data"
  top: "label"
  include {
    phase: TEST
  }
  transform_param {
    scale: 0.00390625
  }
  data_param {
    source: "examples/mnist/mnist_test_lmdb"
    batch_size: 100
    backend: LMDB
  }
}
layer {
  name: "conv1"
  type: "Convolution"
  bottom: "data"
  top: "conv1"
  param {
    lr_mult: 1
  }
  param {
    lr_mult: 2
  }
  convolution_param {
    num_output: 20
    kernel_size: 5
    stride: 1
    weight_filler {
      type: "xavier"
    }
    bias_filler {
      type: "constant"
    }
  }
}
layer {
  name: "pool1"
  type: "Pooling"
  bottom: "conv1"
  top: "pool1"
  pooling_param {
    pool: MAX
    kernel_size: 2
    stride: 2
  }
}
layer {
  name: "conv2"
  type: "Convolution"
  bottom: "pool1"
  top: "conv2"
  param {
    lr_mult: 1
  }
  param {
    lr_mult: 2
  }
  convolution_param {
    num_output: 50
    kernel_size: 5
    stride: 1
    weight_filler {
      type: "xavier"
    }
    bias_filler {
      type: "constant"
    }
  }
}
layer {
  name: "pool2"
  type: "Pooling"
  bottom: "conv2"
  top: "pool2"
  pooling_param {
    pool: MAX
    kernel_size: 2
    stride: 2
  }
}
layer {
  name: "ip1"
  type: "InnerProduct"
  bottom: "pool2"
  top: "ip1"
  param {
    lr_mult: 1
  }
  param {
    lr_mult: 2
  }
  inner_product_param {
    num_output: 500
    weight_filler {
      type: "xavier"
    }
    bias_filler {
      type: "constant"
    }
  }
}
layer {
  name: "relu1"
  type: "ReLU"
  bottom: "ip1"
  top: "ip1"
}
layer {
  name: "ip2"
  type: "InnerProduct"
  bottom: "ip1"
  top: "ip2"
  param {
    lr_mult: 1
  }
  param {
    lr_mult: 2
  }
  inner_product_param {
    num_output: 10
    weight_filler {
      type: "xavier"
    }
    bias_filler {
      type: "constant"
    }
  }
}
layer {
  name: "accuracy"
  type: "Accuracy"
  bottom: "ip2"
  bottom: "label"
  top: "accuracy"
  include {
    phase: TEST
  }
}
layer {
  name: "loss"
  type: "SoftmaxWithLoss"
  bottom: "ip2"
  bottom: "label"
  top: "loss"
}
I0211 09:42:31.588253  4841 layer_factory.hpp:77] Creating layer mnist
I0211 09:42:31.588397  4841 net.cpp:106] Creating Layer mnist
I0211 09:42:31.588413  4841 net.cpp:411] mnist -> data
I0211 09:42:31.588424  4841 net.cpp:411] mnist -> label
I0211 09:42:31.593832  4847 db_lmdb.cpp:38] Opened lmdb examples/mnist/mnist_test_lmdb
I0211 09:42:31.594360  4841 data_layer.cpp:41] output data size: 100,1,28,28
I0211 09:42:31.596499  4841 net.cpp:150] Setting up mnist
I0211 09:42:31.596528  4841 net.cpp:157] Top shape: 100 1 28 28 (78400)
I0211 09:42:31.596539  4841 net.cpp:157] Top shape: 100 (100)
I0211 09:42:31.596550  4841 net.cpp:165] Memory required for data: 314000
I0211 09:42:31.596560  4841 layer_factory.hpp:77] Creating layer label_mnist_1_split
I0211 09:42:31.596577  4841 net.cpp:106] Creating Layer label_mnist_1_split
I0211 09:42:31.596585  4841 net.cpp:454] label_mnist_1_split <- label
I0211 09:42:31.596598  4841 net.cpp:411] label_mnist_1_split -> label_mnist_1_split_0
I0211 09:42:31.596624  4841 net.cpp:411] label_mnist_1_split -> label_mnist_1_split_1
I0211 09:42:31.596735  4841 net.cpp:150] Setting up label_mnist_1_split
I0211 09:42:31.596753  4841 net.cpp:157] Top shape: 100 (100)
I0211 09:42:31.596765  4841 net.cpp:157] Top shape: 100 (100)
I0211 09:42:31.596776  4841 net.cpp:165] Memory required for data: 314800
I0211 09:42:31.596786  4841 layer_factory.hpp:77] Creating layer conv1
I0211 09:42:31.596812  4841 net.cpp:106] Creating Layer conv1
I0211 09:42:31.596824  4841 net.cpp:454] conv1 <- data
I0211 09:42:31.596844  4841 net.cpp:411] conv1 -> conv1
I0211 09:42:31.597270  4841 net.cpp:150] Setting up conv1
I0211 09:42:31.597293  4841 net.cpp:157] Top shape: 100 20 24 24 (1152000)
I0211 09:42:31.597303  4841 net.cpp:165] Memory required for data: 4922800
I0211 09:42:31.597323  4841 layer_factory.hpp:77] Creating layer pool1
I0211 09:42:31.597368  4841 net.cpp:106] Creating Layer pool1
I0211 09:42:31.597383  4841 net.cpp:454] pool1 <- conv1
I0211 09:42:31.597395  4841 net.cpp:411] pool1 -> pool1
I0211 09:42:31.597668  4841 net.cpp:150] Setting up pool1
I0211 09:42:31.597688  4841 net.cpp:157] Top shape: 100 20 12 12 (288000)
I0211 09:42:31.597699  4841 net.cpp:165] Memory required for data: 6074800
I0211 09:42:31.597708  4841 layer_factory.hpp:77] Creating layer conv2
I0211 09:42:31.597738  4841 net.cpp:106] Creating Layer conv2
I0211 09:42:31.597749  4841 net.cpp:454] conv2 <- pool1
I0211 09:42:31.597764  4841 net.cpp:411] conv2 -> conv2
I0211 09:42:31.598505  4841 net.cpp:150] Setting up conv2
I0211 09:42:31.598529  4841 net.cpp:157] Top shape: 100 50 8 8 (320000)
I0211 09:42:31.598539  4841 net.cpp:165] Memory required for data: 7354800
I0211 09:42:31.598557  4841 layer_factory.hpp:77] Creating layer pool2
I0211 09:42:31.598573  4841 net.cpp:106] Creating Layer pool2
I0211 09:42:31.598583  4841 net.cpp:454] pool2 <- conv2
I0211 09:42:31.598598  4841 net.cpp:411] pool2 -> pool2
I0211 09:42:31.598862  4841 net.cpp:150] Setting up pool2
I0211 09:42:31.598881  4841 net.cpp:157] Top shape: 100 50 4 4 (80000)
I0211 09:42:31.598891  4841 net.cpp:165] Memory required for data: 7674800
I0211 09:42:31.598901  4841 layer_factory.hpp:77] Creating layer ip1
I0211 09:42:31.598917  4841 net.cpp:106] Creating Layer ip1
I0211 09:42:31.598927  4841 net.cpp:454] ip1 <- pool2
I0211 09:42:31.598951  4841 net.cpp:411] ip1 -> ip1
I0211 09:42:31.606487  4841 net.cpp:150] Setting up ip1
I0211 09:42:31.606511  4841 net.cpp:157] Top shape: 100 500 (50000)
I0211 09:42:31.606519  4841 net.cpp:165] Memory required for data: 7874800
I0211 09:42:31.606540  4841 layer_factory.hpp:77] Creating layer relu1
I0211 09:42:31.606556  4841 net.cpp:106] Creating Layer relu1
I0211 09:42:31.606565  4841 net.cpp:454] relu1 <- ip1
I0211 09:42:31.606583  4841 net.cpp:397] relu1 -> ip1 (in-place)
I0211 09:42:31.606600  4841 net.cpp:150] Setting up relu1
I0211 09:42:31.606611  4841 net.cpp:157] Top shape: 100 500 (50000)
I0211 09:42:31.606629  4841 net.cpp:165] Memory required for data: 8074800
I0211 09:42:31.606640  4841 layer_factory.hpp:77] Creating layer ip2
I0211 09:42:31.606657  4841 net.cpp:106] Creating Layer ip2
I0211 09:42:31.606673  4841 net.cpp:454] ip2 <- ip1
I0211 09:42:31.606685  4841 net.cpp:411] ip2 -> ip2
I0211 09:42:31.606945  4841 net.cpp:150] Setting up ip2
I0211 09:42:31.606963  4841 net.cpp:157] Top shape: 100 10 (1000)
I0211 09:42:31.606971  4841 net.cpp:165] Memory required for data: 8078800
I0211 09:42:31.606984  4841 layer_factory.hpp:77] Creating layer ip2_ip2_0_split
I0211 09:42:31.606998  4841 net.cpp:106] Creating Layer ip2_ip2_0_split
I0211 09:42:31.607008  4841 net.cpp:454] ip2_ip2_0_split <- ip2
I0211 09:42:31.607025  4841 net.cpp:411] ip2_ip2_0_split -> ip2_ip2_0_split_0
I0211 09:42:31.607043  4841 net.cpp:411] ip2_ip2_0_split -> ip2_ip2_0_split_1
I0211 09:42:31.607108  4841 net.cpp:150] Setting up ip2_ip2_0_split
I0211 09:42:31.607125  4841 net.cpp:157] Top shape: 100 10 (1000)
I0211 09:42:31.607137  4841 net.cpp:157] Top shape: 100 10 (1000)
I0211 09:42:31.607146  4841 net.cpp:165] Memory required for data: 8086800
I0211 09:42:31.607156  4841 layer_factory.hpp:77] Creating layer accuracy
I0211 09:42:31.607180  4841 net.cpp:106] Creating Layer accuracy
I0211 09:42:31.607192  4841 net.cpp:454] accuracy <- ip2_ip2_0_split_0
I0211 09:42:31.607204  4841 net.cpp:454] accuracy <- label_mnist_1_split_0
I0211 09:42:31.607218  4841 net.cpp:411] accuracy -> accuracy
…
