…
I0210 21:28:47.704277 29158 net.cpp:322] The NetState phase (0) differed from the phase (1) specified by a rule in layer mnist
I0210 21:28:47.704301 29158 net.cpp:322] The NetState phase (0) differed from the phase (1) specified by a rule in layer accuracy
I0210 21:28:47.704583 29158 net.cpp:49] Initializing net from parameters: 
name: "LeNet"
state {
  phase: TRAIN
}
layer {
  name: "mnist"
  type: "Data"
  top: "data"
  top: "label"
  include {
    phase: TRAIN
  }
  transform_param {
    scale: 0.00390625
  }
  data_param {
    source: "examples/mnist/mnist_train_lmdb"
    batch_size: 18
    backend: LMDB
  }
}
layer {
  name: "conv1"
  type: "Convolution"
  bottom: "data"
  top: "conv1"
  param {
    lr_mult: 1
  }
  param {
    lr_mult: 2
  }
  convolution_param {
    num_output: 20
    kernel_size: 5
    stride: 1
    weight_filler {
      type: "xavier"
    }
    bias_filler {
      type: "constant"
    }
  }
}
layer {
  name: "pool1"
  type: "Pooling"
  bottom: "conv1"
  top: "pool1"
  pooling_param {
    pool: MAX
    kernel_size: 2
    stride: 2
  }
}
layer {
  name: "conv2"
  type: "Convolution"
  bottom: "pool1"
  top: "conv2"
  param {
    lr_mult: 1
  }
  param {
    lr_mult: 2
  }
  convolution_param {
    num_output: 50
    kernel_size: 5
    stride: 1
    weight_filler {
      type: "xavier"
    }
    bias_filler {
      type: "constant"
    }
  }
}
layer {
  name: "pool2"
  type: "Pooling"
  bottom: "conv2"
  top: "pool2"
  pooling_param {
    pool: MAX
    kernel_size: 2
    stride: 2
  }
}
layer {
  name: "ip1"
  type: "InnerProduct"
  bottom: "pool2"
  top: "ip1"
  param {
    lr_mult: 1
  }
  param {
    lr_mult: 2
  }
  inner_product_param {
    num_output: 500
    weight_filler {
      type: "xavier"
    }
    bias_filler {
      type: "constant"
    }
  }
}
layer {
  name: "relu1"
  type: "ReLU"
  bottom: "ip1"
  top: "ip1"
}
layer {
  name: "ip2"
  type: "InnerProduct"
  bottom: "ip1"
  top: "ip2"
  param {
    lr_mult: 1
  }
  param {
    lr_mult: 2
  }
  inner_product_param {
    num_output: 10
    weight_filler {
      type: "xavier"
    }
    bias_filler {
      type: "constant"
    }
  }
}
layer {
  name: "loss"
  type: "SoftmaxWithLoss"
  bottom: "ip2"
  bottom: "label"
  top: "loss"
}
I0210 21:28:47.704722 29158 layer_factory.hpp:77] Creating layer mnist
I0210 21:28:47.705718 29158 net.cpp:106] Creating Layer mnist
I0210 21:28:47.705737 29158 net.cpp:411] mnist -> data
I0210 21:28:47.705775 29158 net.cpp:411] mnist -> label
I0210 21:28:47.711602 29162 db_lmdb.cpp:38] Opened lmdb examples/mnist/mnist_train_lmdb
I0210 21:28:47.728662 29158 data_layer.cpp:41] output data size: 18,1,28,28
I0210 21:28:47.729764 29158 net.cpp:150] Setting up mnist
I0210 21:28:47.729789 29158 net.cpp:157] Top shape: 18 1 28 28 (14112)
I0210 21:28:47.729801 29158 net.cpp:157] Top shape: 18 (18)
I0210 21:28:47.729809 29158 net.cpp:165] Memory required for data: 56520
I0210 21:28:47.729825 29158 layer_factory.hpp:77] Creating layer conv1
I0210 21:28:47.729857 29158 net.cpp:106] Creating Layer conv1
I0210 21:28:47.729869 29158 net.cpp:454] conv1 <- data
I0210 21:28:47.729898 29158 net.cpp:411] conv1 -> conv1
I0210 21:28:47.731187 29158 net.cpp:150] Setting up conv1
I0210 21:28:47.731202 29158 net.cpp:157] Top shape: 18 20 24 24 (207360)
I0210 21:28:47.731209 29158 net.cpp:165] Memory required for data: 885960
I0210 21:28:47.731227 29158 layer_factory.hpp:77] Creating layer pool1
I0210 21:28:47.731245 29158 net.cpp:106] Creating Layer pool1
I0210 21:28:47.731253 29158 net.cpp:454] pool1 <- conv1
I0210 21:28:47.731261 29158 net.cpp:411] pool1 -> pool1
I0210 21:28:47.731459 29158 net.cpp:150] Setting up pool1
I0210 21:28:47.731472 29158 net.cpp:157] Top shape: 18 20 12 12 (51840)
I0210 21:28:47.731477 29158 net.cpp:165] Memory required for data: 1093320
I0210 21:28:47.731482 29158 layer_factory.hpp:77] Creating layer conv2
I0210 21:28:47.731498 29158 net.cpp:106] Creating Layer conv2
I0210 21:28:47.731504 29158 net.cpp:454] conv2 <- pool1
I0210 21:28:47.731513 29158 net.cpp:411] conv2 -> conv2
I0210 21:28:47.732837 29158 net.cpp:150] Setting up conv2
I0210 21:28:47.732852 29158 net.cpp:157] Top shape: 18 50 8 8 (57600)
I0210 21:28:47.732857 29158 net.cpp:165] Memory required for data: 1323720
I0210 21:28:47.732868 29158 layer_factory.hpp:77] Creating layer pool2
I0210 21:28:47.732880 29158 net.cpp:106] Creating Layer pool2
I0210 21:28:47.732887 29158 net.cpp:454] pool2 <- conv2
I0210 21:28:47.732911 29158 net.cpp:411] pool2 -> pool2
I0210 21:28:47.733059 29158 net.cpp:150] Setting up pool2
I0210 21:28:47.733072 29158 net.cpp:157] Top shape: 18 50 4 4 (14400)
I0210 21:28:47.733075 29158 net.cpp:165] Memory required for data: 1381320
I0210 21:28:47.733081 29158 layer_factory.hpp:77] Creating layer ip1
I0210 21:28:47.733100 29158 net.cpp:106] Creating Layer ip1
I0210 21:28:47.733108 29158 net.cpp:454] ip1 <- pool2
I0210 21:28:47.733116 29158 net.cpp:411] ip1 -> ip1
I0210 21:28:47.734333 29163 blocking_queue.cpp:50] Waiting for data
I0210 21:28:47.737623 29158 net.cpp:150] Setting up ip1
I0210 21:28:47.737639 29158 net.cpp:157] Top shape: 18 500 (9000)
I0210 21:28:47.737644 29158 net.cpp:165] Memory required for data: 1417320
I0210 21:28:47.737656 29158 layer_factory.hpp:77] Creating layer relu1
I0210 21:28:47.737668 29158 net.cpp:106] Creating Layer relu1
I0210 21:28:47.737673 29158 net.cpp:454] relu1 <- ip1
I0210 21:28:47.737684 29158 net.cpp:397] relu1 -> ip1 (in-place)
I0210 21:28:47.737696 29158 net.cpp:150] Setting up relu1
I0210 21:28:47.737704 29158 net.cpp:157] Top shape: 18 500 (9000)
I0210 21:28:47.737709 29158 net.cpp:165] Memory required for data: 1453320
I0210 21:28:47.737715 29158 layer_factory.hpp:77] Creating layer ip2
I0210 21:28:47.737725 29158 net.cpp:106] Creating Layer ip2
I0210 21:28:47.737730 29158 net.cpp:454] ip2 <- ip1
I0210 21:28:47.737741 29158 net.cpp:411] ip2 -> ip2
I0210 21:28:47.737903 29158 net.cpp:150] Setting up ip2
I0210 21:28:47.737915 29158 net.cpp:157] Top shape: 18 10 (180)
I0210 21:28:47.737920 29158 net.cpp:165] Memory required for data: 1454040
I0210 21:28:47.737929 29158 layer_factory.hpp:77] Creating layer loss
I0210 21:28:47.737941 29158 net.cpp:106] Creating Layer loss
I0210 21:28:47.737946 29158 net.cpp:454] loss <- ip2
I0210 21:28:47.737953 29158 net.cpp:454] loss <- label
I0210 21:28:47.737965 29158 net.cpp:411] loss -> loss
I0210 21:28:47.737985 29158 layer_factory.hpp:77] Creating layer loss
…
I0210 21:28:47.739524 29158 solver.cpp:181] Creating test net (#0) specified by net file: examples/mnist/lenet_train_test.prototxt
I0210 21:28:47.739567 29158 net.cpp:322] The NetState phase (1) differed from the phase (0) specified by a rule in layer mnist
I0210 21:28:47.739742 29158 net.cpp:49] Initializing net from parameters: 
name: "LeNet"
state {
  phase: TEST
}
layer {
  name: "mnist"
  type: "Data"
  top: "data"
  top: "label"
  include {
    phase: TEST
  }
  transform_param {
    scale: 0.00390625
  }
  data_param {
    source: "examples/mnist/mnist_test_lmdb"
    batch_size: 100
    backend: LMDB
  }
}
layer {
  name: "conv1"
  type: "Convolution"
  bottom: "data"
  top: "conv1"
  param {
    lr_mult: 1
  }
  param {
    lr_mult: 2
  }
  convolution_param {
    num_output: 20
    kernel_size: 5
    stride: 1
    weight_filler {
      type: "xavier"
    }
    bias_filler {
      type: "constant"
    }
  }
}
layer {
  name: "pool1"
  type: "Pooling"
  bottom: "conv1"
  top: "pool1"
  pooling_param {
    pool: MAX
    kernel_size: 2
    stride: 2
  }
}
layer {
  name: "conv2"
  type: "Convolution"
  bottom: "pool1"
  top: "conv2"
  param {
    lr_mult: 1
  }
  param {
    lr_mult: 2
  }
  convolution_param {
    num_output: 50
    kernel_size: 5
    stride: 1
    weight_filler {
      type: "xavier"
    }
    bias_filler {
      type: "constant"
    }
  }
}
layer {
  name: "pool2"
  type: "Pooling"
  bottom: "conv2"
  top: "pool2"
  pooling_param {
    pool: MAX
    kernel_size: 2
    stride: 2
  }
}
layer {
  name: "ip1"
  type: "InnerProduct"
  bottom: "pool2"
  top: "ip1"
  param {
    lr_mult: 1
  }
  param {
    lr_mult: 2
  }
  inner_product_param {
    num_output: 500
    weight_filler {
      type: "xavier"
    }
    bias_filler {
      type: "constant"
    }
  }
}
layer {
  name: "relu1"
  type: "ReLU"
  bottom: "ip1"
  top: "ip1"
}
layer {
  name: "ip2"
  type: "InnerProduct"
  bottom: "ip1"
  top: "ip2"
  param {
    lr_mult: 1
  }
  param {
    lr_mult: 2
  }
  inner_product_param {
    num_output: 10
    weight_filler {
      type: "xavier"
    }
    bias_filler {
      type: "constant"
    }
  }
}
layer {
  name: "accuracy"
  type: "Accuracy"
  bottom: "ip2"
  bottom: "label"
  top: "accuracy"
  include {
    phase: TEST
  }
}
layer {
  name: "loss"
  type: "SoftmaxWithLoss"
  bottom: "ip2"
  bottom: "label"
  top: "loss"
}
I0210 21:28:47.739841 29158 layer_factory.hpp:77] Creating layer mnist
I0210 21:28:47.739991 29158 net.cpp:106] Creating Layer mnist
I0210 21:28:47.740013 29158 net.cpp:411] mnist -> data
I0210 21:28:47.740026 29158 net.cpp:411] mnist -> label
I0210 21:28:47.745514 29164 db_lmdb.cpp:38] Opened lmdb examples/mnist/mnist_test_lmdb
I0210 21:28:47.745965 29158 data_layer.cpp:41] output data size: 100,1,28,28
I0210 21:28:47.747807 29158 net.cpp:150] Setting up mnist
I0210 21:28:47.747833 29158 net.cpp:157] Top shape: 100 1 28 28 (78400)
I0210 21:28:47.747844 29158 net.cpp:157] Top shape: 100 (100)
I0210 21:28:47.747850 29158 net.cpp:165] Memory required for data: 314000
I0210 21:28:47.747859 29158 layer_factory.hpp:77] Creating layer label_mnist_1_split
I0210 21:28:47.747889 29158 net.cpp:106] Creating Layer label_mnist_1_split
I0210 21:28:47.747900 29158 net.cpp:454] label_mnist_1_split <- label
I0210 21:28:47.747908 29158 net.cpp:411] label_mnist_1_split -> label_mnist_1_split_0
I0210 21:28:47.747920 29158 net.cpp:411] label_mnist_1_split -> label_mnist_1_split_1
I0210 21:28:47.748080 29158 net.cpp:150] Setting up label_mnist_1_split
I0210 21:28:47.748091 29158 net.cpp:157] Top shape: 100 (100)
I0210 21:28:47.748098 29158 net.cpp:157] Top shape: 100 (100)
I0210 21:28:47.748105 29158 net.cpp:165] Memory required for data: 314800
I0210 21:28:47.748111 29158 layer_factory.hpp:77] Creating layer conv1
I0210 21:28:47.748126 29158 net.cpp:106] Creating Layer conv1
I0210 21:28:47.748133 29158 net.cpp:454] conv1 <- data
I0210 21:28:47.748145 29158 net.cpp:411] conv1 -> conv1
I0210 21:28:47.748397 29158 net.cpp:150] Setting up conv1
I0210 21:28:47.748410 29158 net.cpp:157] Top shape: 100 20 24 24 (1152000)
I0210 21:28:47.748416 29158 net.cpp:165] Memory required for data: 4922800
I0210 21:28:47.748430 29158 layer_factory.hpp:77] Creating layer pool1
I0210 21:28:47.748442 29158 net.cpp:106] Creating Layer pool1
I0210 21:28:47.748463 29158 net.cpp:454] pool1 <- conv1
I0210 21:28:47.748473 29158 net.cpp:411] pool1 -> pool1
I0210 21:28:47.748631 29158 net.cpp:150] Setting up pool1
I0210 21:28:47.748641 29158 net.cpp:157] Top shape: 100 20 12 12 (288000)
I0210 21:28:47.748647 29158 net.cpp:165] Memory required for data: 6074800
I0210 21:28:47.748653 29158 layer_factory.hpp:77] Creating layer conv2
I0210 21:28:47.748669 29158 net.cpp:106] Creating Layer conv2
I0210 21:28:47.748677 29158 net.cpp:454] conv2 <- pool1
I0210 21:28:47.748685 29158 net.cpp:411] conv2 -> conv2
I0210 21:28:47.749128 29158 net.cpp:150] Setting up conv2
I0210 21:28:47.749140 29158 net.cpp:157] Top shape: 100 50 8 8 (320000)
I0210 21:28:47.749146 29158 net.cpp:165] Memory required for data: 7354800
I0210 21:28:47.749158 29158 layer_factory.hpp:77] Creating layer pool2
I0210 21:28:47.749169 29158 net.cpp:106] Creating Layer pool2
I0210 21:28:47.749174 29158 net.cpp:454] pool2 <- conv2
I0210 21:28:47.749181 29158 net.cpp:411] pool2 -> pool2
I0210 21:28:47.749342 29158 net.cpp:150] Setting up pool2
I0210 21:28:47.749354 29158 net.cpp:157] Top shape: 100 50 4 4 (80000)
I0210 21:28:47.749358 29158 net.cpp:165] Memory required for data: 7674800
I0210 21:28:47.749364 29158 layer_factory.hpp:77] Creating layer ip1
I0210 21:28:47.749377 29158 net.cpp:106] Creating Layer ip1
I0210 21:28:47.749385 29158 net.cpp:454] ip1 <- pool2
I0210 21:28:47.749404 29158 net.cpp:411] ip1 -> ip1
I0210 21:28:47.754861 29158 net.cpp:150] Setting up ip1
I0210 21:28:47.754878 29158 net.cpp:157] Top shape: 100 500 (50000)
I0210 21:28:47.754895 29158 net.cpp:165] Memory required for data: 7874800
I0210 21:28:47.754909 29158 layer_factory.hpp:77] Creating layer relu1
I0210 21:28:47.754919 29158 net.cpp:106] Creating Layer relu1
I0210 21:28:47.754926 29158 net.cpp:454] relu1 <- ip1
I0210 21:28:47.754938 29158 net.cpp:397] relu1 -> ip1 (in-place)
I0210 21:28:47.754948 29158 net.cpp:150] Setting up relu1
I0210 21:28:47.754956 29158 net.cpp:157] Top shape: 100 500 (50000)
I0210 21:28:47.754961 29158 net.cpp:165] Memory required for data: 8074800
I0210 21:28:47.754966 29158 layer_factory.hpp:77] Creating layer ip2
I0210 21:28:47.754977 29158 net.cpp:106] Creating Layer ip2
I0210 21:28:47.754983 29158 net.cpp:454] ip2 <- ip1
I0210 21:28:47.754995 29158 net.cpp:411] ip2 -> ip2
I0210 21:28:47.755152 29158 net.cpp:150] Setting up ip2
I0210 21:28:47.755163 29158 net.cpp:157] Top shape: 100 10 (1000)
I0210 21:28:47.755169 29158 net.cpp:165] Memory required for data: 8078800
I0210 21:28:47.755178 29158 layer_factory.hpp:77] Creating layer ip2_ip2_0_split
I0210 21:28:47.755187 29158 net.cpp:106] Creating Layer ip2_ip2_0_split
I0210 21:28:47.755194 29158 net.cpp:454] ip2_ip2_0_split <- ip2
I0210 21:28:47.755203 29158 net.cpp:411] ip2_ip2_0_split -> ip2_ip2_0_split_0
I0210 21:28:47.755214 29158 net.cpp:411] ip2_ip2_0_split -> ip2_ip2_0_split_1
I0210 21:28:47.755254 29158 net.cpp:150] Setting up ip2_ip2_0_split
I0210 21:28:47.755264 29158 net.cpp:157] Top shape: 100 10 (1000)
I0210 21:28:47.755272 29158 net.cpp:157] Top shape: 100 10 (1000)
I0210 21:28:47.755278 29158 net.cpp:165] Memory required for data: 8086800
I0210 21:28:47.755285 29158 layer_factory.hpp:77] Creating layer accuracy
I0210 21:28:47.755301 29158 net.cpp:106] Creating Layer accuracy
I0210 21:28:47.755307 29158 net.cpp:454] accuracy <- ip2_ip2_0_split_0
I0210 21:28:47.755316 29158 net.cpp:454] accuracy <- label_mnist_1_split_0
I0210 21:28:47.755323 29158 net.cpp:411] accuracy -> accuracy
…
