…
I0210 21:17:33.424377 28551 net.cpp:322] The NetState phase (0) differed from the phase (1) specified by a rule in layer mnist
I0210 21:17:33.424403 28551 net.cpp:322] The NetState phase (0) differed from the phase (1) specified by a rule in layer accuracy
I0210 21:17:33.424532 28551 net.cpp:49] Initializing net from parameters: 
name: "LeNet"
state {
  phase: TRAIN
}
layer {
  name: "mnist"
  type: "Data"
  top: "data"
  top: "label"
  include {
    phase: TRAIN
  }
  transform_param {
    scale: 0.00390625
  }
  data_param {
    source: "examples/mnist/mnist_train_lmdb"
    batch_size: 64
    backend: LMDB
  }
}
layer {
  name: "conv1"
  type: "Convolution"
  bottom: "data"
  top: "conv1"
  param {
    lr_mult: 1
  }
  param {
    lr_mult: 2
  }
  convolution_param {
    num_output: 20
    kernel_size: 5
    stride: 1
    weight_filler {
      type: "xavier"
    }
    bias_filler {
      type: "constant"
    }
  }
}
layer {
  name: "pool1"
  type: "Pooling"
  bottom: "conv1"
  top: "pool1"
  pooling_param {
    pool: MAX
    kernel_size: 2
    stride: 2
  }
}
layer {
  name: "conv2"
  type: "Convolution"
  bottom: "pool1"
  top: "conv2"
  param {
    lr_mult: 1
  }
  param {
    lr_mult: 2
  }
  convolution_param {
    num_output: 50
    kernel_size: 5
    stride: 1
    weight_filler {
      type: "xavier"
    }
    bias_filler {
      type: "constant"
    }
  }
}
layer {
  name: "pool2"
  type: "Pooling"
  bottom: "conv2"
  top: "pool2"
  pooling_param {
    pool: MAX
    kernel_size: 2
    stride: 2
  }
}
layer {
  name: "ip1"
  type: "InnerProduct"
  bottom: "pool2"
  top: "ip1"
  param {
    lr_mult: 1
  }
  param {
    lr_mult: 2
  }
  inner_product_param {
    num_output: 500
    weight_filler {
      type: "xavier"
    }
    bias_filler {
      type: "constant"
    }
  }
}
layer {
  name: "relu1"
  type: "ReLU"
  bottom: "ip1"
  top: "ip1"
}
layer {
  name: "ip2"
  type: "InnerProduct"
  bottom: "ip1"
  top: "ip2"
  param {
    lr_mult: 1
  }
  param {
    lr_mult: 2
  }
  inner_product_param {
    num_output: 10
    weight_filler {
      type: "xavier"
    }
    bias_filler {
      type: "constant"
    }
  }
}
layer {
  name: "loss"
  type: "SoftmaxWithLoss"
  bottom: "ip2"
  bottom: "label"
  top: "loss"
}
I0210 21:17:33.424618 28551 layer_factory.hpp:77] Creating layer mnist
I0210 21:17:33.426230 28551 net.cpp:106] Creating Layer mnist
I0210 21:17:33.426251 28551 net.cpp:411] mnist -> data
I0210 21:17:33.426313 28551 net.cpp:411] mnist -> label
I0210 21:17:33.432153 28555 db_lmdb.cpp:38] Opened lmdb examples/mnist/mnist_train_lmdb
I0210 21:17:33.452666 28551 data_layer.cpp:41] output data size: 64,1,28,28
I0210 21:17:33.454151 28551 net.cpp:150] Setting up mnist
I0210 21:17:33.454177 28551 net.cpp:157] Top shape: 64 1 28 28 (50176)
I0210 21:17:33.454186 28551 net.cpp:157] Top shape: 64 (64)
I0210 21:17:33.454191 28551 net.cpp:165] Memory required for data: 200960
I0210 21:17:33.454206 28551 layer_factory.hpp:77] Creating layer conv1
I0210 21:17:33.454238 28551 net.cpp:106] Creating Layer conv1
I0210 21:17:33.454251 28551 net.cpp:454] conv1 <- data
I0210 21:17:33.454277 28551 net.cpp:411] conv1 -> conv1
I0210 21:17:33.455624 28551 net.cpp:150] Setting up conv1
I0210 21:17:33.455641 28551 net.cpp:157] Top shape: 64 20 24 24 (737280)
I0210 21:17:33.455646 28551 net.cpp:165] Memory required for data: 3150080
I0210 21:17:33.455662 28551 layer_factory.hpp:77] Creating layer pool1
I0210 21:17:33.455679 28551 net.cpp:106] Creating Layer pool1
I0210 21:17:33.455687 28551 net.cpp:454] pool1 <- conv1
I0210 21:17:33.455694 28551 net.cpp:411] pool1 -> pool1
I0210 21:17:33.455898 28551 net.cpp:150] Setting up pool1
I0210 21:17:33.455909 28551 net.cpp:157] Top shape: 64 20 12 12 (184320)
I0210 21:17:33.455915 28551 net.cpp:165] Memory required for data: 3887360
I0210 21:17:33.455920 28551 layer_factory.hpp:77] Creating layer conv2
I0210 21:17:33.455938 28551 net.cpp:106] Creating Layer conv2
I0210 21:17:33.455945 28551 net.cpp:454] conv2 <- pool1
I0210 21:17:33.455953 28551 net.cpp:411] conv2 -> conv2
I0210 21:17:33.456372 28551 net.cpp:150] Setting up conv2
I0210 21:17:33.456385 28551 net.cpp:157] Top shape: 64 50 8 8 (204800)
I0210 21:17:33.456390 28551 net.cpp:165] Memory required for data: 4706560
I0210 21:17:33.456401 28551 layer_factory.hpp:77] Creating layer pool2
I0210 21:17:33.456415 28551 net.cpp:106] Creating Layer pool2
I0210 21:17:33.456423 28551 net.cpp:454] pool2 <- conv2
I0210 21:17:33.456430 28551 net.cpp:411] pool2 -> pool2
I0210 21:17:33.456581 28551 net.cpp:150] Setting up pool2
I0210 21:17:33.456593 28551 net.cpp:157] Top shape: 64 50 4 4 (51200)
I0210 21:17:33.456598 28551 net.cpp:165] Memory required for data: 4911360
I0210 21:17:33.456603 28551 layer_factory.hpp:77] Creating layer ip1
I0210 21:17:33.456619 28551 net.cpp:106] Creating Layer ip1
I0210 21:17:33.456626 28551 net.cpp:454] ip1 <- pool2
I0210 21:17:33.456637 28551 net.cpp:411] ip1 -> ip1
I0210 21:17:33.461225 28551 net.cpp:150] Setting up ip1
I0210 21:17:33.461241 28551 net.cpp:157] Top shape: 64 500 (32000)
I0210 21:17:33.461246 28551 net.cpp:165] Memory required for data: 5039360
I0210 21:17:33.461256 28551 layer_factory.hpp:77] Creating layer relu1
I0210 21:17:33.461266 28551 net.cpp:106] Creating Layer relu1
I0210 21:17:33.461274 28551 net.cpp:454] relu1 <- ip1
I0210 21:17:33.461285 28551 net.cpp:397] relu1 -> ip1 (in-place)
I0210 21:17:33.461295 28551 net.cpp:150] Setting up relu1
I0210 21:17:33.461304 28551 net.cpp:157] Top shape: 64 500 (32000)
I0210 21:17:33.461310 28551 net.cpp:165] Memory required for data: 5167360
I0210 21:17:33.461314 28551 layer_factory.hpp:77] Creating layer ip2
I0210 21:17:33.461330 28551 net.cpp:106] Creating Layer ip2
I0210 21:17:33.461336 28551 net.cpp:454] ip2 <- ip1
I0210 21:17:33.461347 28551 net.cpp:411] ip2 -> ip2
I0210 21:17:33.462350 28551 net.cpp:150] Setting up ip2
I0210 21:17:33.462363 28551 net.cpp:157] Top shape: 64 10 (640)
I0210 21:17:33.462368 28551 net.cpp:165] Memory required for data: 5169920
I0210 21:17:33.462378 28551 layer_factory.hpp:77] Creating layer loss
I0210 21:17:33.462388 28551 net.cpp:106] Creating Layer loss
I0210 21:17:33.462394 28551 net.cpp:454] loss <- ip2
I0210 21:17:33.462402 28551 net.cpp:454] loss <- label
I0210 21:17:33.462414 28551 net.cpp:411] loss -> loss
I0210 21:17:33.462435 28551 layer_factory.hpp:77] Creating layer loss
…
I0210 21:17:33.463758 28551 solver.cpp:181] Creating test net (#0) specified by net file: examples/mnist/lenet_train_test.prototxt
I0210 21:17:33.463798 28551 net.cpp:322] The NetState phase (1) differed from the phase (0) specified by a rule in layer mnist
I0210 21:17:33.463984 28551 net.cpp:49] Initializing net from parameters: 
name: "LeNet"
state {
  phase: TEST
}
layer {
  name: "mnist"
  type: "Data"
  top: "data"
  top: "label"
  include {
    phase: TEST
  }
  transform_param {
    scale: 0.00390625
  }
  data_param {
    source: "examples/mnist/mnist_test_lmdb"
    batch_size: 100
    backend: LMDB
  }
}
layer {
  name: "conv1"
  type: "Convolution"
  bottom: "data"
  top: "conv1"
  param {
    lr_mult: 1
  }
  param {
    lr_mult: 2
  }
  convolution_param {
    num_output: 20
    kernel_size: 5
    stride: 1
    weight_filler {
      type: "xavier"
    }
    bias_filler {
      type: "constant"
    }
  }
}
layer {
  name: "pool1"
  type: "Pooling"
  bottom: "conv1"
  top: "pool1"
  pooling_param {
    pool: MAX
    kernel_size: 2
    stride: 2
  }
}
layer {
  name: "conv2"
  type: "Convolution"
  bottom: "pool1"
  top: "conv2"
  param {
    lr_mult: 1
  }
  param {
    lr_mult: 2
  }
  convolution_param {
    num_output: 50
    kernel_size: 5
    stride: 1
    weight_filler {
      type: "xavier"
    }
    bias_filler {
      type: "constant"
    }
  }
}
layer {
  name: "pool2"
  type: "Pooling"
  bottom: "conv2"
  top: "pool2"
  pooling_param {
    pool: MAX
    kernel_size: 2
    stride: 2
  }
}
layer {
  name: "ip1"
  type: "InnerProduct"
  bottom: "pool2"
  top: "ip1"
  param {
    lr_mult: 1
  }
  param {
    lr_mult: 2
  }
  inner_product_param {
    num_output: 500
    weight_filler {
      type: "xavier"
    }
    bias_filler {
      type: "constant"
    }
  }
}
layer {
  name: "relu1"
  type: "ReLU"
  bottom: "ip1"
  top: "ip1"
}
layer {
  name: "ip2"
  type: "InnerProduct"
  bottom: "ip1"
  top: "ip2"
  param {
    lr_mult: 1
  }
  param {
    lr_mult: 2
  }
  inner_product_param {
    num_output: 10
    weight_filler {
      type: "xavier"
    }
    bias_filler {
      type: "constant"
    }
  }
}
layer {
  name: "accuracy"
  type: "Accuracy"
  bottom: "ip2"
  bottom: "label"
  top: "accuracy"
  include {
    phase: TEST
  }
}
layer {
  name: "loss"
  type: "SoftmaxWithLoss"
  bottom: "ip2"
  bottom: "label"
  top: "loss"
}
I0210 21:17:33.464087 28551 layer_factory.hpp:77] Creating layer mnist
I0210 21:17:33.464221 28551 net.cpp:106] Creating Layer mnist
I0210 21:17:33.464234 28551 net.cpp:411] mnist -> data
I0210 21:17:33.464246 28551 net.cpp:411] mnist -> label
I0210 21:17:33.469455 28557 db_lmdb.cpp:38] Opened lmdb examples/mnist/mnist_test_lmdb
I0210 21:17:33.469763 28551 data_layer.cpp:41] output data size: 100,1,28,28
I0210 21:17:33.471278 28551 net.cpp:150] Setting up mnist
I0210 21:17:33.471295 28551 net.cpp:157] Top shape: 100 1 28 28 (78400)
I0210 21:17:33.471302 28551 net.cpp:157] Top shape: 100 (100)
I0210 21:17:33.471308 28551 net.cpp:165] Memory required for data: 314000
I0210 21:17:33.471315 28551 layer_factory.hpp:77] Creating layer label_mnist_1_split
I0210 21:17:33.471325 28551 net.cpp:106] Creating Layer label_mnist_1_split
I0210 21:17:33.471331 28551 net.cpp:454] label_mnist_1_split <- label
I0210 21:17:33.471341 28551 net.cpp:411] label_mnist_1_split -> label_mnist_1_split_0
I0210 21:17:33.471354 28551 net.cpp:411] label_mnist_1_split -> label_mnist_1_split_1
I0210 21:17:33.471408 28551 net.cpp:150] Setting up label_mnist_1_split
I0210 21:17:33.471420 28551 net.cpp:157] Top shape: 100 (100)
I0210 21:17:33.471426 28551 net.cpp:157] Top shape: 100 (100)
I0210 21:17:33.471431 28551 net.cpp:165] Memory required for data: 314800
I0210 21:17:33.471437 28551 layer_factory.hpp:77] Creating layer conv1
I0210 21:17:33.471451 28551 net.cpp:106] Creating Layer conv1
I0210 21:17:33.471457 28551 net.cpp:454] conv1 <- data
I0210 21:17:33.471472 28551 net.cpp:411] conv1 -> conv1
I0210 21:17:33.471982 28551 net.cpp:150] Setting up conv1
I0210 21:17:33.471995 28551 net.cpp:157] Top shape: 100 20 24 24 (1152000)
I0210 21:17:33.472000 28551 net.cpp:165] Memory required for data: 4922800
I0210 21:17:33.472012 28551 layer_factory.hpp:77] Creating layer pool1
I0210 21:17:33.472026 28551 net.cpp:106] Creating Layer pool1
I0210 21:17:33.472033 28551 net.cpp:454] pool1 <- conv1
I0210 21:17:33.472057 28551 net.cpp:411] pool1 -> pool1
I0210 21:17:33.472215 28551 net.cpp:150] Setting up pool1
I0210 21:17:33.472226 28551 net.cpp:157] Top shape: 100 20 12 12 (288000)
I0210 21:17:33.472231 28551 net.cpp:165] Memory required for data: 6074800
I0210 21:17:33.472236 28551 layer_factory.hpp:77] Creating layer conv2
I0210 21:17:33.472251 28551 net.cpp:106] Creating Layer conv2
I0210 21:17:33.472259 28551 net.cpp:454] conv2 <- pool1
I0210 21:17:33.472267 28551 net.cpp:411] conv2 -> conv2
I0210 21:17:33.472710 28551 net.cpp:150] Setting up conv2
I0210 21:17:33.472723 28551 net.cpp:157] Top shape: 100 50 8 8 (320000)
I0210 21:17:33.472728 28551 net.cpp:165] Memory required for data: 7354800
I0210 21:17:33.472739 28551 layer_factory.hpp:77] Creating layer pool2
I0210 21:17:33.472753 28551 net.cpp:106] Creating Layer pool2
I0210 21:17:33.472757 28551 net.cpp:454] pool2 <- conv2
I0210 21:17:33.472767 28551 net.cpp:411] pool2 -> pool2
I0210 21:17:33.472952 28551 net.cpp:150] Setting up pool2
I0210 21:17:33.472965 28551 net.cpp:157] Top shape: 100 50 4 4 (80000)
I0210 21:17:33.472970 28551 net.cpp:165] Memory required for data: 7674800
I0210 21:17:33.472976 28551 layer_factory.hpp:77] Creating layer ip1
I0210 21:17:33.472985 28551 net.cpp:106] Creating Layer ip1
I0210 21:17:33.472991 28551 net.cpp:454] ip1 <- pool2
I0210 21:17:33.473003 28551 net.cpp:411] ip1 -> ip1
I0210 21:17:33.479585 28551 net.cpp:150] Setting up ip1
I0210 21:17:33.479601 28551 net.cpp:157] Top shape: 100 500 (50000)
I0210 21:17:33.479605 28551 net.cpp:165] Memory required for data: 7874800
I0210 21:17:33.479617 28551 layer_factory.hpp:77] Creating layer relu1
I0210 21:17:33.479630 28551 net.cpp:106] Creating Layer relu1
I0210 21:17:33.479636 28551 net.cpp:454] relu1 <- ip1
I0210 21:17:33.479645 28551 net.cpp:397] relu1 -> ip1 (in-place)
I0210 21:17:33.479655 28551 net.cpp:150] Setting up relu1
I0210 21:17:33.479662 28551 net.cpp:157] Top shape: 100 500 (50000)
I0210 21:17:33.479666 28551 net.cpp:165] Memory required for data: 8074800
I0210 21:17:33.479671 28551 layer_factory.hpp:77] Creating layer ip2
I0210 21:17:33.479681 28551 net.cpp:106] Creating Layer ip2
I0210 21:17:33.479687 28551 net.cpp:454] ip2 <- ip1
I0210 21:17:33.479698 28551 net.cpp:411] ip2 -> ip2
I0210 21:17:33.479856 28551 net.cpp:150] Setting up ip2
I0210 21:17:33.479866 28551 net.cpp:157] Top shape: 100 10 (1000)
I0210 21:17:33.479872 28551 net.cpp:165] Memory required for data: 8078800
I0210 21:17:33.479881 28551 layer_factory.hpp:77] Creating layer ip2_ip2_0_split
I0210 21:17:33.479892 28551 net.cpp:106] Creating Layer ip2_ip2_0_split
I0210 21:17:33.479898 28551 net.cpp:454] ip2_ip2_0_split <- ip2
I0210 21:17:33.479907 28551 net.cpp:411] ip2_ip2_0_split -> ip2_ip2_0_split_0
I0210 21:17:33.479915 28551 net.cpp:411] ip2_ip2_0_split -> ip2_ip2_0_split_1
I0210 21:17:33.479955 28551 net.cpp:150] Setting up ip2_ip2_0_split
I0210 21:17:33.479967 28551 net.cpp:157] Top shape: 100 10 (1000)
I0210 21:17:33.479974 28551 net.cpp:157] Top shape: 100 10 (1000)
I0210 21:17:33.479979 28551 net.cpp:165] Memory required for data: 8086800
I0210 21:17:33.479984 28551 layer_factory.hpp:77] Creating layer accuracy
I0210 21:17:33.479997 28551 net.cpp:106] Creating Layer accuracy
I0210 21:17:33.480003 28551 net.cpp:454] accuracy <- ip2_ip2_0_split_0
I0210 21:17:33.480010 28551 net.cpp:454] accuracy <- label_mnist_1_split_0
I0210 21:17:33.480018 28551 net.cpp:411] accuracy -> accuracy
…
