…
I0210 21:17:23.191404 28539 net.cpp:322] The NetState phase (0) differed from the phase (1) specified by a rule in layer mnist
I0210 21:17:23.191462 28539 net.cpp:322] The NetState phase (0) differed from the phase (1) specified by a rule in layer accuracy
I0210 21:17:23.191776 28539 net.cpp:49] Initializing net from parameters: 
name: "LeNet"
state {
  phase: TRAIN
}
layer {
  name: "mnist"
  type: "Data"
  top: "data"
  top: "label"
  include {
    phase: TRAIN
  }
  transform_param {
    scale: 0.00390625
  }
  data_param {
    source: "examples/mnist/mnist_train_lmdb"
    batch_size: 64
    backend: LMDB
  }
}
layer {
  name: "conv1"
  type: "Convolution"
  bottom: "data"
  top: "conv1"
  param {
    lr_mult: 1
  }
  param {
    lr_mult: 2
  }
  convolution_param {
    num_output: 20
    kernel_size: 5
    stride: 1
    weight_filler {
      type: "xavier"
    }
    bias_filler {
      type: "constant"
    }
  }
}
layer {
  name: "pool1"
  type: "Pooling"
  bottom: "conv1"
  top: "pool1"
  pooling_param {
    pool: MAX
    kernel_size: 2
    stride: 2
  }
}
layer {
  name: "conv2"
  type: "Convolution"
  bottom: "pool1"
  top: "conv2"
  param {
    lr_mult: 1
  }
  param {
    lr_mult: 2
  }
  convolution_param {
    num_output: 50
    kernel_size: 5
    stride: 1
    weight_filler {
      type: "xavier"
    }
    bias_filler {
      type: "constant"
    }
  }
}
layer {
  name: "pool2"
  type: "Pooling"
  bottom: "conv2"
  top: "pool2"
  pooling_param {
    pool: MAX
    kernel_size: 2
    stride: 2
  }
}
layer {
  name: "ip1"
  type: "InnerProduct"
  bottom: "pool2"
  top: "ip1"
  param {
    lr_mult: 1
  }
  param {
    lr_mult: 2
  }
  inner_product_param {
    num_output: 500
    weight_filler {
      type: "xavier"
    }
    bias_filler {
      type: "constant"
    }
  }
}
layer {
  name: "relu1"
  type: "ReLU"
  bottom: "ip1"
  top: "ip1"
}
layer {
  name: "ip2"
  type: "InnerProduct"
  bottom: "ip1"
  top: "ip2"
  param {
    lr_mult: 1
  }
  param {
    lr_mult: 2
  }
  inner_product_param {
    num_output: 10
    weight_filler {
      type: "xavier"
    }
    bias_filler {
      type: "constant"
    }
  }
}
layer {
  name: "loss"
  type: "SoftmaxWithLoss"
  bottom: "ip2"
  bottom: "label"
  top: "loss"
}
I0210 21:17:23.191968 28539 layer_factory.hpp:77] Creating layer mnist
I0210 21:17:23.193472 28539 net.cpp:106] Creating Layer mnist
I0210 21:17:23.193526 28539 net.cpp:411] mnist -> data
I0210 21:17:23.193600 28539 net.cpp:411] mnist -> label
I0210 21:17:23.199034 28543 db_lmdb.cpp:38] Opened lmdb examples/mnist/mnist_train_lmdb
I0210 21:17:23.220949 28539 data_layer.cpp:41] output data size: 64,1,28,28
I0210 21:17:23.222390 28539 net.cpp:150] Setting up mnist
I0210 21:17:23.222411 28539 net.cpp:157] Top shape: 64 1 28 28 (50176)
I0210 21:17:23.222425 28539 net.cpp:157] Top shape: 64 (64)
I0210 21:17:23.222430 28539 net.cpp:165] Memory required for data: 200960
I0210 21:17:23.222443 28539 layer_factory.hpp:77] Creating layer conv1
I0210 21:17:23.222470 28539 net.cpp:106] Creating Layer conv1
I0210 21:17:23.222481 28539 net.cpp:454] conv1 <- data
I0210 21:17:23.222503 28539 net.cpp:411] conv1 -> conv1
I0210 21:17:23.223803 28539 net.cpp:150] Setting up conv1
I0210 21:17:23.223819 28539 net.cpp:157] Top shape: 64 20 24 24 (737280)
I0210 21:17:23.223825 28539 net.cpp:165] Memory required for data: 3150080
I0210 21:17:23.223841 28539 layer_factory.hpp:77] Creating layer pool1
I0210 21:17:23.223860 28539 net.cpp:106] Creating Layer pool1
I0210 21:17:23.223866 28539 net.cpp:454] pool1 <- conv1
I0210 21:17:23.223875 28539 net.cpp:411] pool1 -> pool1
I0210 21:17:23.224082 28539 net.cpp:150] Setting up pool1
I0210 21:17:23.224094 28539 net.cpp:157] Top shape: 64 20 12 12 (184320)
I0210 21:17:23.224100 28539 net.cpp:165] Memory required for data: 3887360
I0210 21:17:23.224107 28539 layer_factory.hpp:77] Creating layer conv2
I0210 21:17:23.224123 28539 net.cpp:106] Creating Layer conv2
I0210 21:17:23.224128 28539 net.cpp:454] conv2 <- pool1
I0210 21:17:23.224140 28539 net.cpp:411] conv2 -> conv2
I0210 21:17:23.224618 28539 net.cpp:150] Setting up conv2
I0210 21:17:23.224632 28539 net.cpp:157] Top shape: 64 50 8 8 (204800)
I0210 21:17:23.224638 28539 net.cpp:165] Memory required for data: 4706560
I0210 21:17:23.224650 28539 layer_factory.hpp:77] Creating layer pool2
I0210 21:17:23.224663 28539 net.cpp:106] Creating Layer pool2
I0210 21:17:23.224668 28539 net.cpp:454] pool2 <- conv2
I0210 21:17:23.224675 28539 net.cpp:411] pool2 -> pool2
I0210 21:17:23.224856 28539 net.cpp:150] Setting up pool2
I0210 21:17:23.224869 28539 net.cpp:157] Top shape: 64 50 4 4 (51200)
I0210 21:17:23.224874 28539 net.cpp:165] Memory required for data: 4911360
I0210 21:17:23.224879 28539 layer_factory.hpp:77] Creating layer ip1
I0210 21:17:23.224897 28539 net.cpp:106] Creating Layer ip1
I0210 21:17:23.224905 28539 net.cpp:454] ip1 <- pool2
I0210 21:17:23.224917 28539 net.cpp:411] ip1 -> ip1
I0210 21:17:23.230057 28539 net.cpp:150] Setting up ip1
I0210 21:17:23.230072 28539 net.cpp:157] Top shape: 64 500 (32000)
I0210 21:17:23.230077 28539 net.cpp:165] Memory required for data: 5039360
I0210 21:17:23.230087 28539 layer_factory.hpp:77] Creating layer relu1
I0210 21:17:23.230096 28539 net.cpp:106] Creating Layer relu1
I0210 21:17:23.230101 28539 net.cpp:454] relu1 <- ip1
I0210 21:17:23.230108 28539 net.cpp:397] relu1 -> ip1 (in-place)
I0210 21:17:23.230120 28539 net.cpp:150] Setting up relu1
I0210 21:17:23.230129 28539 net.cpp:157] Top shape: 64 500 (32000)
I0210 21:17:23.230134 28539 net.cpp:165] Memory required for data: 5167360
I0210 21:17:23.230139 28539 layer_factory.hpp:77] Creating layer ip2
I0210 21:17:23.230151 28539 net.cpp:106] Creating Layer ip2
I0210 21:17:23.230157 28539 net.cpp:454] ip2 <- ip1
I0210 21:17:23.230165 28539 net.cpp:411] ip2 -> ip2
I0210 21:17:23.231181 28539 net.cpp:150] Setting up ip2
I0210 21:17:23.231195 28539 net.cpp:157] Top shape: 64 10 (640)
I0210 21:17:23.231200 28539 net.cpp:165] Memory required for data: 5169920
I0210 21:17:23.231209 28539 layer_factory.hpp:77] Creating layer loss
I0210 21:17:23.231221 28539 net.cpp:106] Creating Layer loss
I0210 21:17:23.231231 28539 net.cpp:454] loss <- ip2
I0210 21:17:23.231241 28539 net.cpp:454] loss <- label
I0210 21:17:23.231254 28539 net.cpp:411] loss -> loss
I0210 21:17:23.231274 28539 layer_factory.hpp:77] Creating layer loss
…
I0210 21:17:23.232566 28539 solver.cpp:181] Creating test net (#0) specified by net file: examples/mnist/lenet_train_test.prototxt
I0210 21:17:23.232606 28539 net.cpp:322] The NetState phase (1) differed from the phase (0) specified by a rule in layer mnist
I0210 21:17:23.232775 28539 net.cpp:49] Initializing net from parameters: 
name: "LeNet"
state {
  phase: TEST
}
layer {
  name: "mnist"
  type: "Data"
  top: "data"
  top: "label"
  include {
    phase: TEST
  }
  transform_param {
    scale: 0.00390625
  }
  data_param {
    source: "examples/mnist/mnist_test_lmdb"
    batch_size: 100
    backend: LMDB
  }
}
layer {
  name: "conv1"
  type: "Convolution"
  bottom: "data"
  top: "conv1"
  param {
    lr_mult: 1
  }
  param {
    lr_mult: 2
  }
  convolution_param {
    num_output: 20
    kernel_size: 5
    stride: 1
    weight_filler {
      type: "xavier"
    }
    bias_filler {
      type: "constant"
    }
  }
}
layer {
  name: "pool1"
  type: "Pooling"
  bottom: "conv1"
  top: "pool1"
  pooling_param {
    pool: MAX
    kernel_size: 2
    stride: 2
  }
}
layer {
  name: "conv2"
  type: "Convolution"
  bottom: "pool1"
  top: "conv2"
  param {
    lr_mult: 1
  }
  param {
    lr_mult: 2
  }
  convolution_param {
    num_output: 50
    kernel_size: 5
    stride: 1
    weight_filler {
      type: "xavier"
    }
    bias_filler {
      type: "constant"
    }
  }
}
layer {
  name: "pool2"
  type: "Pooling"
  bottom: "conv2"
  top: "pool2"
  pooling_param {
    pool: MAX
    kernel_size: 2
    stride: 2
  }
}
layer {
  name: "ip1"
  type: "InnerProduct"
  bottom: "pool2"
  top: "ip1"
  param {
    lr_mult: 1
  }
  param {
    lr_mult: 2
  }
  inner_product_param {
    num_output: 500
    weight_filler {
      type: "xavier"
    }
    bias_filler {
      type: "constant"
    }
  }
}
layer {
  name: "relu1"
  type: "ReLU"
  bottom: "ip1"
  top: "ip1"
}
layer {
  name: "ip2"
  type: "InnerProduct"
  bottom: "ip1"
  top: "ip2"
  param {
    lr_mult: 1
  }
  param {
    lr_mult: 2
  }
  inner_product_param {
    num_output: 10
    weight_filler {
      type: "xavier"
    }
    bias_filler {
      type: "constant"
    }
  }
}
layer {
  name: "accuracy"
  type: "Accuracy"
  bottom: "ip2"
  bottom: "label"
  top: "accuracy"
  include {
    phase: TEST
  }
}
layer {
  name: "loss"
  type: "SoftmaxWithLoss"
  bottom: "ip2"
  bottom: "label"
  top: "loss"
}
I0210 21:17:23.232874 28539 layer_factory.hpp:77] Creating layer mnist
I0210 21:17:23.233017 28539 net.cpp:106] Creating Layer mnist
I0210 21:17:23.233031 28539 net.cpp:411] mnist -> data
I0210 21:17:23.233044 28539 net.cpp:411] mnist -> label
I0210 21:17:23.237805 28545 db_lmdb.cpp:38] Opened lmdb examples/mnist/mnist_test_lmdb
I0210 21:17:23.238126 28539 data_layer.cpp:41] output data size: 100,1,28,28
I0210 21:17:23.239591 28539 net.cpp:150] Setting up mnist
I0210 21:17:23.239608 28539 net.cpp:157] Top shape: 100 1 28 28 (78400)
I0210 21:17:23.239614 28539 net.cpp:157] Top shape: 100 (100)
I0210 21:17:23.239622 28539 net.cpp:165] Memory required for data: 314000
I0210 21:17:23.239629 28539 layer_factory.hpp:77] Creating layer label_mnist_1_split
I0210 21:17:23.239642 28539 net.cpp:106] Creating Layer label_mnist_1_split
I0210 21:17:23.239648 28539 net.cpp:454] label_mnist_1_split <- label
I0210 21:17:23.239657 28539 net.cpp:411] label_mnist_1_split -> label_mnist_1_split_0
I0210 21:17:23.239672 28539 net.cpp:411] label_mnist_1_split -> label_mnist_1_split_1
I0210 21:17:23.239763 28539 net.cpp:150] Setting up label_mnist_1_split
I0210 21:17:23.239779 28539 net.cpp:157] Top shape: 100 (100)
I0210 21:17:23.239791 28539 net.cpp:157] Top shape: 100 (100)
I0210 21:17:23.239797 28539 net.cpp:165] Memory required for data: 314800
I0210 21:17:23.239802 28539 layer_factory.hpp:77] Creating layer conv1
I0210 21:17:23.239820 28539 net.cpp:106] Creating Layer conv1
I0210 21:17:23.239827 28539 net.cpp:454] conv1 <- data
I0210 21:17:23.239845 28539 net.cpp:411] conv1 -> conv1
I0210 21:17:23.240089 28539 net.cpp:150] Setting up conv1
I0210 21:17:23.240103 28539 net.cpp:157] Top shape: 100 20 24 24 (1152000)
I0210 21:17:23.240108 28539 net.cpp:165] Memory required for data: 4922800
I0210 21:17:23.240120 28539 layer_factory.hpp:77] Creating layer pool1
I0210 21:17:23.240134 28539 net.cpp:106] Creating Layer pool1
I0210 21:17:23.240139 28539 net.cpp:454] pool1 <- conv1
I0210 21:17:23.240164 28539 net.cpp:411] pool1 -> pool1
I0210 21:17:23.240320 28539 net.cpp:150] Setting up pool1
I0210 21:17:23.240334 28539 net.cpp:157] Top shape: 100 20 12 12 (288000)
I0210 21:17:23.240339 28539 net.cpp:165] Memory required for data: 6074800
I0210 21:17:23.240345 28539 layer_factory.hpp:77] Creating layer conv2
I0210 21:17:23.240357 28539 net.cpp:106] Creating Layer conv2
I0210 21:17:23.240363 28539 net.cpp:454] conv2 <- pool1
I0210 21:17:23.240375 28539 net.cpp:411] conv2 -> conv2
I0210 21:17:23.240809 28539 net.cpp:150] Setting up conv2
I0210 21:17:23.240821 28539 net.cpp:157] Top shape: 100 50 8 8 (320000)
I0210 21:17:23.240826 28539 net.cpp:165] Memory required for data: 7354800
I0210 21:17:23.240836 28539 layer_factory.hpp:77] Creating layer pool2
I0210 21:17:23.240854 28539 net.cpp:106] Creating Layer pool2
I0210 21:17:23.240862 28539 net.cpp:454] pool2 <- conv2
I0210 21:17:23.240870 28539 net.cpp:411] pool2 -> pool2
I0210 21:17:23.241041 28539 net.cpp:150] Setting up pool2
I0210 21:17:23.241057 28539 net.cpp:157] Top shape: 100 50 4 4 (80000)
I0210 21:17:23.241063 28539 net.cpp:165] Memory required for data: 7674800
I0210 21:17:23.241070 28539 layer_factory.hpp:77] Creating layer ip1
I0210 21:17:23.241078 28539 net.cpp:106] Creating Layer ip1
I0210 21:17:23.241085 28539 net.cpp:454] ip1 <- pool2
I0210 21:17:23.241096 28539 net.cpp:411] ip1 -> ip1
I0210 21:17:23.247612 28539 net.cpp:150] Setting up ip1
I0210 21:17:23.247638 28539 net.cpp:157] Top shape: 100 500 (50000)
I0210 21:17:23.247647 28539 net.cpp:165] Memory required for data: 7874800
I0210 21:17:23.247665 28539 layer_factory.hpp:77] Creating layer relu1
I0210 21:17:23.247684 28539 net.cpp:106] Creating Layer relu1
I0210 21:17:23.247694 28539 net.cpp:454] relu1 <- ip1
I0210 21:17:23.247712 28539 net.cpp:397] relu1 -> ip1 (in-place)
I0210 21:17:23.247730 28539 net.cpp:150] Setting up relu1
I0210 21:17:23.247742 28539 net.cpp:157] Top shape: 100 500 (50000)
I0210 21:17:23.247751 28539 net.cpp:165] Memory required for data: 8074800
I0210 21:17:23.247759 28539 layer_factory.hpp:77] Creating layer ip2
I0210 21:17:23.247777 28539 net.cpp:106] Creating Layer ip2
I0210 21:17:23.247787 28539 net.cpp:454] ip2 <- ip1
I0210 21:17:23.247805 28539 net.cpp:411] ip2 -> ip2
I0210 21:17:23.248078 28539 net.cpp:150] Setting up ip2
I0210 21:17:23.248098 28539 net.cpp:157] Top shape: 100 10 (1000)
I0210 21:17:23.248108 28539 net.cpp:165] Memory required for data: 8078800
I0210 21:17:23.248123 28539 layer_factory.hpp:77] Creating layer ip2_ip2_0_split
I0210 21:17:23.248138 28539 net.cpp:106] Creating Layer ip2_ip2_0_split
I0210 21:17:23.248148 28539 net.cpp:454] ip2_ip2_0_split <- ip2
I0210 21:17:23.248162 28539 net.cpp:411] ip2_ip2_0_split -> ip2_ip2_0_split_0
I0210 21:17:23.248177 28539 net.cpp:411] ip2_ip2_0_split -> ip2_ip2_0_split_1
I0210 21:17:23.248244 28539 net.cpp:150] Setting up ip2_ip2_0_split
I0210 21:17:23.248260 28539 net.cpp:157] Top shape: 100 10 (1000)
I0210 21:17:23.248271 28539 net.cpp:157] Top shape: 100 10 (1000)
I0210 21:17:23.248281 28539 net.cpp:165] Memory required for data: 8086800
I0210 21:17:23.248291 28539 layer_factory.hpp:77] Creating layer accuracy
I0210 21:17:23.248316 28539 net.cpp:106] Creating Layer accuracy
I0210 21:17:23.248327 28539 net.cpp:454] accuracy <- ip2_ip2_0_split_0
I0210 21:17:23.248338 28539 net.cpp:454] accuracy <- label_mnist_1_split_0
I0210 21:17:23.248353 28539 net.cpp:411] accuracy -> accuracy
…
