…
I0210 21:17:12.222295 28530 net.cpp:322] The NetState phase (0) differed from the phase (1) specified by a rule in layer mnist
I0210 21:17:12.222348 28530 net.cpp:322] The NetState phase (0) differed from the phase (1) specified by a rule in layer accuracy
I0210 21:17:12.222615 28530 net.cpp:49] Initializing net from parameters: 
name: "LeNet"
state {
  phase: TRAIN
}
layer {
  name: "mnist"
  type: "Data"
  top: "data"
  top: "label"
  include {
    phase: TRAIN
  }
  transform_param {
    scale: 0.00390625
  }
  data_param {
    source: "examples/mnist/mnist_train_lmdb"
    batch_size: 64
    backend: LMDB
  }
}
layer {
  name: "conv1"
  type: "Convolution"
  bottom: "data"
  top: "conv1"
  param {
    lr_mult: 1
  }
  param {
    lr_mult: 2
  }
  convolution_param {
    num_output: 20
    kernel_size: 5
    stride: 1
    weight_filler {
      type: "xavier"
    }
    bias_filler {
      type: "constant"
    }
  }
}
layer {
  name: "pool1"
  type: "Pooling"
  bottom: "conv1"
  top: "pool1"
  pooling_param {
    pool: MAX
    kernel_size: 2
    stride: 2
  }
}
layer {
  name: "conv2"
  type: "Convolution"
  bottom: "pool1"
  top: "conv2"
  param {
    lr_mult: 1
  }
  param {
    lr_mult: 2
  }
  convolution_param {
    num_output: 50
    kernel_size: 5
    stride: 1
    weight_filler {
      type: "xavier"
    }
    bias_filler {
      type: "constant"
    }
  }
}
layer {
  name: "pool2"
  type: "Pooling"
  bottom: "conv2"
  top: "pool2"
  pooling_param {
    pool: MAX
    kernel_size: 2
    stride: 2
  }
}
layer {
  name: "ip1"
  type: "InnerProduct"
  bottom: "pool2"
  top: "ip1"
  param {
    lr_mult: 1
  }
  param {
    lr_mult: 2
  }
  inner_product_param {
    num_output: 500
    weight_filler {
      type: "xavier"
    }
    bias_filler {
      type: "constant"
    }
  }
}
layer {
  name: "relu1"
  type: "ReLU"
  bottom: "ip1"
  top: "ip1"
}
layer {
  name: "ip2"
  type: "InnerProduct"
  bottom: "ip1"
  top: "ip2"
  param {
    lr_mult: 1
  }
  param {
    lr_mult: 2
  }
  inner_product_param {
    num_output: 10
    weight_filler {
      type: "xavier"
    }
    bias_filler {
      type: "constant"
    }
  }
}
layer {
  name: "loss"
  type: "SoftmaxWithLoss"
  bottom: "ip2"
  bottom: "label"
  top: "loss"
}
I0210 21:17:12.222800 28530 layer_factory.hpp:77] Creating layer mnist
I0210 21:17:12.224444 28530 net.cpp:106] Creating Layer mnist
I0210 21:17:12.224493 28530 net.cpp:411] mnist -> data
I0210 21:17:12.224637 28530 net.cpp:411] mnist -> label
I0210 21:17:12.231823 28534 db_lmdb.cpp:38] Opened lmdb examples/mnist/mnist_train_lmdb
I0210 21:17:12.272872 28530 data_layer.cpp:41] output data size: 64,1,28,28
I0210 21:17:12.275029 28530 net.cpp:150] Setting up mnist
I0210 21:17:12.275054 28530 net.cpp:157] Top shape: 64 1 28 28 (50176)
I0210 21:17:12.275063 28530 net.cpp:157] Top shape: 64 (64)
I0210 21:17:12.275066 28530 net.cpp:165] Memory required for data: 200960
I0210 21:17:12.275082 28530 layer_factory.hpp:77] Creating layer conv1
I0210 21:17:12.275135 28530 net.cpp:106] Creating Layer conv1
I0210 21:17:12.275149 28530 net.cpp:454] conv1 <- data
I0210 21:17:12.275173 28530 net.cpp:411] conv1 -> conv1
I0210 21:17:12.276646 28530 net.cpp:150] Setting up conv1
I0210 21:17:12.276662 28530 net.cpp:157] Top shape: 64 20 24 24 (737280)
I0210 21:17:12.276667 28530 net.cpp:165] Memory required for data: 3150080
I0210 21:17:12.276684 28530 layer_factory.hpp:77] Creating layer pool1
I0210 21:17:12.276698 28530 net.cpp:106] Creating Layer pool1
I0210 21:17:12.276705 28530 net.cpp:454] pool1 <- conv1
I0210 21:17:12.276721 28530 net.cpp:411] pool1 -> pool1
I0210 21:17:12.276938 28530 net.cpp:150] Setting up pool1
I0210 21:17:12.276952 28530 net.cpp:157] Top shape: 64 20 12 12 (184320)
I0210 21:17:12.276957 28530 net.cpp:165] Memory required for data: 3887360
I0210 21:17:12.276963 28530 layer_factory.hpp:77] Creating layer conv2
I0210 21:17:12.276978 28530 net.cpp:106] Creating Layer conv2
I0210 21:17:12.276985 28530 net.cpp:454] conv2 <- pool1
I0210 21:17:12.276994 28530 net.cpp:411] conv2 -> conv2
I0210 21:17:12.277426 28530 net.cpp:150] Setting up conv2
I0210 21:17:12.277439 28530 net.cpp:157] Top shape: 64 50 8 8 (204800)
I0210 21:17:12.277446 28530 net.cpp:165] Memory required for data: 4706560
I0210 21:17:12.277456 28530 layer_factory.hpp:77] Creating layer pool2
I0210 21:17:12.277467 28530 net.cpp:106] Creating Layer pool2
I0210 21:17:12.277472 28530 net.cpp:454] pool2 <- conv2
I0210 21:17:12.277483 28530 net.cpp:411] pool2 -> pool2
I0210 21:17:12.277673 28530 net.cpp:150] Setting up pool2
I0210 21:17:12.277685 28530 net.cpp:157] Top shape: 64 50 4 4 (51200)
I0210 21:17:12.277690 28530 net.cpp:165] Memory required for data: 4911360
I0210 21:17:12.277695 28530 layer_factory.hpp:77] Creating layer ip1
I0210 21:17:12.277724 28530 net.cpp:106] Creating Layer ip1
I0210 21:17:12.277730 28530 net.cpp:454] ip1 <- pool2
I0210 21:17:12.277740 28530 net.cpp:411] ip1 -> ip1
I0210 21:17:12.283051 28530 net.cpp:150] Setting up ip1
I0210 21:17:12.283066 28530 net.cpp:157] Top shape: 64 500 (32000)
I0210 21:17:12.283071 28530 net.cpp:165] Memory required for data: 5039360
I0210 21:17:12.283082 28530 layer_factory.hpp:77] Creating layer relu1
I0210 21:17:12.283094 28530 net.cpp:106] Creating Layer relu1
I0210 21:17:12.283102 28530 net.cpp:454] relu1 <- ip1
I0210 21:17:12.283110 28530 net.cpp:397] relu1 -> ip1 (in-place)
I0210 21:17:12.283123 28530 net.cpp:150] Setting up relu1
I0210 21:17:12.283131 28530 net.cpp:157] Top shape: 64 500 (32000)
I0210 21:17:12.283136 28530 net.cpp:165] Memory required for data: 5167360
I0210 21:17:12.283141 28530 layer_factory.hpp:77] Creating layer ip2
I0210 21:17:12.283151 28530 net.cpp:106] Creating Layer ip2
I0210 21:17:12.283157 28530 net.cpp:454] ip2 <- ip1
I0210 21:17:12.283169 28530 net.cpp:411] ip2 -> ip2
I0210 21:17:12.284343 28530 net.cpp:150] Setting up ip2
I0210 21:17:12.284358 28530 net.cpp:157] Top shape: 64 10 (640)
I0210 21:17:12.284363 28530 net.cpp:165] Memory required for data: 5169920
I0210 21:17:12.284370 28530 layer_factory.hpp:77] Creating layer loss
I0210 21:17:12.284384 28530 net.cpp:106] Creating Layer loss
I0210 21:17:12.284390 28530 net.cpp:454] loss <- ip2
I0210 21:17:12.284399 28530 net.cpp:454] loss <- label
I0210 21:17:12.284411 28530 net.cpp:411] loss -> loss
I0210 21:17:12.284431 28530 layer_factory.hpp:77] Creating layer loss
…
I0210 21:17:12.503540 28530 solver.cpp:181] Creating test net (#0) specified by net file: examples/mnist/lenet_train_test.prototxt
I0210 21:17:12.503672 28530 net.cpp:322] The NetState phase (1) differed from the phase (0) specified by a rule in layer mnist
I0210 21:17:12.504084 28530 net.cpp:49] Initializing net from parameters: 
name: "LeNet"
state {
  phase: TEST
}
layer {
  name: "mnist"
  type: "Data"
  top: "data"
  top: "label"
  include {
    phase: TEST
  }
  transform_param {
    scale: 0.00390625
  }
  data_param {
    source: "examples/mnist/mnist_test_lmdb"
    batch_size: 100
    backend: LMDB
  }
}
layer {
  name: "conv1"
  type: "Convolution"
  bottom: "data"
  top: "conv1"
  param {
    lr_mult: 1
  }
  param {
    lr_mult: 2
  }
  convolution_param {
    num_output: 20
    kernel_size: 5
    stride: 1
    weight_filler {
      type: "xavier"
    }
    bias_filler {
      type: "constant"
    }
  }
}
layer {
  name: "pool1"
  type: "Pooling"
  bottom: "conv1"
  top: "pool1"
  pooling_param {
    pool: MAX
    kernel_size: 2
    stride: 2
  }
}
layer {
  name: "conv2"
  type: "Convolution"
  bottom: "pool1"
  top: "conv2"
  param {
    lr_mult: 1
  }
  param {
    lr_mult: 2
  }
  convolution_param {
    num_output: 50
    kernel_size: 5
    stride: 1
    weight_filler {
      type: "xavier"
    }
    bias_filler {
      type: "constant"
    }
  }
}
layer {
  name: "pool2"
  type: "Pooling"
  bottom: "conv2"
  top: "pool2"
  pooling_param {
    pool: MAX
    kernel_size: 2
    stride: 2
  }
}
layer {
  name: "ip1"
  type: "InnerProduct"
  bottom: "pool2"
  top: "ip1"
  param {
    lr_mult: 1
  }
  param {
    lr_mult: 2
  }
  inner_product_param {
    num_output: 500
    weight_filler {
      type: "xavier"
    }
    bias_filler {
      type: "constant"
    }
  }
}
layer {
  name: "relu1"
  type: "ReLU"
  bottom: "ip1"
  top: "ip1"
}
layer {
  name: "ip2"
  type: "InnerProduct"
  bottom: "ip1"
  top: "ip2"
  param {
    lr_mult: 1
  }
  param {
    lr_mult: 2
  }
  inner_product_param {
    num_output: 10
    weight_filler {
      type: "xavier"
    }
    bias_filler {
      type: "constant"
    }
  }
}
layer {
  name: "accuracy"
  type: "Accuracy"
  bottom: "ip2"
  bottom: "label"
  top: "accuracy"
  include {
    phase: TEST
  }
}
layer {
  name: "loss"
  type: "SoftmaxWithLoss"
  bottom: "ip2"
  bottom: "label"
  top: "loss"
}
I0210 21:17:12.504309 28530 layer_factory.hpp:77] Creating layer mnist
I0210 21:17:12.504650 28530 net.cpp:106] Creating Layer mnist
I0210 21:17:12.504680 28530 net.cpp:411] mnist -> data
I0210 21:17:12.504916 28530 net.cpp:411] mnist -> label
I0210 21:17:12.512027 28536 db_lmdb.cpp:38] Opened lmdb examples/mnist/mnist_test_lmdb
I0210 21:17:12.523969 28530 data_layer.cpp:41] output data size: 100,1,28,28
I0210 21:17:12.525841 28530 net.cpp:150] Setting up mnist
I0210 21:17:12.525858 28530 net.cpp:157] Top shape: 100 1 28 28 (78400)
I0210 21:17:12.525866 28530 net.cpp:157] Top shape: 100 (100)
I0210 21:17:12.525869 28530 net.cpp:165] Memory required for data: 314000
I0210 21:17:12.525876 28530 layer_factory.hpp:77] Creating layer label_mnist_1_split
I0210 21:17:12.525894 28530 net.cpp:106] Creating Layer label_mnist_1_split
I0210 21:17:12.525903 28530 net.cpp:454] label_mnist_1_split <- label
I0210 21:17:12.525913 28530 net.cpp:411] label_mnist_1_split -> label_mnist_1_split_0
I0210 21:17:12.525924 28530 net.cpp:411] label_mnist_1_split -> label_mnist_1_split_1
I0210 21:17:12.526087 28530 net.cpp:150] Setting up label_mnist_1_split
I0210 21:17:12.526098 28530 net.cpp:157] Top shape: 100 (100)
I0210 21:17:12.526106 28530 net.cpp:157] Top shape: 100 (100)
I0210 21:17:12.526111 28530 net.cpp:165] Memory required for data: 314800
I0210 21:17:12.526118 28530 layer_factory.hpp:77] Creating layer conv1
I0210 21:17:12.526135 28530 net.cpp:106] Creating Layer conv1
I0210 21:17:12.526142 28530 net.cpp:454] conv1 <- data
I0210 21:17:12.526155 28530 net.cpp:411] conv1 -> conv1
I0210 21:17:12.526515 28530 net.cpp:150] Setting up conv1
I0210 21:17:12.526528 28530 net.cpp:157] Top shape: 100 20 24 24 (1152000)
I0210 21:17:12.526535 28530 net.cpp:165] Memory required for data: 4922800
I0210 21:17:12.526548 28530 layer_factory.hpp:77] Creating layer pool1
I0210 21:17:12.526561 28530 net.cpp:106] Creating Layer pool1
I0210 21:17:12.526571 28530 net.cpp:454] pool1 <- conv1
I0210 21:17:12.526595 28530 net.cpp:411] pool1 -> pool1
I0210 21:17:12.526772 28530 net.cpp:150] Setting up pool1
I0210 21:17:12.526784 28530 net.cpp:157] Top shape: 100 20 12 12 (288000)
I0210 21:17:12.526789 28530 net.cpp:165] Memory required for data: 6074800
I0210 21:17:12.526795 28530 layer_factory.hpp:77] Creating layer conv2
I0210 21:17:12.526813 28530 net.cpp:106] Creating Layer conv2
I0210 21:17:12.526823 28530 net.cpp:454] conv2 <- pool1
I0210 21:17:12.526836 28530 net.cpp:411] conv2 -> conv2
I0210 21:17:12.527493 28530 net.cpp:150] Setting up conv2
I0210 21:17:12.527506 28530 net.cpp:157] Top shape: 100 50 8 8 (320000)
I0210 21:17:12.527511 28530 net.cpp:165] Memory required for data: 7354800
I0210 21:17:12.527523 28530 layer_factory.hpp:77] Creating layer pool2
I0210 21:17:12.527537 28530 net.cpp:106] Creating Layer pool2
I0210 21:17:12.527544 28530 net.cpp:454] pool2 <- conv2
I0210 21:17:12.527552 28530 net.cpp:411] pool2 -> pool2
I0210 21:17:12.527717 28530 net.cpp:150] Setting up pool2
I0210 21:17:12.527729 28530 net.cpp:157] Top shape: 100 50 4 4 (80000)
I0210 21:17:12.527734 28530 net.cpp:165] Memory required for data: 7674800
I0210 21:17:12.527740 28530 layer_factory.hpp:77] Creating layer ip1
I0210 21:17:12.527752 28530 net.cpp:106] Creating Layer ip1
I0210 21:17:12.527760 28530 net.cpp:454] ip1 <- pool2
I0210 21:17:12.527776 28530 net.cpp:411] ip1 -> ip1
I0210 21:17:12.533277 28530 net.cpp:150] Setting up ip1
I0210 21:17:12.533290 28530 net.cpp:157] Top shape: 100 500 (50000)
I0210 21:17:12.533295 28530 net.cpp:165] Memory required for data: 7874800
I0210 21:17:12.533308 28530 layer_factory.hpp:77] Creating layer relu1
I0210 21:17:12.533315 28530 net.cpp:106] Creating Layer relu1
I0210 21:17:12.533321 28530 net.cpp:454] relu1 <- ip1
I0210 21:17:12.533329 28530 net.cpp:397] relu1 -> ip1 (in-place)
I0210 21:17:12.533339 28530 net.cpp:150] Setting up relu1
I0210 21:17:12.533346 28530 net.cpp:157] Top shape: 100 500 (50000)
I0210 21:17:12.533351 28530 net.cpp:165] Memory required for data: 8074800
I0210 21:17:12.533356 28530 layer_factory.hpp:77] Creating layer ip2
I0210 21:17:12.533371 28530 net.cpp:106] Creating Layer ip2
I0210 21:17:12.533377 28530 net.cpp:454] ip2 <- ip1
I0210 21:17:12.533390 28530 net.cpp:411] ip2 -> ip2
I0210 21:17:12.533547 28530 net.cpp:150] Setting up ip2
I0210 21:17:12.533558 28530 net.cpp:157] Top shape: 100 10 (1000)
I0210 21:17:12.533562 28530 net.cpp:165] Memory required for data: 8078800
I0210 21:17:12.533571 28530 layer_factory.hpp:77] Creating layer ip2_ip2_0_split
I0210 21:17:12.533579 28530 net.cpp:106] Creating Layer ip2_ip2_0_split
I0210 21:17:12.533584 28530 net.cpp:454] ip2_ip2_0_split <- ip2
I0210 21:17:12.533592 28530 net.cpp:411] ip2_ip2_0_split -> ip2_ip2_0_split_0
I0210 21:17:12.533601 28530 net.cpp:411] ip2_ip2_0_split -> ip2_ip2_0_split_1
I0210 21:17:12.533644 28530 net.cpp:150] Setting up ip2_ip2_0_split
I0210 21:17:12.533653 28530 net.cpp:157] Top shape: 100 10 (1000)
I0210 21:17:12.533660 28530 net.cpp:157] Top shape: 100 10 (1000)
I0210 21:17:12.533665 28530 net.cpp:165] Memory required for data: 8086800
I0210 21:17:12.533671 28530 layer_factory.hpp:77] Creating layer accuracy
I0210 21:17:12.533684 28530 net.cpp:106] Creating Layer accuracy
I0210 21:17:12.533691 28530 net.cpp:454] accuracy <- ip2_ip2_0_split_0
I0210 21:17:12.533697 28530 net.cpp:454] accuracy <- label_mnist_1_split_0
I0210 21:17:12.533709 28530 net.cpp:411] accuracy -> accuracy
…
