…
I0210 21:28:59.313647 29191 net.cpp:322] The NetState phase (0) differed from the phase (1) specified by a rule in layer mnist
I0210 21:28:59.313709 29191 net.cpp:322] The NetState phase (0) differed from the phase (1) specified by a rule in layer accuracy
I0210 21:28:59.313941 29191 net.cpp:49] Initializing net from parameters: 
name: "LeNet"
state {
  phase: TRAIN
}
layer {
  name: "mnist"
  type: "Data"
  top: "data"
  top: "label"
  include {
    phase: TRAIN
  }
  transform_param {
    scale: 0.00390625
  }
  data_param {
    source: "examples/mnist/mnist_train_lmdb"
    batch_size: 18
    backend: LMDB
  }
}
layer {
  name: "conv1"
  type: "Convolution"
  bottom: "data"
  top: "conv1"
  param {
    lr_mult: 1
  }
  param {
    lr_mult: 2
  }
  convolution_param {
    num_output: 20
    kernel_size: 5
    stride: 1
    weight_filler {
      type: "xavier"
    }
    bias_filler {
      type: "constant"
    }
  }
}
layer {
  name: "pool1"
  type: "Pooling"
  bottom: "conv1"
  top: "pool1"
  pooling_param {
    pool: MAX
    kernel_size: 2
    stride: 2
  }
}
layer {
  name: "conv2"
  type: "Convolution"
  bottom: "pool1"
  top: "conv2"
  param {
    lr_mult: 1
  }
  param {
    lr_mult: 2
  }
  convolution_param {
    num_output: 50
    kernel_size: 5
    stride: 1
    weight_filler {
      type: "xavier"
    }
    bias_filler {
      type: "constant"
    }
  }
}
layer {
  name: "pool2"
  type: "Pooling"
  bottom: "conv2"
  top: "pool2"
  pooling_param {
    pool: MAX
    kernel_size: 2
    stride: 2
  }
}
layer {
  name: "ip1"
  type: "InnerProduct"
  bottom: "pool2"
  top: "ip1"
  param {
    lr_mult: 1
  }
  param {
    lr_mult: 2
  }
  inner_product_param {
    num_output: 500
    weight_filler {
      type: "xavier"
    }
    bias_filler {
      type: "constant"
    }
  }
}
layer {
  name: "relu1"
  type: "ReLU"
  bottom: "ip1"
  top: "ip1"
}
layer {
  name: "ip2"
  type: "InnerProduct"
  bottom: "ip1"
  top: "ip2"
  param {
    lr_mult: 1
  }
  param {
    lr_mult: 2
  }
  inner_product_param {
    num_output: 10
    weight_filler {
      type: "xavier"
    }
    bias_filler {
      type: "constant"
    }
  }
}
layer {
  name: "loss"
  type: "SoftmaxWithLoss"
  bottom: "ip2"
  bottom: "label"
  top: "loss"
}
I0210 21:28:59.314082 29191 layer_factory.hpp:77] Creating layer mnist
I0210 21:28:59.315165 29191 net.cpp:106] Creating Layer mnist
I0210 21:28:59.315203 29191 net.cpp:411] mnist -> data
I0210 21:28:59.315302 29191 net.cpp:411] mnist -> label
I0210 21:28:59.320632 29195 db_lmdb.cpp:38] Opened lmdb examples/mnist/mnist_train_lmdb
I0210 21:28:59.340986 29191 data_layer.cpp:41] output data size: 18,1,28,28
I0210 21:28:59.342603 29191 net.cpp:150] Setting up mnist
I0210 21:28:59.342628 29191 net.cpp:157] Top shape: 18 1 28 28 (14112)
I0210 21:28:59.342638 29191 net.cpp:157] Top shape: 18 (18)
I0210 21:28:59.342643 29191 net.cpp:165] Memory required for data: 56520
I0210 21:28:59.342660 29191 layer_factory.hpp:77] Creating layer conv1
I0210 21:28:59.342705 29191 net.cpp:106] Creating Layer conv1
I0210 21:28:59.342716 29191 net.cpp:454] conv1 <- data
I0210 21:28:59.342741 29191 net.cpp:411] conv1 -> conv1
I0210 21:28:59.344022 29191 net.cpp:150] Setting up conv1
I0210 21:28:59.344036 29191 net.cpp:157] Top shape: 18 20 24 24 (207360)
I0210 21:28:59.344041 29191 net.cpp:165] Memory required for data: 885960
I0210 21:28:59.344059 29191 layer_factory.hpp:77] Creating layer pool1
I0210 21:28:59.344076 29191 net.cpp:106] Creating Layer pool1
I0210 21:28:59.344084 29191 net.cpp:454] pool1 <- conv1
I0210 21:28:59.344094 29191 net.cpp:411] pool1 -> pool1
I0210 21:28:59.344301 29191 net.cpp:150] Setting up pool1
I0210 21:28:59.344313 29191 net.cpp:157] Top shape: 18 20 12 12 (51840)
I0210 21:28:59.344317 29191 net.cpp:165] Memory required for data: 1093320
I0210 21:28:59.344322 29191 layer_factory.hpp:77] Creating layer conv2
I0210 21:28:59.344337 29191 net.cpp:106] Creating Layer conv2
I0210 21:28:59.344344 29191 net.cpp:454] conv2 <- pool1
I0210 21:28:59.344355 29191 net.cpp:411] conv2 -> conv2
I0210 21:28:59.345679 29191 net.cpp:150] Setting up conv2
I0210 21:28:59.345695 29191 net.cpp:157] Top shape: 18 50 8 8 (57600)
I0210 21:28:59.345700 29191 net.cpp:165] Memory required for data: 1323720
I0210 21:28:59.345711 29191 layer_factory.hpp:77] Creating layer pool2
I0210 21:28:59.345726 29191 net.cpp:106] Creating Layer pool2
I0210 21:28:59.345732 29191 net.cpp:454] pool2 <- conv2
I0210 21:28:59.345742 29191 net.cpp:411] pool2 -> pool2
I0210 21:28:59.345898 29191 net.cpp:150] Setting up pool2
I0210 21:28:59.345909 29191 net.cpp:157] Top shape: 18 50 4 4 (14400)
I0210 21:28:59.345914 29191 net.cpp:165] Memory required for data: 1381320
I0210 21:28:59.345921 29191 layer_factory.hpp:77] Creating layer ip1
I0210 21:28:59.345937 29191 net.cpp:106] Creating Layer ip1
I0210 21:28:59.345943 29191 net.cpp:454] ip1 <- pool2
I0210 21:28:59.345955 29191 net.cpp:411] ip1 -> ip1
I0210 21:28:59.347295 29196 blocking_queue.cpp:50] Waiting for data
I0210 21:28:59.350481 29191 net.cpp:150] Setting up ip1
I0210 21:28:59.350498 29191 net.cpp:157] Top shape: 18 500 (9000)
I0210 21:28:59.350503 29191 net.cpp:165] Memory required for data: 1417320
I0210 21:28:59.350514 29191 layer_factory.hpp:77] Creating layer relu1
I0210 21:28:59.350525 29191 net.cpp:106] Creating Layer relu1
I0210 21:28:59.350530 29191 net.cpp:454] relu1 <- ip1
I0210 21:28:59.350538 29191 net.cpp:397] relu1 -> ip1 (in-place)
I0210 21:28:59.350550 29191 net.cpp:150] Setting up relu1
I0210 21:28:59.350558 29191 net.cpp:157] Top shape: 18 500 (9000)
I0210 21:28:59.350563 29191 net.cpp:165] Memory required for data: 1453320
I0210 21:28:59.350566 29191 layer_factory.hpp:77] Creating layer ip2
I0210 21:28:59.350579 29191 net.cpp:106] Creating Layer ip2
I0210 21:28:59.350585 29191 net.cpp:454] ip2 <- ip1
I0210 21:28:59.350595 29191 net.cpp:411] ip2 -> ip2
I0210 21:28:59.350757 29191 net.cpp:150] Setting up ip2
I0210 21:28:59.350769 29191 net.cpp:157] Top shape: 18 10 (180)
I0210 21:28:59.350775 29191 net.cpp:165] Memory required for data: 1454040
I0210 21:28:59.350785 29191 layer_factory.hpp:77] Creating layer loss
I0210 21:28:59.350802 29191 net.cpp:106] Creating Layer loss
I0210 21:28:59.350810 29191 net.cpp:454] loss <- ip2
I0210 21:28:59.350817 29191 net.cpp:454] loss <- label
I0210 21:28:59.350826 29191 net.cpp:411] loss -> loss
I0210 21:28:59.350847 29191 layer_factory.hpp:77] Creating layer loss
…
I0210 21:28:59.352308 29191 solver.cpp:181] Creating test net (#0) specified by net file: examples/mnist/lenet_train_test.prototxt
I0210 21:28:59.352354 29191 net.cpp:322] The NetState phase (1) differed from the phase (0) specified by a rule in layer mnist
I0210 21:28:59.352537 29191 net.cpp:49] Initializing net from parameters: 
name: "LeNet"
state {
  phase: TEST
}
layer {
  name: "mnist"
  type: "Data"
  top: "data"
  top: "label"
  include {
    phase: TEST
  }
  transform_param {
    scale: 0.00390625
  }
  data_param {
    source: "examples/mnist/mnist_test_lmdb"
    batch_size: 100
    backend: LMDB
  }
}
layer {
  name: "conv1"
  type: "Convolution"
  bottom: "data"
  top: "conv1"
  param {
    lr_mult: 1
  }
  param {
    lr_mult: 2
  }
  convolution_param {
    num_output: 20
    kernel_size: 5
    stride: 1
    weight_filler {
      type: "xavier"
    }
    bias_filler {
      type: "constant"
    }
  }
}
layer {
  name: "pool1"
  type: "Pooling"
  bottom: "conv1"
  top: "pool1"
  pooling_param {
    pool: MAX
    kernel_size: 2
    stride: 2
  }
}
layer {
  name: "conv2"
  type: "Convolution"
  bottom: "pool1"
  top: "conv2"
  param {
    lr_mult: 1
  }
  param {
    lr_mult: 2
  }
  convolution_param {
    num_output: 50
    kernel_size: 5
    stride: 1
    weight_filler {
      type: "xavier"
    }
    bias_filler {
      type: "constant"
    }
  }
}
layer {
  name: "pool2"
  type: "Pooling"
  bottom: "conv2"
  top: "pool2"
  pooling_param {
    pool: MAX
    kernel_size: 2
    stride: 2
  }
}
layer {
  name: "ip1"
  type: "InnerProduct"
  bottom: "pool2"
  top: "ip1"
  param {
    lr_mult: 1
  }
  param {
    lr_mult: 2
  }
  inner_product_param {
    num_output: 500
    weight_filler {
      type: "xavier"
    }
    bias_filler {
      type: "constant"
    }
  }
}
layer {
  name: "relu1"
  type: "ReLU"
  bottom: "ip1"
  top: "ip1"
}
layer {
  name: "ip2"
  type: "InnerProduct"
  bottom: "ip1"
  top: "ip2"
  param {
    lr_mult: 1
  }
  param {
    lr_mult: 2
  }
  inner_product_param {
    num_output: 10
    weight_filler {
      type: "xavier"
    }
    bias_filler {
      type: "constant"
    }
  }
}
layer {
  name: "accuracy"
  type: "Accuracy"
  bottom: "ip2"
  bottom: "label"
  top: "accuracy"
  include {
    phase: TEST
  }
}
layer {
  name: "loss"
  type: "SoftmaxWithLoss"
  bottom: "ip2"
  bottom: "label"
  top: "loss"
}
I0210 21:28:59.352643 29191 layer_factory.hpp:77] Creating layer mnist
I0210 21:28:59.352800 29191 net.cpp:106] Creating Layer mnist
I0210 21:28:59.352816 29191 net.cpp:411] mnist -> data
I0210 21:28:59.352833 29191 net.cpp:411] mnist -> label
I0210 21:28:59.357903 29197 db_lmdb.cpp:38] Opened lmdb examples/mnist/mnist_test_lmdb
I0210 21:28:59.358243 29191 data_layer.cpp:41] output data size: 100,1,28,28
I0210 21:28:59.359676 29191 net.cpp:150] Setting up mnist
I0210 21:28:59.359694 29191 net.cpp:157] Top shape: 100 1 28 28 (78400)
I0210 21:28:59.359704 29191 net.cpp:157] Top shape: 100 (100)
I0210 21:28:59.359709 29191 net.cpp:165] Memory required for data: 314000
I0210 21:28:59.359715 29191 layer_factory.hpp:77] Creating layer label_mnist_1_split
I0210 21:28:59.359726 29191 net.cpp:106] Creating Layer label_mnist_1_split
I0210 21:28:59.359737 29191 net.cpp:454] label_mnist_1_split <- label
I0210 21:28:59.359755 29191 net.cpp:411] label_mnist_1_split -> label_mnist_1_split_0
I0210 21:28:59.359767 29191 net.cpp:411] label_mnist_1_split -> label_mnist_1_split_1
I0210 21:28:59.359935 29191 net.cpp:150] Setting up label_mnist_1_split
I0210 21:28:59.359946 29191 net.cpp:157] Top shape: 100 (100)
I0210 21:28:59.359952 29191 net.cpp:157] Top shape: 100 (100)
I0210 21:28:59.359957 29191 net.cpp:165] Memory required for data: 314800
I0210 21:28:59.359963 29191 layer_factory.hpp:77] Creating layer conv1
I0210 21:28:59.359980 29191 net.cpp:106] Creating Layer conv1
I0210 21:28:59.359987 29191 net.cpp:454] conv1 <- data
I0210 21:28:59.359997 29191 net.cpp:411] conv1 -> conv1
I0210 21:28:59.360337 29191 net.cpp:150] Setting up conv1
I0210 21:28:59.360350 29191 net.cpp:157] Top shape: 100 20 24 24 (1152000)
I0210 21:28:59.360355 29191 net.cpp:165] Memory required for data: 4922800
I0210 21:28:59.360368 29191 layer_factory.hpp:77] Creating layer pool1
I0210 21:28:59.360381 29191 net.cpp:106] Creating Layer pool1
I0210 21:28:59.360402 29191 net.cpp:454] pool1 <- conv1
I0210 21:28:59.360412 29191 net.cpp:411] pool1 -> pool1
I0210 21:28:59.360566 29191 net.cpp:150] Setting up pool1
I0210 21:28:59.360577 29191 net.cpp:157] Top shape: 100 20 12 12 (288000)
I0210 21:28:59.360584 29191 net.cpp:165] Memory required for data: 6074800
I0210 21:28:59.360587 29191 layer_factory.hpp:77] Creating layer conv2
I0210 21:28:59.360602 29191 net.cpp:106] Creating Layer conv2
I0210 21:28:59.360610 29191 net.cpp:454] conv2 <- pool1
I0210 21:28:59.360620 29191 net.cpp:411] conv2 -> conv2
I0210 21:28:59.361063 29191 net.cpp:150] Setting up conv2
I0210 21:28:59.361075 29191 net.cpp:157] Top shape: 100 50 8 8 (320000)
I0210 21:28:59.361081 29191 net.cpp:165] Memory required for data: 7354800
I0210 21:28:59.361093 29191 layer_factory.hpp:77] Creating layer pool2
I0210 21:28:59.361106 29191 net.cpp:106] Creating Layer pool2
I0210 21:28:59.361111 29191 net.cpp:454] pool2 <- conv2
I0210 21:28:59.361119 29191 net.cpp:411] pool2 -> pool2
I0210 21:28:59.361284 29191 net.cpp:150] Setting up pool2
I0210 21:28:59.361297 29191 net.cpp:157] Top shape: 100 50 4 4 (80000)
I0210 21:28:59.361304 29191 net.cpp:165] Memory required for data: 7674800
I0210 21:28:59.361315 29191 layer_factory.hpp:77] Creating layer ip1
I0210 21:28:59.361326 29191 net.cpp:106] Creating Layer ip1
I0210 21:28:59.361332 29191 net.cpp:454] ip1 <- pool2
I0210 21:28:59.361341 29191 net.cpp:411] ip1 -> ip1
I0210 21:28:59.365860 29191 net.cpp:150] Setting up ip1
I0210 21:28:59.365878 29191 net.cpp:157] Top shape: 100 500 (50000)
I0210 21:28:59.365885 29191 net.cpp:165] Memory required for data: 7874800
I0210 21:28:59.365901 29191 layer_factory.hpp:77] Creating layer relu1
I0210 21:28:59.365911 29191 net.cpp:106] Creating Layer relu1
I0210 21:28:59.365919 29191 net.cpp:454] relu1 <- ip1
I0210 21:28:59.365932 29191 net.cpp:397] relu1 -> ip1 (in-place)
I0210 21:28:59.365943 29191 net.cpp:150] Setting up relu1
I0210 21:28:59.365950 29191 net.cpp:157] Top shape: 100 500 (50000)
I0210 21:28:59.365955 29191 net.cpp:165] Memory required for data: 8074800
I0210 21:28:59.365962 29191 layer_factory.hpp:77] Creating layer ip2
I0210 21:28:59.365972 29191 net.cpp:106] Creating Layer ip2
I0210 21:28:59.365977 29191 net.cpp:454] ip2 <- ip1
I0210 21:28:59.365988 29191 net.cpp:411] ip2 -> ip2
I0210 21:28:59.366152 29191 net.cpp:150] Setting up ip2
I0210 21:28:59.366163 29191 net.cpp:157] Top shape: 100 10 (1000)
I0210 21:28:59.366168 29191 net.cpp:165] Memory required for data: 8078800
I0210 21:28:59.366178 29191 layer_factory.hpp:77] Creating layer ip2_ip2_0_split
I0210 21:28:59.366189 29191 net.cpp:106] Creating Layer ip2_ip2_0_split
I0210 21:28:59.366195 29191 net.cpp:454] ip2_ip2_0_split <- ip2
I0210 21:28:59.366204 29191 net.cpp:411] ip2_ip2_0_split -> ip2_ip2_0_split_0
I0210 21:28:59.366214 29191 net.cpp:411] ip2_ip2_0_split -> ip2_ip2_0_split_1
I0210 21:28:59.366263 29191 net.cpp:150] Setting up ip2_ip2_0_split
I0210 21:28:59.366273 29191 net.cpp:157] Top shape: 100 10 (1000)
I0210 21:28:59.366281 29191 net.cpp:157] Top shape: 100 10 (1000)
I0210 21:28:59.366286 29191 net.cpp:165] Memory required for data: 8086800
I0210 21:28:59.366291 29191 layer_factory.hpp:77] Creating layer accuracy
I0210 21:28:59.366308 29191 net.cpp:106] Creating Layer accuracy
I0210 21:28:59.366314 29191 net.cpp:454] accuracy <- ip2_ip2_0_split_0
I0210 21:28:59.366322 29191 net.cpp:454] accuracy <- label_mnist_1_split_0
I0210 21:28:59.366329 29191 net.cpp:411] accuracy -> accuracy
…
