…
I0210 21:23:01.012851 28707 net.cpp:322] The NetState phase (0) differed from the phase (1) specified by a rule in layer mnist
I0210 21:23:01.012887 28707 net.cpp:322] The NetState phase (0) differed from the phase (1) specified by a rule in layer accuracy
I0210 21:23:01.013146 28707 net.cpp:49] Initializing net from parameters: 
name: "LeNet"
state {
  phase: TRAIN
}
layer {
  name: "mnist"
  type: "Data"
  top: "data"
  top: "label"
  include {
    phase: TRAIN
  }
  transform_param {
    scale: 0.00390625
  }
  data_param {
    source: "examples/mnist/mnist_train_lmdb"
    batch_size: 64
    backend: LMDB
  }
}
layer {
  name: "conv1"
  type: "Convolution"
  bottom: "data"
  top: "conv1"
  param {
    lr_mult: 1
  }
  param {
    lr_mult: 2
  }
  convolution_param {
    num_output: 20
    kernel_size: 5
    stride: 1
    weight_filler {
      type: "xavier"
    }
    bias_filler {
      type: "constant"
    }
  }
}
layer {
  name: "pool1"
  type: "Pooling"
  bottom: "conv1"
  top: "pool1"
  pooling_param {
    pool: MAX
    kernel_size: 2
    stride: 2
  }
}
layer {
  name: "conv2"
  type: "Convolution"
  bottom: "pool1"
  top: "conv2"
  param {
    lr_mult: 1
  }
  param {
    lr_mult: 2
  }
  convolution_param {
    num_output: 50
    kernel_size: 5
    stride: 1
    weight_filler {
      type: "xavier"
    }
    bias_filler {
      type: "constant"
    }
  }
}
layer {
  name: "pool2"
  type: "Pooling"
  bottom: "conv2"
  top: "pool2"
  pooling_param {
    pool: MAX
    kernel_size: 2
    stride: 2
  }
}
layer {
  name: "ip1"
  type: "InnerProduct"
  bottom: "pool2"
  top: "ip1"
  param {
    lr_mult: 1
  }
  param {
    lr_mult: 2
  }
  inner_product_param {
    num_output: 500
    weight_filler {
      type: "xavier"
    }
    bias_filler {
      type: "constant"
    }
  }
}
layer {
  name: "relu1"
  type: "ReLU"
  bottom: "ip1"
  top: "ip1"
}
layer {
  name: "ip2"
  type: "InnerProduct"
  bottom: "ip1"
  top: "ip2"
  param {
    lr_mult: 1
  }
  param {
    lr_mult: 2
  }
  inner_product_param {
    num_output: 10
    weight_filler {
      type: "xavier"
    }
    bias_filler {
      type: "constant"
    }
  }
}
layer {
  name: "loss"
  type: "SoftmaxWithLoss"
  bottom: "ip2"
  bottom: "label"
  top: "loss"
}
I0210 21:23:01.013332 28707 layer_factory.hpp:77] Creating layer mnist
I0210 21:23:01.014727 28707 net.cpp:106] Creating Layer mnist
I0210 21:23:01.014750 28707 net.cpp:411] mnist -> data
I0210 21:23:01.014853 28707 net.cpp:411] mnist -> label
I0210 21:23:01.020524 28711 db_lmdb.cpp:38] Opened lmdb examples/mnist/mnist_train_lmdb
I0210 21:23:01.038197 28707 data_layer.cpp:41] output data size: 64,1,28,28
I0210 21:23:01.039721 28707 net.cpp:150] Setting up mnist
I0210 21:23:01.039748 28707 net.cpp:157] Top shape: 64 1 28 28 (50176)
I0210 21:23:01.039758 28707 net.cpp:157] Top shape: 64 (64)
I0210 21:23:01.039763 28707 net.cpp:165] Memory required for data: 200960
I0210 21:23:01.039783 28707 layer_factory.hpp:77] Creating layer conv1
I0210 21:23:01.039811 28707 net.cpp:106] Creating Layer conv1
I0210 21:23:01.039824 28707 net.cpp:454] conv1 <- data
I0210 21:23:01.039844 28707 net.cpp:411] conv1 -> conv1
I0210 21:23:01.041353 28707 net.cpp:150] Setting up conv1
I0210 21:23:01.041369 28707 net.cpp:157] Top shape: 64 20 24 24 (737280)
I0210 21:23:01.041374 28707 net.cpp:165] Memory required for data: 3150080
I0210 21:23:01.041391 28707 layer_factory.hpp:77] Creating layer pool1
I0210 21:23:01.041409 28707 net.cpp:106] Creating Layer pool1
I0210 21:23:01.041415 28707 net.cpp:454] pool1 <- conv1
I0210 21:23:01.041426 28707 net.cpp:411] pool1 -> pool1
I0210 21:23:01.041664 28707 net.cpp:150] Setting up pool1
I0210 21:23:01.041678 28707 net.cpp:157] Top shape: 64 20 12 12 (184320)
I0210 21:23:01.041683 28707 net.cpp:165] Memory required for data: 3887360
I0210 21:23:01.041690 28707 layer_factory.hpp:77] Creating layer conv2
I0210 21:23:01.041709 28707 net.cpp:106] Creating Layer conv2
I0210 21:23:01.041720 28707 net.cpp:454] conv2 <- pool1
I0210 21:23:01.041733 28707 net.cpp:411] conv2 -> conv2
I0210 21:23:01.042171 28707 net.cpp:150] Setting up conv2
I0210 21:23:01.042184 28707 net.cpp:157] Top shape: 64 50 8 8 (204800)
I0210 21:23:01.042189 28707 net.cpp:165] Memory required for data: 4706560
I0210 21:23:01.042201 28707 layer_factory.hpp:77] Creating layer pool2
I0210 21:23:01.042217 28707 net.cpp:106] Creating Layer pool2
I0210 21:23:01.042223 28707 net.cpp:454] pool2 <- conv2
I0210 21:23:01.042232 28707 net.cpp:411] pool2 -> pool2
I0210 21:23:01.042390 28707 net.cpp:150] Setting up pool2
I0210 21:23:01.042402 28707 net.cpp:157] Top shape: 64 50 4 4 (51200)
I0210 21:23:01.042407 28707 net.cpp:165] Memory required for data: 4911360
I0210 21:23:01.042413 28707 layer_factory.hpp:77] Creating layer ip1
I0210 21:23:01.042429 28707 net.cpp:106] Creating Layer ip1
I0210 21:23:01.042436 28707 net.cpp:454] ip1 <- pool2
I0210 21:23:01.042448 28707 net.cpp:411] ip1 -> ip1
I0210 21:23:01.044819 28712 blocking_queue.cpp:50] Waiting for data
I0210 21:23:01.048030 28707 net.cpp:150] Setting up ip1
I0210 21:23:01.048048 28707 net.cpp:157] Top shape: 64 500 (32000)
I0210 21:23:01.048053 28707 net.cpp:165] Memory required for data: 5039360
I0210 21:23:01.048068 28707 layer_factory.hpp:77] Creating layer relu1
I0210 21:23:01.048077 28707 net.cpp:106] Creating Layer relu1
I0210 21:23:01.048084 28707 net.cpp:454] relu1 <- ip1
I0210 21:23:01.048091 28707 net.cpp:397] relu1 -> ip1 (in-place)
I0210 21:23:01.048104 28707 net.cpp:150] Setting up relu1
I0210 21:23:01.048110 28707 net.cpp:157] Top shape: 64 500 (32000)
I0210 21:23:01.048116 28707 net.cpp:165] Memory required for data: 5167360
I0210 21:23:01.048120 28707 layer_factory.hpp:77] Creating layer ip2
I0210 21:23:01.048131 28707 net.cpp:106] Creating Layer ip2
I0210 21:23:01.048137 28707 net.cpp:454] ip2 <- ip1
I0210 21:23:01.048149 28707 net.cpp:411] ip2 -> ip2
I0210 21:23:01.049233 28707 net.cpp:150] Setting up ip2
I0210 21:23:01.049247 28707 net.cpp:157] Top shape: 64 10 (640)
I0210 21:23:01.049252 28707 net.cpp:165] Memory required for data: 5169920
I0210 21:23:01.049263 28707 layer_factory.hpp:77] Creating layer loss
I0210 21:23:01.049281 28707 net.cpp:106] Creating Layer loss
I0210 21:23:01.049293 28707 net.cpp:454] loss <- ip2
I0210 21:23:01.049304 28707 net.cpp:454] loss <- label
I0210 21:23:01.049326 28707 net.cpp:411] loss -> loss
I0210 21:23:01.049357 28707 layer_factory.hpp:77] Creating layer loss
…
I0210 21:23:01.050730 28707 solver.cpp:181] Creating test net (#0) specified by net file: examples/mnist/lenet_train_test.prototxt
I0210 21:23:01.050770 28707 net.cpp:322] The NetState phase (1) differed from the phase (0) specified by a rule in layer mnist
I0210 21:23:01.050947 28707 net.cpp:49] Initializing net from parameters: 
name: "LeNet"
state {
  phase: TEST
}
layer {
  name: "mnist"
  type: "Data"
  top: "data"
  top: "label"
  include {
    phase: TEST
  }
  transform_param {
    scale: 0.00390625
  }
  data_param {
    source: "examples/mnist/mnist_test_lmdb"
    batch_size: 100
    backend: LMDB
  }
}
layer {
  name: "conv1"
  type: "Convolution"
  bottom: "data"
  top: "conv1"
  param {
    lr_mult: 1
  }
  param {
    lr_mult: 2
  }
  convolution_param {
    num_output: 20
    kernel_size: 5
    stride: 1
    weight_filler {
      type: "xavier"
    }
    bias_filler {
      type: "constant"
    }
  }
}
layer {
  name: "pool1"
  type: "Pooling"
  bottom: "conv1"
  top: "pool1"
  pooling_param {
    pool: MAX
    kernel_size: 2
    stride: 2
  }
}
layer {
  name: "conv2"
  type: "Convolution"
  bottom: "pool1"
  top: "conv2"
  param {
    lr_mult: 1
  }
  param {
    lr_mult: 2
  }
  convolution_param {
    num_output: 50
    kernel_size: 5
    stride: 1
    weight_filler {
      type: "xavier"
    }
    bias_filler {
      type: "constant"
    }
  }
}
layer {
  name: "pool2"
  type: "Pooling"
  bottom: "conv2"
  top: "pool2"
  pooling_param {
    pool: MAX
    kernel_size: 2
    stride: 2
  }
}
layer {
  name: "ip1"
  type: "InnerProduct"
  bottom: "pool2"
  top: "ip1"
  param {
    lr_mult: 1
  }
  param {
    lr_mult: 2
  }
  inner_product_param {
    num_output: 500
    weight_filler {
      type: "xavier"
    }
    bias_filler {
      type: "constant"
    }
  }
}
layer {
  name: "relu1"
  type: "ReLU"
  bottom: "ip1"
  top: "ip1"
}
layer {
  name: "ip2"
  type: "InnerProduct"
  bottom: "ip1"
  top: "ip2"
  param {
    lr_mult: 1
  }
  param {
    lr_mult: 2
  }
  inner_product_param {
    num_output: 10
    weight_filler {
      type: "xavier"
    }
    bias_filler {
      type: "constant"
    }
  }
}
layer {
  name: "accuracy"
  type: "Accuracy"
  bottom: "ip2"
  bottom: "label"
  top: "accuracy"
  include {
    phase: TEST
  }
}
layer {
  name: "loss"
  type: "SoftmaxWithLoss"
  bottom: "ip2"
  bottom: "label"
  top: "loss"
}
I0210 21:23:01.051049 28707 layer_factory.hpp:77] Creating layer mnist
I0210 21:23:01.051184 28707 net.cpp:106] Creating Layer mnist
I0210 21:23:01.051200 28707 net.cpp:411] mnist -> data
I0210 21:23:01.051213 28707 net.cpp:411] mnist -> label
I0210 21:23:01.055028 28713 db_lmdb.cpp:38] Opened lmdb examples/mnist/mnist_test_lmdb
I0210 21:23:01.055369 28707 data_layer.cpp:41] output data size: 100,1,28,28
I0210 21:23:01.057241 28707 net.cpp:150] Setting up mnist
I0210 21:23:01.057261 28707 net.cpp:157] Top shape: 100 1 28 28 (78400)
I0210 21:23:01.057270 28707 net.cpp:157] Top shape: 100 (100)
I0210 21:23:01.057274 28707 net.cpp:165] Memory required for data: 314000
I0210 21:23:01.057281 28707 layer_factory.hpp:77] Creating layer label_mnist_1_split
I0210 21:23:01.057317 28707 net.cpp:106] Creating Layer label_mnist_1_split
I0210 21:23:01.057328 28707 net.cpp:454] label_mnist_1_split <- label
I0210 21:23:01.057340 28707 net.cpp:411] label_mnist_1_split -> label_mnist_1_split_0
I0210 21:23:01.057353 28707 net.cpp:411] label_mnist_1_split -> label_mnist_1_split_1
I0210 21:23:01.057420 28707 net.cpp:150] Setting up label_mnist_1_split
I0210 21:23:01.057433 28707 net.cpp:157] Top shape: 100 (100)
I0210 21:23:01.057441 28707 net.cpp:157] Top shape: 100 (100)
I0210 21:23:01.057447 28707 net.cpp:165] Memory required for data: 314800
I0210 21:23:01.057454 28707 layer_factory.hpp:77] Creating layer conv1
I0210 21:23:01.057474 28707 net.cpp:106] Creating Layer conv1
I0210 21:23:01.057482 28707 net.cpp:454] conv1 <- data
I0210 21:23:01.057495 28707 net.cpp:411] conv1 -> conv1
I0210 21:23:01.057979 28707 net.cpp:150] Setting up conv1
I0210 21:23:01.057996 28707 net.cpp:157] Top shape: 100 20 24 24 (1152000)
I0210 21:23:01.058003 28707 net.cpp:165] Memory required for data: 4922800
I0210 21:23:01.058028 28707 layer_factory.hpp:77] Creating layer pool1
I0210 21:23:01.058074 28707 net.cpp:106] Creating Layer pool1
I0210 21:23:01.058090 28707 net.cpp:454] pool1 <- conv1
I0210 21:23:01.058115 28707 net.cpp:411] pool1 -> pool1
I0210 21:23:01.058367 28707 net.cpp:150] Setting up pool1
I0210 21:23:01.058384 28707 net.cpp:157] Top shape: 100 20 12 12 (288000)
I0210 21:23:01.058389 28707 net.cpp:165] Memory required for data: 6074800
I0210 21:23:01.058395 28707 layer_factory.hpp:77] Creating layer conv2
I0210 21:23:01.058413 28707 net.cpp:106] Creating Layer conv2
I0210 21:23:01.058419 28707 net.cpp:454] conv2 <- pool1
I0210 21:23:01.058434 28707 net.cpp:411] conv2 -> conv2
I0210 21:23:01.058964 28707 net.cpp:150] Setting up conv2
I0210 21:23:01.058979 28707 net.cpp:157] Top shape: 100 50 8 8 (320000)
I0210 21:23:01.058984 28707 net.cpp:165] Memory required for data: 7354800
I0210 21:23:01.058997 28707 layer_factory.hpp:77] Creating layer pool2
I0210 21:23:01.059026 28707 net.cpp:106] Creating Layer pool2
I0210 21:23:01.059037 28707 net.cpp:454] pool2 <- conv2
I0210 21:23:01.059054 28707 net.cpp:411] pool2 -> pool2
I0210 21:23:01.059299 28707 net.cpp:150] Setting up pool2
I0210 21:23:01.059315 28707 net.cpp:157] Top shape: 100 50 4 4 (80000)
I0210 21:23:01.059322 28707 net.cpp:165] Memory required for data: 7674800
I0210 21:23:01.059329 28707 layer_factory.hpp:77] Creating layer ip1
I0210 21:23:01.059345 28707 net.cpp:106] Creating Layer ip1
I0210 21:23:01.059351 28707 net.cpp:454] ip1 <- pool2
I0210 21:23:01.059361 28707 net.cpp:411] ip1 -> ip1
I0210 21:23:01.065951 28707 net.cpp:150] Setting up ip1
I0210 21:23:01.065973 28707 net.cpp:157] Top shape: 100 500 (50000)
I0210 21:23:01.065979 28707 net.cpp:165] Memory required for data: 7874800
I0210 21:23:01.066004 28707 layer_factory.hpp:77] Creating layer relu1
I0210 21:23:01.066017 28707 net.cpp:106] Creating Layer relu1
I0210 21:23:01.066025 28707 net.cpp:454] relu1 <- ip1
I0210 21:23:01.066040 28707 net.cpp:397] relu1 -> ip1 (in-place)
I0210 21:23:01.066054 28707 net.cpp:150] Setting up relu1
I0210 21:23:01.066064 28707 net.cpp:157] Top shape: 100 500 (50000)
I0210 21:23:01.066071 28707 net.cpp:165] Memory required for data: 8074800
I0210 21:23:01.066077 28707 layer_factory.hpp:77] Creating layer ip2
I0210 21:23:01.066092 28707 net.cpp:106] Creating Layer ip2
I0210 21:23:01.066099 28707 net.cpp:454] ip2 <- ip1
I0210 21:23:01.066123 28707 net.cpp:411] ip2 -> ip2
I0210 21:23:01.066339 28707 net.cpp:150] Setting up ip2
I0210 21:23:01.066354 28707 net.cpp:157] Top shape: 100 10 (1000)
I0210 21:23:01.066360 28707 net.cpp:165] Memory required for data: 8078800
I0210 21:23:01.066373 28707 layer_factory.hpp:77] Creating layer ip2_ip2_0_split
I0210 21:23:01.066388 28707 net.cpp:106] Creating Layer ip2_ip2_0_split
I0210 21:23:01.066396 28707 net.cpp:454] ip2_ip2_0_split <- ip2
I0210 21:23:01.066407 28707 net.cpp:411] ip2_ip2_0_split -> ip2_ip2_0_split_0
I0210 21:23:01.066419 28707 net.cpp:411] ip2_ip2_0_split -> ip2_ip2_0_split_1
I0210 21:23:01.066479 28707 net.cpp:150] Setting up ip2_ip2_0_split
I0210 21:23:01.066493 28707 net.cpp:157] Top shape: 100 10 (1000)
I0210 21:23:01.066503 28707 net.cpp:157] Top shape: 100 10 (1000)
I0210 21:23:01.066509 28707 net.cpp:165] Memory required for data: 8086800
I0210 21:23:01.066517 28707 layer_factory.hpp:77] Creating layer accuracy
I0210 21:23:01.066539 28707 net.cpp:106] Creating Layer accuracy
I0210 21:23:01.066546 28707 net.cpp:454] accuracy <- ip2_ip2_0_split_0
I0210 21:23:01.066556 28707 net.cpp:454] accuracy <- label_mnist_1_split_0
I0210 21:23:01.066565 28707 net.cpp:411] accuracy -> accuracy
…
