…
I0210 21:21:58.024245 28679 net.cpp:322] The NetState phase (0) differed from the phase (1) specified by a rule in layer mnist
I0210 21:21:58.024271 28679 net.cpp:322] The NetState phase (0) differed from the phase (1) specified by a rule in layer accuracy
I0210 21:21:58.024410 28679 net.cpp:49] Initializing net from parameters: 
name: "LeNet"
state {
  phase: TRAIN
}
layer {
  name: "mnist"
  type: "Data"
  top: "data"
  top: "label"
  include {
    phase: TRAIN
  }
  transform_param {
    scale: 0.00390625
  }
  data_param {
    source: "examples/mnist/mnist_train_lmdb"
    batch_size: 128
    backend: LMDB
  }
}
layer {
  name: "conv1"
  type: "Convolution"
  bottom: "data"
  top: "conv1"
  param {
    lr_mult: 1
  }
  param {
    lr_mult: 2
  }
  convolution_param {
    num_output: 20
    kernel_size: 5
    stride: 1
    weight_filler {
      type: "xavier"
    }
    bias_filler {
      type: "constant"
    }
  }
}
layer {
  name: "pool1"
  type: "Pooling"
  bottom: "conv1"
  top: "pool1"
  pooling_param {
    pool: MAX
    kernel_size: 2
    stride: 2
  }
}
layer {
  name: "conv2"
  type: "Convolution"
  bottom: "pool1"
  top: "conv2"
  param {
    lr_mult: 1
  }
  param {
    lr_mult: 2
  }
  convolution_param {
    num_output: 50
    kernel_size: 5
    stride: 1
    weight_filler {
      type: "xavier"
    }
    bias_filler {
      type: "constant"
    }
  }
}
layer {
  name: "pool2"
  type: "Pooling"
  bottom: "conv2"
  top: "pool2"
  pooling_param {
    pool: MAX
    kernel_size: 2
    stride: 2
  }
}
layer {
  name: "ip1"
  type: "InnerProduct"
  bottom: "pool2"
  top: "ip1"
  param {
    lr_mult: 1
  }
  param {
    lr_mult: 2
  }
  inner_product_param {
    num_output: 500
    weight_filler {
      type: "xavier"
    }
    bias_filler {
      type: "constant"
    }
  }
}
layer {
  name: "relu1"
  type: "ReLU"
  bottom: "ip1"
  top: "ip1"
}
layer {
  name: "ip2"
  type: "InnerProduct"
  bottom: "ip1"
  top: "ip2"
  param {
    lr_mult: 1
  }
  param {
    lr_mult: 2
  }
  inner_product_param {
    num_output: 10
    weight_filler {
      type: "xavier"
    }
    bias_filler {
      type: "constant"
    }
  }
}
layer {
  name: "loss"
  type: "SoftmaxWithLoss"
  bottom: "ip2"
  bottom: "label"
  top: "loss"
}
I0210 21:21:58.024492 28679 layer_factory.hpp:77] Creating layer mnist
I0210 21:21:58.025290 28679 net.cpp:106] Creating Layer mnist
I0210 21:21:58.025311 28679 net.cpp:411] mnist -> data
I0210 21:21:58.025349 28679 net.cpp:411] mnist -> label
I0210 21:21:58.031558 28683 db_lmdb.cpp:38] Opened lmdb examples/mnist/mnist_train_lmdb
I0210 21:21:58.049986 28679 data_layer.cpp:41] output data size: 128,1,28,28
I0210 21:21:58.053248 28679 net.cpp:150] Setting up mnist
I0210 21:21:58.053331 28679 net.cpp:157] Top shape: 128 1 28 28 (100352)
I0210 21:21:58.053349 28679 net.cpp:157] Top shape: 128 (128)
I0210 21:21:58.053359 28679 net.cpp:165] Memory required for data: 401920
I0210 21:21:58.053395 28679 layer_factory.hpp:77] Creating layer conv1
I0210 21:21:58.053464 28679 net.cpp:106] Creating Layer conv1
I0210 21:21:58.053489 28679 net.cpp:454] conv1 <- data
I0210 21:21:58.053535 28679 net.cpp:411] conv1 -> conv1
I0210 21:21:58.055775 28679 net.cpp:150] Setting up conv1
I0210 21:21:58.055809 28679 net.cpp:157] Top shape: 128 20 24 24 (1474560)
I0210 21:21:58.055819 28679 net.cpp:165] Memory required for data: 6300160
I0210 21:21:58.055855 28679 layer_factory.hpp:77] Creating layer pool1
I0210 21:21:58.055896 28679 net.cpp:106] Creating Layer pool1
I0210 21:21:58.055910 28679 net.cpp:454] pool1 <- conv1
I0210 21:21:58.055927 28679 net.cpp:411] pool1 -> pool1
I0210 21:21:58.056488 28679 net.cpp:150] Setting up pool1
I0210 21:21:58.056515 28679 net.cpp:157] Top shape: 128 20 12 12 (368640)
I0210 21:21:58.056525 28679 net.cpp:165] Memory required for data: 7774720
I0210 21:21:58.056535 28679 layer_factory.hpp:77] Creating layer conv2
I0210 21:21:58.056571 28679 net.cpp:106] Creating Layer conv2
I0210 21:21:58.056586 28679 net.cpp:454] conv2 <- pool1
I0210 21:21:58.056612 28679 net.cpp:411] conv2 -> conv2
I0210 21:21:58.059000 28679 net.cpp:150] Setting up conv2
I0210 21:21:58.059032 28679 net.cpp:157] Top shape: 128 50 8 8 (409600)
I0210 21:21:58.059041 28679 net.cpp:165] Memory required for data: 9413120
I0210 21:21:58.059067 28679 layer_factory.hpp:77] Creating layer pool2
I0210 21:21:58.059090 28679 net.cpp:106] Creating Layer pool2
I0210 21:21:58.059104 28679 net.cpp:454] pool2 <- conv2
I0210 21:21:58.059126 28679 net.cpp:411] pool2 -> pool2
I0210 21:21:58.059450 28679 net.cpp:150] Setting up pool2
I0210 21:21:58.059474 28679 net.cpp:157] Top shape: 128 50 4 4 (102400)
I0210 21:21:58.059484 28679 net.cpp:165] Memory required for data: 9822720
I0210 21:21:58.059494 28679 layer_factory.hpp:77] Creating layer ip1
I0210 21:21:58.059551 28679 net.cpp:106] Creating Layer ip1
I0210 21:21:58.059567 28679 net.cpp:454] ip1 <- pool2
I0210 21:21:58.059586 28679 net.cpp:411] ip1 -> ip1
I0210 21:21:58.066210 28679 net.cpp:150] Setting up ip1
I0210 21:21:58.066226 28679 net.cpp:157] Top shape: 128 500 (64000)
I0210 21:21:58.066231 28679 net.cpp:165] Memory required for data: 10078720
I0210 21:21:58.066242 28679 layer_factory.hpp:77] Creating layer relu1
I0210 21:21:58.066252 28679 net.cpp:106] Creating Layer relu1
I0210 21:21:58.066258 28679 net.cpp:454] relu1 <- ip1
I0210 21:21:58.066268 28679 net.cpp:397] relu1 -> ip1 (in-place)
I0210 21:21:58.066282 28679 net.cpp:150] Setting up relu1
I0210 21:21:58.066289 28679 net.cpp:157] Top shape: 128 500 (64000)
I0210 21:21:58.066294 28679 net.cpp:165] Memory required for data: 10334720
I0210 21:21:58.066299 28679 layer_factory.hpp:77] Creating layer ip2
I0210 21:21:58.066309 28679 net.cpp:106] Creating Layer ip2
I0210 21:21:58.066314 28679 net.cpp:454] ip2 <- ip1
I0210 21:21:58.066323 28679 net.cpp:411] ip2 -> ip2
I0210 21:21:58.067268 28679 net.cpp:150] Setting up ip2
I0210 21:21:58.067282 28679 net.cpp:157] Top shape: 128 10 (1280)
I0210 21:21:58.067286 28679 net.cpp:165] Memory required for data: 10339840
I0210 21:21:58.067296 28679 layer_factory.hpp:77] Creating layer loss
I0210 21:21:58.067306 28679 net.cpp:106] Creating Layer loss
I0210 21:21:58.067311 28679 net.cpp:454] loss <- ip2
I0210 21:21:58.067317 28679 net.cpp:454] loss <- label
I0210 21:21:58.067330 28679 net.cpp:411] loss -> loss
I0210 21:21:58.067351 28679 layer_factory.hpp:77] Creating layer loss
…
I0210 21:21:58.069430 28679 solver.cpp:181] Creating test net (#0) specified by net file: examples/mnist/lenet_train_test.prototxt
I0210 21:21:58.069476 28679 net.cpp:322] The NetState phase (1) differed from the phase (0) specified by a rule in layer mnist
I0210 21:21:58.069665 28679 net.cpp:49] Initializing net from parameters: 
name: "LeNet"
state {
  phase: TEST
}
layer {
  name: "mnist"
  type: "Data"
  top: "data"
  top: "label"
  include {
    phase: TEST
  }
  transform_param {
    scale: 0.00390625
  }
  data_param {
    source: "examples/mnist/mnist_test_lmdb"
    batch_size: 100
    backend: LMDB
  }
}
layer {
  name: "conv1"
  type: "Convolution"
  bottom: "data"
  top: "conv1"
  param {
    lr_mult: 1
  }
  param {
    lr_mult: 2
  }
  convolution_param {
    num_output: 20
    kernel_size: 5
    stride: 1
    weight_filler {
      type: "xavier"
    }
    bias_filler {
      type: "constant"
    }
  }
}
layer {
  name: "pool1"
  type: "Pooling"
  bottom: "conv1"
  top: "pool1"
  pooling_param {
    pool: MAX
    kernel_size: 2
    stride: 2
  }
}
layer {
  name: "conv2"
  type: "Convolution"
  bottom: "pool1"
  top: "conv2"
  param {
    lr_mult: 1
  }
  param {
    lr_mult: 2
  }
  convolution_param {
    num_output: 50
    kernel_size: 5
    stride: 1
    weight_filler {
      type: "xavier"
    }
    bias_filler {
      type: "constant"
    }
  }
}
layer {
  name: "pool2"
  type: "Pooling"
  bottom: "conv2"
  top: "pool2"
  pooling_param {
    pool: MAX
    kernel_size: 2
    stride: 2
  }
}
layer {
  name: "ip1"
  type: "InnerProduct"
  bottom: "pool2"
  top: "ip1"
  param {
    lr_mult: 1
  }
  param {
    lr_mult: 2
  }
  inner_product_param {
    num_output: 500
    weight_filler {
      type: "xavier"
    }
    bias_filler {
      type: "constant"
    }
  }
}
layer {
  name: "relu1"
  type: "ReLU"
  bottom: "ip1"
  top: "ip1"
}
layer {
  name: "ip2"
  type: "InnerProduct"
  bottom: "ip1"
  top: "ip2"
  param {
    lr_mult: 1
  }
  param {
    lr_mult: 2
  }
  inner_product_param {
    num_output: 10
    weight_filler {
      type: "xavier"
    }
    bias_filler {
      type: "constant"
    }
  }
}
layer {
  name: "accuracy"
  type: "Accuracy"
  bottom: "ip2"
  bottom: "label"
  top: "accuracy"
  include {
    phase: TEST
  }
}
layer {
  name: "loss"
  type: "SoftmaxWithLoss"
  bottom: "ip2"
  bottom: "label"
  top: "loss"
}
I0210 21:21:58.069788 28679 layer_factory.hpp:77] Creating layer mnist
I0210 21:21:58.069936 28679 net.cpp:106] Creating Layer mnist
I0210 21:21:58.069950 28679 net.cpp:411] mnist -> data
I0210 21:21:58.069964 28679 net.cpp:411] mnist -> label
I0210 21:21:58.074697 28685 db_lmdb.cpp:38] Opened lmdb examples/mnist/mnist_test_lmdb
I0210 21:21:58.075142 28679 data_layer.cpp:41] output data size: 100,1,28,28
I0210 21:21:58.077090 28679 net.cpp:150] Setting up mnist
I0210 21:21:58.077118 28679 net.cpp:157] Top shape: 100 1 28 28 (78400)
I0210 21:21:58.077132 28679 net.cpp:157] Top shape: 100 (100)
I0210 21:21:58.077142 28679 net.cpp:165] Memory required for data: 314000
I0210 21:21:58.077149 28679 layer_factory.hpp:77] Creating layer label_mnist_1_split
I0210 21:21:58.077162 28679 net.cpp:106] Creating Layer label_mnist_1_split
I0210 21:21:58.077172 28679 net.cpp:454] label_mnist_1_split <- label
I0210 21:21:58.077183 28679 net.cpp:411] label_mnist_1_split -> label_mnist_1_split_0
I0210 21:21:58.077196 28679 net.cpp:411] label_mnist_1_split -> label_mnist_1_split_1
I0210 21:21:58.077347 28679 net.cpp:150] Setting up label_mnist_1_split
I0210 21:21:58.077363 28679 net.cpp:157] Top shape: 100 (100)
I0210 21:21:58.077371 28679 net.cpp:157] Top shape: 100 (100)
I0210 21:21:58.077378 28679 net.cpp:165] Memory required for data: 314800
I0210 21:21:58.077383 28679 layer_factory.hpp:77] Creating layer conv1
I0210 21:21:58.077404 28679 net.cpp:106] Creating Layer conv1
I0210 21:21:58.077414 28679 net.cpp:454] conv1 <- data
I0210 21:21:58.077428 28679 net.cpp:411] conv1 -> conv1
I0210 21:21:58.077781 28679 net.cpp:150] Setting up conv1
I0210 21:21:58.077800 28679 net.cpp:157] Top shape: 100 20 24 24 (1152000)
I0210 21:21:58.077806 28679 net.cpp:165] Memory required for data: 4922800
I0210 21:21:58.077822 28679 layer_factory.hpp:77] Creating layer pool1
I0210 21:21:58.077839 28679 net.cpp:106] Creating Layer pool1
I0210 21:21:58.077870 28679 net.cpp:454] pool1 <- conv1
I0210 21:21:58.077883 28679 net.cpp:411] pool1 -> pool1
I0210 21:21:58.078094 28679 net.cpp:150] Setting up pool1
I0210 21:21:58.078110 28679 net.cpp:157] Top shape: 100 20 12 12 (288000)
I0210 21:21:58.078116 28679 net.cpp:165] Memory required for data: 6074800
I0210 21:21:58.078122 28679 layer_factory.hpp:77] Creating layer conv2
I0210 21:21:58.078145 28679 net.cpp:106] Creating Layer conv2
I0210 21:21:58.078152 28679 net.cpp:454] conv2 <- pool1
I0210 21:21:58.078164 28679 net.cpp:411] conv2 -> conv2
I0210 21:21:58.078758 28679 net.cpp:150] Setting up conv2
I0210 21:21:58.078779 28679 net.cpp:157] Top shape: 100 50 8 8 (320000)
I0210 21:21:58.078785 28679 net.cpp:165] Memory required for data: 7354800
I0210 21:21:58.078800 28679 layer_factory.hpp:77] Creating layer pool2
I0210 21:21:58.078814 28679 net.cpp:106] Creating Layer pool2
I0210 21:21:58.078822 28679 net.cpp:454] pool2 <- conv2
I0210 21:21:58.078831 28679 net.cpp:411] pool2 -> pool2
I0210 21:21:58.079041 28679 net.cpp:150] Setting up pool2
I0210 21:21:58.079056 28679 net.cpp:157] Top shape: 100 50 4 4 (80000)
I0210 21:21:58.079061 28679 net.cpp:165] Memory required for data: 7674800
I0210 21:21:58.079068 28679 layer_factory.hpp:77] Creating layer ip1
I0210 21:21:58.079084 28679 net.cpp:106] Creating Layer ip1
I0210 21:21:58.079092 28679 net.cpp:454] ip1 <- pool2
I0210 21:21:58.079107 28679 net.cpp:411] ip1 -> ip1
I0210 21:21:58.085782 28679 net.cpp:150] Setting up ip1
I0210 21:21:58.085806 28679 net.cpp:157] Top shape: 100 500 (50000)
I0210 21:21:58.085814 28679 net.cpp:165] Memory required for data: 7874800
I0210 21:21:58.085834 28679 layer_factory.hpp:77] Creating layer relu1
I0210 21:21:58.085846 28679 net.cpp:106] Creating Layer relu1
I0210 21:21:58.085855 28679 net.cpp:454] relu1 <- ip1
I0210 21:21:58.085875 28679 net.cpp:397] relu1 -> ip1 (in-place)
I0210 21:21:58.085891 28679 net.cpp:150] Setting up relu1
I0210 21:21:58.085903 28679 net.cpp:157] Top shape: 100 500 (50000)
I0210 21:21:58.085911 28679 net.cpp:165] Memory required for data: 8074800
I0210 21:21:58.085919 28679 layer_factory.hpp:77] Creating layer ip2
I0210 21:21:58.085935 28679 net.cpp:106] Creating Layer ip2
I0210 21:21:58.085945 28679 net.cpp:454] ip2 <- ip1
I0210 21:21:58.085964 28679 net.cpp:411] ip2 -> ip2
I0210 21:21:58.086206 28679 net.cpp:150] Setting up ip2
I0210 21:21:58.086225 28679 net.cpp:157] Top shape: 100 10 (1000)
I0210 21:21:58.086235 28679 net.cpp:165] Memory required for data: 8078800
I0210 21:21:58.086248 28679 layer_factory.hpp:77] Creating layer ip2_ip2_0_split
I0210 21:21:58.086262 28679 net.cpp:106] Creating Layer ip2_ip2_0_split
I0210 21:21:58.086272 28679 net.cpp:454] ip2_ip2_0_split <- ip2
I0210 21:21:58.086284 28679 net.cpp:411] ip2_ip2_0_split -> ip2_ip2_0_split_0
I0210 21:21:58.086303 28679 net.cpp:411] ip2_ip2_0_split -> ip2_ip2_0_split_1
I0210 21:21:58.086370 28679 net.cpp:150] Setting up ip2_ip2_0_split
I0210 21:21:58.086385 28679 net.cpp:157] Top shape: 100 10 (1000)
I0210 21:21:58.086397 28679 net.cpp:157] Top shape: 100 10 (1000)
I0210 21:21:58.086405 28679 net.cpp:165] Memory required for data: 8086800
I0210 21:21:58.086416 28679 layer_factory.hpp:77] Creating layer accuracy
I0210 21:21:58.086448 28679 net.cpp:106] Creating Layer accuracy
I0210 21:21:58.086458 28679 net.cpp:454] accuracy <- ip2_ip2_0_split_0
I0210 21:21:58.086470 28679 net.cpp:454] accuracy <- label_mnist_1_split_0
I0210 21:21:58.086483 28679 net.cpp:411] accuracy -> accuracy
…
