…
I0210 21:22:49.114145 28693 net.cpp:322] The NetState phase (0) differed from the phase (1) specified by a rule in layer mnist
I0210 21:22:49.114171 28693 net.cpp:322] The NetState phase (0) differed from the phase (1) specified by a rule in layer accuracy
I0210 21:22:49.114392 28693 net.cpp:49] Initializing net from parameters: 
name: "LeNet"
state {
  phase: TRAIN
}
layer {
  name: "mnist"
  type: "Data"
  top: "data"
  top: "label"
  include {
    phase: TRAIN
  }
  transform_param {
    scale: 0.00390625
  }
  data_param {
    source: "examples/mnist/mnist_train_lmdb"
    batch_size: 64
    backend: LMDB
  }
}
layer {
  name: "conv1"
  type: "Convolution"
  bottom: "data"
  top: "conv1"
  param {
    lr_mult: 1
  }
  param {
    lr_mult: 2
  }
  convolution_param {
    num_output: 20
    kernel_size: 5
    stride: 1
    weight_filler {
      type: "xavier"
    }
    bias_filler {
      type: "constant"
    }
  }
}
layer {
  name: "pool1"
  type: "Pooling"
  bottom: "conv1"
  top: "pool1"
  pooling_param {
    pool: MAX
    kernel_size: 2
    stride: 2
  }
}
layer {
  name: "conv2"
  type: "Convolution"
  bottom: "pool1"
  top: "conv2"
  param {
    lr_mult: 1
  }
  param {
    lr_mult: 2
  }
  convolution_param {
    num_output: 50
    kernel_size: 5
    stride: 1
    weight_filler {
      type: "xavier"
    }
    bias_filler {
      type: "constant"
    }
  }
}
layer {
  name: "pool2"
  type: "Pooling"
  bottom: "conv2"
  top: "pool2"
  pooling_param {
    pool: MAX
    kernel_size: 2
    stride: 2
  }
}
layer {
  name: "ip1"
  type: "InnerProduct"
  bottom: "pool2"
  top: "ip1"
  param {
    lr_mult: 1
  }
  param {
    lr_mult: 2
  }
  inner_product_param {
    num_output: 500
    weight_filler {
      type: "xavier"
    }
    bias_filler {
      type: "constant"
    }
  }
}
layer {
  name: "relu1"
  type: "ReLU"
  bottom: "ip1"
  top: "ip1"
}
layer {
  name: "ip2"
  type: "InnerProduct"
  bottom: "ip1"
  top: "ip2"
  param {
    lr_mult: 1
  }
  param {
    lr_mult: 2
  }
  inner_product_param {
    num_output: 10
    weight_filler {
      type: "xavier"
    }
    bias_filler {
      type: "constant"
    }
  }
}
layer {
  name: "loss"
  type: "SoftmaxWithLoss"
  bottom: "ip2"
  bottom: "label"
  top: "loss"
}
I0210 21:22:49.114531 28693 layer_factory.hpp:77] Creating layer mnist
I0210 21:22:49.115715 28693 net.cpp:106] Creating Layer mnist
I0210 21:22:49.115733 28693 net.cpp:411] mnist -> data
I0210 21:22:49.115792 28693 net.cpp:411] mnist -> label
I0210 21:22:49.121532 28697 db_lmdb.cpp:38] Opened lmdb examples/mnist/mnist_train_lmdb
I0210 21:22:49.141857 28693 data_layer.cpp:41] output data size: 64,1,28,28
I0210 21:22:49.143438 28693 net.cpp:150] Setting up mnist
I0210 21:22:49.143462 28693 net.cpp:157] Top shape: 64 1 28 28 (50176)
I0210 21:22:49.143471 28693 net.cpp:157] Top shape: 64 (64)
I0210 21:22:49.143476 28693 net.cpp:165] Memory required for data: 200960
I0210 21:22:49.143489 28693 layer_factory.hpp:77] Creating layer conv1
I0210 21:22:49.143527 28693 net.cpp:106] Creating Layer conv1
I0210 21:22:49.143538 28693 net.cpp:454] conv1 <- data
I0210 21:22:49.143560 28693 net.cpp:411] conv1 -> conv1
I0210 21:22:49.144927 28693 net.cpp:150] Setting up conv1
I0210 21:22:49.144942 28693 net.cpp:157] Top shape: 64 20 24 24 (737280)
I0210 21:22:49.144947 28693 net.cpp:165] Memory required for data: 3150080
I0210 21:22:49.144964 28693 layer_factory.hpp:77] Creating layer pool1
I0210 21:22:49.144983 28693 net.cpp:106] Creating Layer pool1
I0210 21:22:49.144989 28693 net.cpp:454] pool1 <- conv1
I0210 21:22:49.144997 28693 net.cpp:411] pool1 -> pool1
I0210 21:22:49.145200 28693 net.cpp:150] Setting up pool1
I0210 21:22:49.145215 28693 net.cpp:157] Top shape: 64 20 12 12 (184320)
I0210 21:22:49.145220 28693 net.cpp:165] Memory required for data: 3887360
I0210 21:22:49.145227 28693 layer_factory.hpp:77] Creating layer conv2
I0210 21:22:49.145241 28693 net.cpp:106] Creating Layer conv2
I0210 21:22:49.145246 28693 net.cpp:454] conv2 <- pool1
I0210 21:22:49.145258 28693 net.cpp:411] conv2 -> conv2
I0210 21:22:49.145714 28693 net.cpp:150] Setting up conv2
I0210 21:22:49.145727 28693 net.cpp:157] Top shape: 64 50 8 8 (204800)
I0210 21:22:49.145732 28693 net.cpp:165] Memory required for data: 4706560
I0210 21:22:49.145745 28693 layer_factory.hpp:77] Creating layer pool2
I0210 21:22:49.145758 28693 net.cpp:106] Creating Layer pool2
I0210 21:22:49.145764 28693 net.cpp:454] pool2 <- conv2
I0210 21:22:49.145772 28693 net.cpp:411] pool2 -> pool2
I0210 21:22:49.145930 28693 net.cpp:150] Setting up pool2
I0210 21:22:49.145943 28693 net.cpp:157] Top shape: 64 50 4 4 (51200)
I0210 21:22:49.145949 28693 net.cpp:165] Memory required for data: 4911360
I0210 21:22:49.145954 28693 layer_factory.hpp:77] Creating layer ip1
I0210 21:22:49.145970 28693 net.cpp:106] Creating Layer ip1
I0210 21:22:49.145977 28693 net.cpp:454] ip1 <- pool2
I0210 21:22:49.145987 28693 net.cpp:411] ip1 -> ip1
I0210 21:22:49.148350 28698 blocking_queue.cpp:50] Waiting for data
I0210 21:22:49.150612 28693 net.cpp:150] Setting up ip1
I0210 21:22:49.150629 28693 net.cpp:157] Top shape: 64 500 (32000)
I0210 21:22:49.150634 28693 net.cpp:165] Memory required for data: 5039360
I0210 21:22:49.150645 28693 layer_factory.hpp:77] Creating layer relu1
I0210 21:22:49.150657 28693 net.cpp:106] Creating Layer relu1
I0210 21:22:49.150663 28693 net.cpp:454] relu1 <- ip1
I0210 21:22:49.150671 28693 net.cpp:397] relu1 -> ip1 (in-place)
I0210 21:22:49.150683 28693 net.cpp:150] Setting up relu1
I0210 21:22:49.150691 28693 net.cpp:157] Top shape: 64 500 (32000)
I0210 21:22:49.150696 28693 net.cpp:165] Memory required for data: 5167360
I0210 21:22:49.150701 28693 layer_factory.hpp:77] Creating layer ip2
I0210 21:22:49.150712 28693 net.cpp:106] Creating Layer ip2
I0210 21:22:49.150717 28693 net.cpp:454] ip2 <- ip1
I0210 21:22:49.150728 28693 net.cpp:411] ip2 -> ip2
I0210 21:22:49.151618 28693 net.cpp:150] Setting up ip2
I0210 21:22:49.151630 28693 net.cpp:157] Top shape: 64 10 (640)
I0210 21:22:49.151636 28693 net.cpp:165] Memory required for data: 5169920
I0210 21:22:49.151645 28693 layer_factory.hpp:77] Creating layer loss
I0210 21:22:49.151657 28693 net.cpp:106] Creating Layer loss
I0210 21:22:49.151664 28693 net.cpp:454] loss <- ip2
I0210 21:22:49.151670 28693 net.cpp:454] loss <- label
I0210 21:22:49.151679 28693 net.cpp:411] loss -> loss
I0210 21:22:49.151703 28693 layer_factory.hpp:77] Creating layer loss
…
I0210 21:22:49.153111 28693 solver.cpp:181] Creating test net (#0) specified by net file: examples/mnist/lenet_train_test.prototxt
I0210 21:22:49.153168 28693 net.cpp:322] The NetState phase (1) differed from the phase (0) specified by a rule in layer mnist
I0210 21:22:49.153337 28693 net.cpp:49] Initializing net from parameters: 
name: "LeNet"
state {
  phase: TEST
}
layer {
  name: "mnist"
  type: "Data"
  top: "data"
  top: "label"
  include {
    phase: TEST
  }
  transform_param {
    scale: 0.00390625
  }
  data_param {
    source: "examples/mnist/mnist_test_lmdb"
    batch_size: 100
    backend: LMDB
  }
}
layer {
  name: "conv1"
  type: "Convolution"
  bottom: "data"
  top: "conv1"
  param {
    lr_mult: 1
  }
  param {
    lr_mult: 2
  }
  convolution_param {
    num_output: 20
    kernel_size: 5
    stride: 1
    weight_filler {
      type: "xavier"
    }
    bias_filler {
      type: "constant"
    }
  }
}
layer {
  name: "pool1"
  type: "Pooling"
  bottom: "conv1"
  top: "pool1"
  pooling_param {
    pool: MAX
    kernel_size: 2
    stride: 2
  }
}
layer {
  name: "conv2"
  type: "Convolution"
  bottom: "pool1"
  top: "conv2"
  param {
    lr_mult: 1
  }
  param {
    lr_mult: 2
  }
  convolution_param {
    num_output: 50
    kernel_size: 5
    stride: 1
    weight_filler {
      type: "xavier"
    }
    bias_filler {
      type: "constant"
    }
  }
}
layer {
  name: "pool2"
  type: "Pooling"
  bottom: "conv2"
  top: "pool2"
  pooling_param {
    pool: MAX
    kernel_size: 2
    stride: 2
  }
}
layer {
  name: "ip1"
  type: "InnerProduct"
  bottom: "pool2"
  top: "ip1"
  param {
    lr_mult: 1
  }
  param {
    lr_mult: 2
  }
  inner_product_param {
    num_output: 500
    weight_filler {
      type: "xavier"
    }
    bias_filler {
      type: "constant"
    }
  }
}
layer {
  name: "relu1"
  type: "ReLU"
  bottom: "ip1"
  top: "ip1"
}
layer {
  name: "ip2"
  type: "InnerProduct"
  bottom: "ip1"
  top: "ip2"
  param {
    lr_mult: 1
  }
  param {
    lr_mult: 2
  }
  inner_product_param {
    num_output: 10
    weight_filler {
      type: "xavier"
    }
    bias_filler {
      type: "constant"
    }
  }
}
layer {
  name: "accuracy"
  type: "Accuracy"
  bottom: "ip2"
  bottom: "label"
  top: "accuracy"
  include {
    phase: TEST
  }
}
layer {
  name: "loss"
  type: "SoftmaxWithLoss"
  bottom: "ip2"
  bottom: "label"
  top: "loss"
}
I0210 21:22:49.153439 28693 layer_factory.hpp:77] Creating layer mnist
I0210 21:22:49.153575 28693 net.cpp:106] Creating Layer mnist
I0210 21:22:49.153591 28693 net.cpp:411] mnist -> data
I0210 21:22:49.153604 28693 net.cpp:411] mnist -> label
I0210 21:22:49.158859 28699 db_lmdb.cpp:38] Opened lmdb examples/mnist/mnist_test_lmdb
I0210 21:22:49.159235 28693 data_layer.cpp:41] output data size: 100,1,28,28
I0210 21:22:49.160828 28693 net.cpp:150] Setting up mnist
I0210 21:22:49.160845 28693 net.cpp:157] Top shape: 100 1 28 28 (78400)
I0210 21:22:49.160853 28693 net.cpp:157] Top shape: 100 (100)
I0210 21:22:49.160858 28693 net.cpp:165] Memory required for data: 314000
I0210 21:22:49.160866 28693 layer_factory.hpp:77] Creating layer label_mnist_1_split
I0210 21:22:49.160903 28693 net.cpp:106] Creating Layer label_mnist_1_split
I0210 21:22:49.160912 28693 net.cpp:454] label_mnist_1_split <- label
I0210 21:22:49.160923 28693 net.cpp:411] label_mnist_1_split -> label_mnist_1_split_0
I0210 21:22:49.160935 28693 net.cpp:411] label_mnist_1_split -> label_mnist_1_split_1
I0210 21:22:49.161062 28693 net.cpp:150] Setting up label_mnist_1_split
I0210 21:22:49.161072 28693 net.cpp:157] Top shape: 100 (100)
I0210 21:22:49.161079 28693 net.cpp:157] Top shape: 100 (100)
I0210 21:22:49.161085 28693 net.cpp:165] Memory required for data: 314800
I0210 21:22:49.161090 28693 layer_factory.hpp:77] Creating layer conv1
I0210 21:22:49.161111 28693 net.cpp:106] Creating Layer conv1
I0210 21:22:49.161118 28693 net.cpp:454] conv1 <- data
I0210 21:22:49.161129 28693 net.cpp:411] conv1 -> conv1
I0210 21:22:49.161494 28693 net.cpp:150] Setting up conv1
I0210 21:22:49.161507 28693 net.cpp:157] Top shape: 100 20 24 24 (1152000)
I0210 21:22:49.161514 28693 net.cpp:165] Memory required for data: 4922800
I0210 21:22:49.161526 28693 layer_factory.hpp:77] Creating layer pool1
I0210 21:22:49.161563 28693 net.cpp:106] Creating Layer pool1
I0210 21:22:49.161571 28693 net.cpp:454] pool1 <- conv1
I0210 21:22:49.161581 28693 net.cpp:411] pool1 -> pool1
I0210 21:22:49.161742 28693 net.cpp:150] Setting up pool1
I0210 21:22:49.161752 28693 net.cpp:157] Top shape: 100 20 12 12 (288000)
I0210 21:22:49.161758 28693 net.cpp:165] Memory required for data: 6074800
I0210 21:22:49.161763 28693 layer_factory.hpp:77] Creating layer conv2
I0210 21:22:49.161779 28693 net.cpp:106] Creating Layer conv2
I0210 21:22:49.161787 28693 net.cpp:454] conv2 <- pool1
I0210 21:22:49.161798 28693 net.cpp:411] conv2 -> conv2
I0210 21:22:49.162262 28693 net.cpp:150] Setting up conv2
I0210 21:22:49.162276 28693 net.cpp:157] Top shape: 100 50 8 8 (320000)
I0210 21:22:49.162281 28693 net.cpp:165] Memory required for data: 7354800
I0210 21:22:49.162292 28693 layer_factory.hpp:77] Creating layer pool2
I0210 21:22:49.162307 28693 net.cpp:106] Creating Layer pool2
I0210 21:22:49.162314 28693 net.cpp:454] pool2 <- conv2
I0210 21:22:49.162322 28693 net.cpp:411] pool2 -> pool2
I0210 21:22:49.162472 28693 net.cpp:150] Setting up pool2
I0210 21:22:49.162482 28693 net.cpp:157] Top shape: 100 50 4 4 (80000)
I0210 21:22:49.162487 28693 net.cpp:165] Memory required for data: 7674800
I0210 21:22:49.162493 28693 layer_factory.hpp:77] Creating layer ip1
I0210 21:22:49.162508 28693 net.cpp:106] Creating Layer ip1
I0210 21:22:49.162513 28693 net.cpp:454] ip1 <- pool2
I0210 21:22:49.162523 28693 net.cpp:411] ip1 -> ip1
I0210 21:22:49.171346 28693 net.cpp:150] Setting up ip1
I0210 21:22:49.171380 28693 net.cpp:157] Top shape: 100 500 (50000)
I0210 21:22:49.171389 28693 net.cpp:165] Memory required for data: 7874800
I0210 21:22:49.171416 28693 layer_factory.hpp:77] Creating layer relu1
I0210 21:22:49.171427 28693 net.cpp:106] Creating Layer relu1
I0210 21:22:49.171434 28693 net.cpp:454] relu1 <- ip1
I0210 21:22:49.171442 28693 net.cpp:397] relu1 -> ip1 (in-place)
I0210 21:22:49.171452 28693 net.cpp:150] Setting up relu1
I0210 21:22:49.171459 28693 net.cpp:157] Top shape: 100 500 (50000)
I0210 21:22:49.171463 28693 net.cpp:165] Memory required for data: 8074800
I0210 21:22:49.171468 28693 layer_factory.hpp:77] Creating layer ip2
I0210 21:22:49.171479 28693 net.cpp:106] Creating Layer ip2
I0210 21:22:49.171486 28693 net.cpp:454] ip2 <- ip1
I0210 21:22:49.171494 28693 net.cpp:411] ip2 -> ip2
I0210 21:22:49.171649 28693 net.cpp:150] Setting up ip2
I0210 21:22:49.171660 28693 net.cpp:157] Top shape: 100 10 (1000)
I0210 21:22:49.171664 28693 net.cpp:165] Memory required for data: 8078800
I0210 21:22:49.171674 28693 layer_factory.hpp:77] Creating layer ip2_ip2_0_split
I0210 21:22:49.171684 28693 net.cpp:106] Creating Layer ip2_ip2_0_split
I0210 21:22:49.171690 28693 net.cpp:454] ip2_ip2_0_split <- ip2
I0210 21:22:49.171699 28693 net.cpp:411] ip2_ip2_0_split -> ip2_ip2_0_split_0
I0210 21:22:49.171707 28693 net.cpp:411] ip2_ip2_0_split -> ip2_ip2_0_split_1
I0210 21:22:49.171747 28693 net.cpp:150] Setting up ip2_ip2_0_split
I0210 21:22:49.171756 28693 net.cpp:157] Top shape: 100 10 (1000)
I0210 21:22:49.171763 28693 net.cpp:157] Top shape: 100 10 (1000)
I0210 21:22:49.171768 28693 net.cpp:165] Memory required for data: 8086800
I0210 21:22:49.171774 28693 layer_factory.hpp:77] Creating layer accuracy
I0210 21:22:49.171792 28693 net.cpp:106] Creating Layer accuracy
I0210 21:22:49.171797 28693 net.cpp:454] accuracy <- ip2_ip2_0_split_0
I0210 21:22:49.171804 28693 net.cpp:454] accuracy <- label_mnist_1_split_0
I0210 21:22:49.171813 28693 net.cpp:411] accuracy -> accuracy
…
