…
I0210 21:21:22.356657 28656 net.cpp:322] The NetState phase (0) differed from the phase (1) specified by a rule in layer mnist
I0210 21:21:22.356717 28656 net.cpp:322] The NetState phase (0) differed from the phase (1) specified by a rule in layer accuracy
I0210 21:21:22.357023 28656 net.cpp:49] Initializing net from parameters: 
name: "LeNet"
state {
  phase: TRAIN
}
layer {
  name: "mnist"
  type: "Data"
  top: "data"
  top: "label"
  include {
    phase: TRAIN
  }
  transform_param {
    scale: 0.00390625
  }
  data_param {
    source: "examples/mnist/mnist_train_lmdb"
    batch_size: 128
    backend: LMDB
  }
}
layer {
  name: "conv1"
  type: "Convolution"
  bottom: "data"
  top: "conv1"
  param {
    lr_mult: 1
  }
  param {
    lr_mult: 2
  }
  convolution_param {
    num_output: 20
    kernel_size: 5
    stride: 1
    weight_filler {
      type: "xavier"
    }
    bias_filler {
      type: "constant"
    }
  }
}
layer {
  name: "pool1"
  type: "Pooling"
  bottom: "conv1"
  top: "pool1"
  pooling_param {
    pool: MAX
    kernel_size: 2
    stride: 2
  }
}
layer {
  name: "conv2"
  type: "Convolution"
  bottom: "pool1"
  top: "conv2"
  param {
    lr_mult: 1
  }
  param {
    lr_mult: 2
  }
  convolution_param {
    num_output: 50
    kernel_size: 5
    stride: 1
    weight_filler {
      type: "xavier"
    }
    bias_filler {
      type: "constant"
    }
  }
}
layer {
  name: "pool2"
  type: "Pooling"
  bottom: "conv2"
  top: "pool2"
  pooling_param {
    pool: MAX
    kernel_size: 2
    stride: 2
  }
}
layer {
  name: "ip1"
  type: "InnerProduct"
  bottom: "pool2"
  top: "ip1"
  param {
    lr_mult: 1
  }
  param {
    lr_mult: 2
  }
  inner_product_param {
    num_output: 500
    weight_filler {
      type: "xavier"
    }
    bias_filler {
      type: "constant"
    }
  }
}
layer {
  name: "relu1"
  type: "ReLU"
  bottom: "ip1"
  top: "ip1"
}
layer {
  name: "ip2"
  type: "InnerProduct"
  bottom: "ip1"
  top: "ip2"
  param {
    lr_mult: 1
  }
  param {
    lr_mult: 2
  }
  inner_product_param {
    num_output: 10
    weight_filler {
      type: "xavier"
    }
    bias_filler {
      type: "constant"
    }
  }
}
layer {
  name: "loss"
  type: "SoftmaxWithLoss"
  bottom: "ip2"
  bottom: "label"
  top: "loss"
}
I0210 21:21:22.357208 28656 layer_factory.hpp:77] Creating layer mnist
I0210 21:21:22.358919 28656 net.cpp:106] Creating Layer mnist
I0210 21:21:22.358963 28656 net.cpp:411] mnist -> data
I0210 21:21:22.359112 28656 net.cpp:411] mnist -> label
I0210 21:21:22.365020 28660 db_lmdb.cpp:38] Opened lmdb examples/mnist/mnist_train_lmdb
I0210 21:21:22.380677 28656 data_layer.cpp:41] output data size: 128,1,28,28
I0210 21:21:22.382985 28656 net.cpp:150] Setting up mnist
I0210 21:21:22.383008 28656 net.cpp:157] Top shape: 128 1 28 28 (100352)
I0210 21:21:22.383018 28656 net.cpp:157] Top shape: 128 (128)
I0210 21:21:22.383021 28656 net.cpp:165] Memory required for data: 401920
I0210 21:21:22.383035 28656 layer_factory.hpp:77] Creating layer conv1
I0210 21:21:22.383069 28656 net.cpp:106] Creating Layer conv1
I0210 21:21:22.383080 28656 net.cpp:454] conv1 <- data
I0210 21:21:22.383101 28656 net.cpp:411] conv1 -> conv1
I0210 21:21:22.384716 28656 net.cpp:150] Setting up conv1
I0210 21:21:22.384732 28656 net.cpp:157] Top shape: 128 20 24 24 (1474560)
I0210 21:21:22.384737 28656 net.cpp:165] Memory required for data: 6300160
I0210 21:21:22.384754 28656 layer_factory.hpp:77] Creating layer pool1
I0210 21:21:22.384773 28656 net.cpp:106] Creating Layer pool1
I0210 21:21:22.384779 28656 net.cpp:454] pool1 <- conv1
I0210 21:21:22.384788 28656 net.cpp:411] pool1 -> pool1
I0210 21:21:22.385015 28656 net.cpp:150] Setting up pool1
I0210 21:21:22.385027 28656 net.cpp:157] Top shape: 128 20 12 12 (368640)
I0210 21:21:22.385032 28656 net.cpp:165] Memory required for data: 7774720
I0210 21:21:22.385040 28656 layer_factory.hpp:77] Creating layer conv2
I0210 21:21:22.385059 28656 net.cpp:106] Creating Layer conv2
I0210 21:21:22.385066 28656 net.cpp:454] conv2 <- pool1
I0210 21:21:22.385076 28656 net.cpp:411] conv2 -> conv2
I0210 21:21:22.386494 28656 net.cpp:150] Setting up conv2
I0210 21:21:22.386509 28656 net.cpp:157] Top shape: 128 50 8 8 (409600)
I0210 21:21:22.386515 28656 net.cpp:165] Memory required for data: 9413120
I0210 21:21:22.386528 28656 layer_factory.hpp:77] Creating layer pool2
I0210 21:21:22.386551 28656 net.cpp:106] Creating Layer pool2
I0210 21:21:22.386559 28656 net.cpp:454] pool2 <- conv2
I0210 21:21:22.386569 28656 net.cpp:411] pool2 -> pool2
I0210 21:21:22.386775 28656 net.cpp:150] Setting up pool2
I0210 21:21:22.386787 28656 net.cpp:157] Top shape: 128 50 4 4 (102400)
I0210 21:21:22.386793 28656 net.cpp:165] Memory required for data: 9822720
I0210 21:21:22.386800 28656 layer_factory.hpp:77] Creating layer ip1
I0210 21:21:22.386816 28656 net.cpp:106] Creating Layer ip1
I0210 21:21:22.386823 28656 net.cpp:454] ip1 <- pool2
I0210 21:21:22.386836 28656 net.cpp:411] ip1 -> ip1
I0210 21:21:22.392333 28656 net.cpp:150] Setting up ip1
I0210 21:21:22.392349 28656 net.cpp:157] Top shape: 128 500 (64000)
I0210 21:21:22.392355 28656 net.cpp:165] Memory required for data: 10078720
I0210 21:21:22.392369 28656 layer_factory.hpp:77] Creating layer relu1
I0210 21:21:22.392379 28656 net.cpp:106] Creating Layer relu1
I0210 21:21:22.392386 28656 net.cpp:454] relu1 <- ip1
I0210 21:21:22.392400 28656 net.cpp:397] relu1 -> ip1 (in-place)
I0210 21:21:22.392412 28656 net.cpp:150] Setting up relu1
I0210 21:21:22.392421 28656 net.cpp:157] Top shape: 128 500 (64000)
I0210 21:21:22.392426 28656 net.cpp:165] Memory required for data: 10334720
I0210 21:21:22.392431 28656 layer_factory.hpp:77] Creating layer ip2
I0210 21:21:22.392442 28656 net.cpp:106] Creating Layer ip2
I0210 21:21:22.392448 28656 net.cpp:454] ip2 <- ip1
I0210 21:21:22.392460 28656 net.cpp:411] ip2 -> ip2
I0210 21:21:22.393584 28656 net.cpp:150] Setting up ip2
I0210 21:21:22.393599 28656 net.cpp:157] Top shape: 128 10 (1280)
I0210 21:21:22.393604 28656 net.cpp:165] Memory required for data: 10339840
I0210 21:21:22.393613 28656 layer_factory.hpp:77] Creating layer loss
I0210 21:21:22.393625 28656 net.cpp:106] Creating Layer loss
I0210 21:21:22.393630 28656 net.cpp:454] loss <- ip2
I0210 21:21:22.393636 28656 net.cpp:454] loss <- label
I0210 21:21:22.393646 28656 net.cpp:411] loss -> loss
I0210 21:21:22.393666 28656 layer_factory.hpp:77] Creating layer loss
…
I0210 21:21:22.395927 28656 solver.cpp:181] Creating test net (#0) specified by net file: examples/mnist/lenet_train_test.prototxt
I0210 21:21:22.395967 28656 net.cpp:322] The NetState phase (1) differed from the phase (0) specified by a rule in layer mnist
I0210 21:21:22.396137 28656 net.cpp:49] Initializing net from parameters: 
name: "LeNet"
state {
  phase: TEST
}
layer {
  name: "mnist"
  type: "Data"
  top: "data"
  top: "label"
  include {
    phase: TEST
  }
  transform_param {
    scale: 0.00390625
  }
  data_param {
    source: "examples/mnist/mnist_test_lmdb"
    batch_size: 100
    backend: LMDB
  }
}
layer {
  name: "conv1"
  type: "Convolution"
  bottom: "data"
  top: "conv1"
  param {
    lr_mult: 1
  }
  param {
    lr_mult: 2
  }
  convolution_param {
    num_output: 20
    kernel_size: 5
    stride: 1
    weight_filler {
      type: "xavier"
    }
    bias_filler {
      type: "constant"
    }
  }
}
layer {
  name: "pool1"
  type: "Pooling"
  bottom: "conv1"
  top: "pool1"
  pooling_param {
    pool: MAX
    kernel_size: 2
    stride: 2
  }
}
layer {
  name: "conv2"
  type: "Convolution"
  bottom: "pool1"
  top: "conv2"
  param {
    lr_mult: 1
  }
  param {
    lr_mult: 2
  }
  convolution_param {
    num_output: 50
    kernel_size: 5
    stride: 1
    weight_filler {
      type: "xavier"
    }
    bias_filler {
      type: "constant"
    }
  }
}
layer {
  name: "pool2"
  type: "Pooling"
  bottom: "conv2"
  top: "pool2"
  pooling_param {
    pool: MAX
    kernel_size: 2
    stride: 2
  }
}
layer {
  name: "ip1"
  type: "InnerProduct"
  bottom: "pool2"
  top: "ip1"
  param {
    lr_mult: 1
  }
  param {
    lr_mult: 2
  }
  inner_product_param {
    num_output: 500
    weight_filler {
      type: "xavier"
    }
    bias_filler {
      type: "constant"
    }
  }
}
layer {
  name: "relu1"
  type: "ReLU"
  bottom: "ip1"
  top: "ip1"
}
layer {
  name: "ip2"
  type: "InnerProduct"
  bottom: "ip1"
  top: "ip2"
  param {
    lr_mult: 1
  }
  param {
    lr_mult: 2
  }
  inner_product_param {
    num_output: 10
    weight_filler {
      type: "xavier"
    }
    bias_filler {
      type: "constant"
    }
  }
}
layer {
  name: "accuracy"
  type: "Accuracy"
  bottom: "ip2"
  bottom: "label"
  top: "accuracy"
  include {
    phase: TEST
  }
}
layer {
  name: "loss"
  type: "SoftmaxWithLoss"
  bottom: "ip2"
  bottom: "label"
  top: "loss"
}
I0210 21:21:22.396241 28656 layer_factory.hpp:77] Creating layer mnist
I0210 21:21:22.396381 28656 net.cpp:106] Creating Layer mnist
I0210 21:21:22.396394 28656 net.cpp:411] mnist -> data
I0210 21:21:22.396409 28656 net.cpp:411] mnist -> label
I0210 21:21:22.401319 28662 db_lmdb.cpp:38] Opened lmdb examples/mnist/mnist_test_lmdb
I0210 21:21:22.401640 28656 data_layer.cpp:41] output data size: 100,1,28,28
I0210 21:21:22.403645 28656 net.cpp:150] Setting up mnist
I0210 21:21:22.403683 28656 net.cpp:157] Top shape: 100 1 28 28 (78400)
I0210 21:21:22.403702 28656 net.cpp:157] Top shape: 100 (100)
I0210 21:21:22.403710 28656 net.cpp:165] Memory required for data: 314000
I0210 21:21:22.403722 28656 layer_factory.hpp:77] Creating layer label_mnist_1_split
I0210 21:21:22.403739 28656 net.cpp:106] Creating Layer label_mnist_1_split
I0210 21:21:22.403751 28656 net.cpp:454] label_mnist_1_split <- label
I0210 21:21:22.403766 28656 net.cpp:411] label_mnist_1_split -> label_mnist_1_split_0
I0210 21:21:22.403786 28656 net.cpp:411] label_mnist_1_split -> label_mnist_1_split_1
I0210 21:21:22.404009 28656 net.cpp:150] Setting up label_mnist_1_split
I0210 21:21:22.404032 28656 net.cpp:157] Top shape: 100 (100)
I0210 21:21:22.404044 28656 net.cpp:157] Top shape: 100 (100)
I0210 21:21:22.404054 28656 net.cpp:165] Memory required for data: 314800
I0210 21:21:22.404067 28656 layer_factory.hpp:77] Creating layer conv1
I0210 21:21:22.404098 28656 net.cpp:106] Creating Layer conv1
I0210 21:21:22.404112 28656 net.cpp:454] conv1 <- data
I0210 21:21:22.404135 28656 net.cpp:411] conv1 -> conv1
I0210 21:21:22.404620 28656 net.cpp:150] Setting up conv1
I0210 21:21:22.404645 28656 net.cpp:157] Top shape: 100 20 24 24 (1152000)
I0210 21:21:22.404656 28656 net.cpp:165] Memory required for data: 4922800
I0210 21:21:22.404680 28656 layer_factory.hpp:77] Creating layer pool1
I0210 21:21:22.404707 28656 net.cpp:106] Creating Layer pool1
I0210 21:21:22.404748 28656 net.cpp:454] pool1 <- conv1
I0210 21:21:22.404767 28656 net.cpp:411] pool1 -> pool1
I0210 21:21:22.405091 28656 net.cpp:150] Setting up pool1
I0210 21:21:22.405113 28656 net.cpp:157] Top shape: 100 20 12 12 (288000)
I0210 21:21:22.405127 28656 net.cpp:165] Memory required for data: 6074800
I0210 21:21:22.405143 28656 layer_factory.hpp:77] Creating layer conv2
I0210 21:21:22.405192 28656 net.cpp:106] Creating Layer conv2
I0210 21:21:22.405217 28656 net.cpp:454] conv2 <- pool1
I0210 21:21:22.405252 28656 net.cpp:411] conv2 -> conv2
I0210 21:21:22.406226 28656 net.cpp:150] Setting up conv2
I0210 21:21:22.406261 28656 net.cpp:157] Top shape: 100 50 8 8 (320000)
I0210 21:21:22.406271 28656 net.cpp:165] Memory required for data: 7354800
I0210 21:21:22.406292 28656 layer_factory.hpp:77] Creating layer pool2
I0210 21:21:22.406311 28656 net.cpp:106] Creating Layer pool2
I0210 21:21:22.406321 28656 net.cpp:454] pool2 <- conv2
I0210 21:21:22.406342 28656 net.cpp:411] pool2 -> pool2
I0210 21:21:22.406661 28656 net.cpp:150] Setting up pool2
I0210 21:21:22.406682 28656 net.cpp:157] Top shape: 100 50 4 4 (80000)
I0210 21:21:22.406693 28656 net.cpp:165] Memory required for data: 7674800
I0210 21:21:22.406709 28656 layer_factory.hpp:77] Creating layer ip1
I0210 21:21:22.406731 28656 net.cpp:106] Creating Layer ip1
I0210 21:21:22.406744 28656 net.cpp:454] ip1 <- pool2
I0210 21:21:22.406769 28656 net.cpp:411] ip1 -> ip1
I0210 21:21:22.414701 28656 net.cpp:150] Setting up ip1
I0210 21:21:22.414716 28656 net.cpp:157] Top shape: 100 500 (50000)
I0210 21:21:22.414721 28656 net.cpp:165] Memory required for data: 7874800
I0210 21:21:22.414732 28656 layer_factory.hpp:77] Creating layer relu1
I0210 21:21:22.414744 28656 net.cpp:106] Creating Layer relu1
I0210 21:21:22.414751 28656 net.cpp:454] relu1 <- ip1
I0210 21:21:22.414758 28656 net.cpp:397] relu1 -> ip1 (in-place)
I0210 21:21:22.414768 28656 net.cpp:150] Setting up relu1
I0210 21:21:22.414775 28656 net.cpp:157] Top shape: 100 500 (50000)
I0210 21:21:22.414780 28656 net.cpp:165] Memory required for data: 8074800
I0210 21:21:22.414785 28656 layer_factory.hpp:77] Creating layer ip2
I0210 21:21:22.414799 28656 net.cpp:106] Creating Layer ip2
I0210 21:21:22.414805 28656 net.cpp:454] ip2 <- ip1
I0210 21:21:22.414814 28656 net.cpp:411] ip2 -> ip2
I0210 21:21:22.414975 28656 net.cpp:150] Setting up ip2
I0210 21:21:22.414988 28656 net.cpp:157] Top shape: 100 10 (1000)
I0210 21:21:22.414993 28656 net.cpp:165] Memory required for data: 8078800
I0210 21:21:22.415001 28656 layer_factory.hpp:77] Creating layer ip2_ip2_0_split
I0210 21:21:22.415010 28656 net.cpp:106] Creating Layer ip2_ip2_0_split
I0210 21:21:22.415016 28656 net.cpp:454] ip2_ip2_0_split <- ip2
I0210 21:21:22.415032 28656 net.cpp:411] ip2_ip2_0_split -> ip2_ip2_0_split_0
I0210 21:21:22.415042 28656 net.cpp:411] ip2_ip2_0_split -> ip2_ip2_0_split_1
I0210 21:21:22.415086 28656 net.cpp:150] Setting up ip2_ip2_0_split
I0210 21:21:22.415096 28656 net.cpp:157] Top shape: 100 10 (1000)
I0210 21:21:22.415102 28656 net.cpp:157] Top shape: 100 10 (1000)
I0210 21:21:22.415107 28656 net.cpp:165] Memory required for data: 8086800
I0210 21:21:22.415112 28656 layer_factory.hpp:77] Creating layer accuracy
I0210 21:21:22.415128 28656 net.cpp:106] Creating Layer accuracy
I0210 21:21:22.415134 28656 net.cpp:454] accuracy <- ip2_ip2_0_split_0
I0210 21:21:22.415141 28656 net.cpp:454] accuracy <- label_mnist_1_split_0
I0210 21:21:22.415153 28656 net.cpp:411] accuracy -> accuracy
…
