…
I0210 21:27:01.741982 28998 net.cpp:322] The NetState phase (0) differed from the phase (1) specified by a rule in layer mnist
I0210 21:27:01.742045 28998 net.cpp:322] The NetState phase (0) differed from the phase (1) specified by a rule in layer accuracy
I0210 21:27:01.742333 28998 net.cpp:49] Initializing net from parameters: 
name: "LeNet"
state {
  phase: TRAIN
}
layer {
  name: "mnist"
  type: "Data"
  top: "data"
  top: "label"
  include {
    phase: TRAIN
  }
  transform_param {
    scale: 0.00390625
  }
  data_param {
    source: "examples/mnist/mnist_train_lmdb"
    batch_size: 26
    backend: LMDB
  }
}
layer {
  name: "conv1"
  type: "Convolution"
  bottom: "data"
  top: "conv1"
  param {
    lr_mult: 1
  }
  param {
    lr_mult: 2
  }
  convolution_param {
    num_output: 20
    kernel_size: 5
    stride: 1
    weight_filler {
      type: "xavier"
    }
    bias_filler {
      type: "constant"
    }
  }
}
layer {
  name: "pool1"
  type: "Pooling"
  bottom: "conv1"
  top: "pool1"
  pooling_param {
    pool: MAX
    kernel_size: 2
    stride: 2
  }
}
layer {
  name: "conv2"
  type: "Convolution"
  bottom: "pool1"
  top: "conv2"
  param {
    lr_mult: 1
  }
  param {
    lr_mult: 2
  }
  convolution_param {
    num_output: 50
    kernel_size: 5
    stride: 1
    weight_filler {
      type: "xavier"
    }
    bias_filler {
      type: "constant"
    }
  }
}
layer {
  name: "pool2"
  type: "Pooling"
  bottom: "conv2"
  top: "pool2"
  pooling_param {
    pool: MAX
    kernel_size: 2
    stride: 2
  }
}
layer {
  name: "ip1"
  type: "InnerProduct"
  bottom: "pool2"
  top: "ip1"
  param {
    lr_mult: 1
  }
  param {
    lr_mult: 2
  }
  inner_product_param {
    num_output: 500
    weight_filler {
      type: "xavier"
    }
    bias_filler {
      type: "constant"
    }
  }
}
layer {
  name: "relu1"
  type: "ReLU"
  bottom: "ip1"
  top: "ip1"
}
layer {
  name: "ip2"
  type: "InnerProduct"
  bottom: "ip1"
  top: "ip2"
  param {
    lr_mult: 1
  }
  param {
    lr_mult: 2
  }
  inner_product_param {
    num_output: 10
    weight_filler {
      type: "xavier"
    }
    bias_filler {
      type: "constant"
    }
  }
}
layer {
  name: "loss"
  type: "SoftmaxWithLoss"
  bottom: "ip2"
  bottom: "label"
  top: "loss"
}
I0210 21:27:01.742511 28998 layer_factory.hpp:77] Creating layer mnist
I0210 21:27:01.744053 28998 net.cpp:106] Creating Layer mnist
I0210 21:27:01.744125 28998 net.cpp:411] mnist -> data
I0210 21:27:01.744197 28998 net.cpp:411] mnist -> label
I0210 21:27:01.749308 29002 db_lmdb.cpp:38] Opened lmdb examples/mnist/mnist_train_lmdb
I0210 21:27:01.771040 28998 data_layer.cpp:41] output data size: 26,1,28,28
I0210 21:27:01.772325 28998 net.cpp:150] Setting up mnist
I0210 21:27:01.772364 28998 net.cpp:157] Top shape: 26 1 28 28 (20384)
I0210 21:27:01.772374 28998 net.cpp:157] Top shape: 26 (26)
I0210 21:27:01.772380 28998 net.cpp:165] Memory required for data: 81640
I0210 21:27:01.772395 28998 layer_factory.hpp:77] Creating layer conv1
I0210 21:27:01.772440 28998 net.cpp:106] Creating Layer conv1
I0210 21:27:01.772459 28998 net.cpp:454] conv1 <- data
I0210 21:27:01.772490 28998 net.cpp:411] conv1 -> conv1
I0210 21:27:01.773900 28998 net.cpp:150] Setting up conv1
I0210 21:27:01.773919 28998 net.cpp:157] Top shape: 26 20 24 24 (299520)
I0210 21:27:01.773924 28998 net.cpp:165] Memory required for data: 1279720
I0210 21:27:01.773941 28998 layer_factory.hpp:77] Creating layer pool1
I0210 21:27:01.773958 28998 net.cpp:106] Creating Layer pool1
I0210 21:27:01.773965 28998 net.cpp:454] pool1 <- conv1
I0210 21:27:01.773983 28998 net.cpp:411] pool1 -> pool1
I0210 21:27:01.774188 28998 net.cpp:150] Setting up pool1
I0210 21:27:01.774199 28998 net.cpp:157] Top shape: 26 20 12 12 (74880)
I0210 21:27:01.774204 28998 net.cpp:165] Memory required for data: 1579240
I0210 21:27:01.774211 28998 layer_factory.hpp:77] Creating layer conv2
I0210 21:27:01.774229 28998 net.cpp:106] Creating Layer conv2
I0210 21:27:01.774235 28998 net.cpp:454] conv2 <- pool1
I0210 21:27:01.774245 28998 net.cpp:411] conv2 -> conv2
I0210 21:27:01.774682 28998 net.cpp:150] Setting up conv2
I0210 21:27:01.774696 28998 net.cpp:157] Top shape: 26 50 8 8 (83200)
I0210 21:27:01.774703 28998 net.cpp:165] Memory required for data: 1912040
I0210 21:27:01.774723 28998 layer_factory.hpp:77] Creating layer pool2
I0210 21:27:01.774739 28998 net.cpp:106] Creating Layer pool2
I0210 21:27:01.774751 28998 net.cpp:454] pool2 <- conv2
I0210 21:27:01.774771 28998 net.cpp:411] pool2 -> pool2
I0210 21:27:01.775012 28998 net.cpp:150] Setting up pool2
I0210 21:27:01.775025 28998 net.cpp:157] Top shape: 26 50 4 4 (20800)
I0210 21:27:01.775030 28998 net.cpp:165] Memory required for data: 1995240
I0210 21:27:01.775035 28998 layer_factory.hpp:77] Creating layer ip1
I0210 21:27:01.775054 28998 net.cpp:106] Creating Layer ip1
I0210 21:27:01.775060 28998 net.cpp:454] ip1 <- pool2
I0210 21:27:01.775070 28998 net.cpp:411] ip1 -> ip1
I0210 21:27:01.776451 29003 blocking_queue.cpp:50] Waiting for data
I0210 21:27:01.779700 28998 net.cpp:150] Setting up ip1
I0210 21:27:01.779718 28998 net.cpp:157] Top shape: 26 500 (13000)
I0210 21:27:01.779722 28998 net.cpp:165] Memory required for data: 2047240
I0210 21:27:01.779736 28998 layer_factory.hpp:77] Creating layer relu1
I0210 21:27:01.779747 28998 net.cpp:106] Creating Layer relu1
I0210 21:27:01.779752 28998 net.cpp:454] relu1 <- ip1
I0210 21:27:01.779764 28998 net.cpp:397] relu1 -> ip1 (in-place)
I0210 21:27:01.779778 28998 net.cpp:150] Setting up relu1
I0210 21:27:01.779784 28998 net.cpp:157] Top shape: 26 500 (13000)
I0210 21:27:01.779789 28998 net.cpp:165] Memory required for data: 2099240
I0210 21:27:01.779794 28998 layer_factory.hpp:77] Creating layer ip2
I0210 21:27:01.779805 28998 net.cpp:106] Creating Layer ip2
I0210 21:27:01.779811 28998 net.cpp:454] ip2 <- ip1
I0210 21:27:01.779821 28998 net.cpp:411] ip2 -> ip2
I0210 21:27:01.780709 28998 net.cpp:150] Setting up ip2
I0210 21:27:01.780724 28998 net.cpp:157] Top shape: 26 10 (260)
I0210 21:27:01.780728 28998 net.cpp:165] Memory required for data: 2100280
I0210 21:27:01.780738 28998 layer_factory.hpp:77] Creating layer loss
I0210 21:27:01.780757 28998 net.cpp:106] Creating Layer loss
I0210 21:27:01.780776 28998 net.cpp:454] loss <- ip2
I0210 21:27:01.780787 28998 net.cpp:454] loss <- label
I0210 21:27:01.780802 28998 net.cpp:411] loss -> loss
I0210 21:27:01.780834 28998 layer_factory.hpp:77] Creating layer loss
…
I0210 21:27:01.782300 28998 solver.cpp:181] Creating test net (#0) specified by net file: examples/mnist/lenet_train_test.prototxt
I0210 21:27:01.782346 28998 net.cpp:322] The NetState phase (1) differed from the phase (0) specified by a rule in layer mnist
I0210 21:27:01.782516 28998 net.cpp:49] Initializing net from parameters: 
name: "LeNet"
state {
  phase: TEST
}
layer {
  name: "mnist"
  type: "Data"
  top: "data"
  top: "label"
  include {
    phase: TEST
  }
  transform_param {
    scale: 0.00390625
  }
  data_param {
    source: "examples/mnist/mnist_test_lmdb"
    batch_size: 100
    backend: LMDB
  }
}
layer {
  name: "conv1"
  type: "Convolution"
  bottom: "data"
  top: "conv1"
  param {
    lr_mult: 1
  }
  param {
    lr_mult: 2
  }
  convolution_param {
    num_output: 20
    kernel_size: 5
    stride: 1
    weight_filler {
      type: "xavier"
    }
    bias_filler {
      type: "constant"
    }
  }
}
layer {
  name: "pool1"
  type: "Pooling"
  bottom: "conv1"
  top: "pool1"
  pooling_param {
    pool: MAX
    kernel_size: 2
    stride: 2
  }
}
layer {
  name: "conv2"
  type: "Convolution"
  bottom: "pool1"
  top: "conv2"
  param {
    lr_mult: 1
  }
  param {
    lr_mult: 2
  }
  convolution_param {
    num_output: 50
    kernel_size: 5
    stride: 1
    weight_filler {
      type: "xavier"
    }
    bias_filler {
      type: "constant"
    }
  }
}
layer {
  name: "pool2"
  type: "Pooling"
  bottom: "conv2"
  top: "pool2"
  pooling_param {
    pool: MAX
    kernel_size: 2
    stride: 2
  }
}
layer {
  name: "ip1"
  type: "InnerProduct"
  bottom: "pool2"
  top: "ip1"
  param {
    lr_mult: 1
  }
  param {
    lr_mult: 2
  }
  inner_product_param {
    num_output: 500
    weight_filler {
      type: "xavier"
    }
    bias_filler {
      type: "constant"
    }
  }
}
layer {
  name: "relu1"
  type: "ReLU"
  bottom: "ip1"
  top: "ip1"
}
layer {
  name: "ip2"
  type: "InnerProduct"
  bottom: "ip1"
  top: "ip2"
  param {
    lr_mult: 1
  }
  param {
    lr_mult: 2
  }
  inner_product_param {
    num_output: 10
    weight_filler {
      type: "xavier"
    }
    bias_filler {
      type: "constant"
    }
  }
}
layer {
  name: "accuracy"
  type: "Accuracy"
  bottom: "ip2"
  bottom: "label"
  top: "accuracy"
  include {
    phase: TEST
  }
}
layer {
  name: "loss"
  type: "SoftmaxWithLoss"
  bottom: "ip2"
  bottom: "label"
  top: "loss"
}
I0210 21:27:01.782640 28998 layer_factory.hpp:77] Creating layer mnist
I0210 21:27:01.783334 28998 net.cpp:106] Creating Layer mnist
I0210 21:27:01.783350 28998 net.cpp:411] mnist -> data
I0210 21:27:01.783365 28998 net.cpp:411] mnist -> label
I0210 21:27:01.788208 29004 db_lmdb.cpp:38] Opened lmdb examples/mnist/mnist_test_lmdb
I0210 21:27:01.788516 28998 data_layer.cpp:41] output data size: 100,1,28,28
I0210 21:27:01.789988 28998 net.cpp:150] Setting up mnist
I0210 21:27:01.790004 28998 net.cpp:157] Top shape: 100 1 28 28 (78400)
I0210 21:27:01.790011 28998 net.cpp:157] Top shape: 100 (100)
I0210 21:27:01.790017 28998 net.cpp:165] Memory required for data: 314000
I0210 21:27:01.790024 28998 layer_factory.hpp:77] Creating layer label_mnist_1_split
I0210 21:27:01.790032 28998 net.cpp:106] Creating Layer label_mnist_1_split
I0210 21:27:01.790037 28998 net.cpp:454] label_mnist_1_split <- label
I0210 21:27:01.790048 28998 net.cpp:411] label_mnist_1_split -> label_mnist_1_split_0
I0210 21:27:01.790060 28998 net.cpp:411] label_mnist_1_split -> label_mnist_1_split_1
I0210 21:27:01.790213 28998 net.cpp:150] Setting up label_mnist_1_split
I0210 21:27:01.790241 28998 net.cpp:157] Top shape: 100 (100)
I0210 21:27:01.790247 28998 net.cpp:157] Top shape: 100 (100)
I0210 21:27:01.790252 28998 net.cpp:165] Memory required for data: 314800
I0210 21:27:01.790259 28998 layer_factory.hpp:77] Creating layer conv1
I0210 21:27:01.790278 28998 net.cpp:106] Creating Layer conv1
I0210 21:27:01.790285 28998 net.cpp:454] conv1 <- data
I0210 21:27:01.790295 28998 net.cpp:411] conv1 -> conv1
I0210 21:27:01.790549 28998 net.cpp:150] Setting up conv1
I0210 21:27:01.790562 28998 net.cpp:157] Top shape: 100 20 24 24 (1152000)
I0210 21:27:01.790567 28998 net.cpp:165] Memory required for data: 4922800
I0210 21:27:01.790580 28998 layer_factory.hpp:77] Creating layer pool1
I0210 21:27:01.790591 28998 net.cpp:106] Creating Layer pool1
I0210 21:27:01.790616 28998 net.cpp:454] pool1 <- conv1
I0210 21:27:01.790630 28998 net.cpp:411] pool1 -> pool1
I0210 21:27:01.790783 28998 net.cpp:150] Setting up pool1
I0210 21:27:01.790794 28998 net.cpp:157] Top shape: 100 20 12 12 (288000)
I0210 21:27:01.790799 28998 net.cpp:165] Memory required for data: 6074800
I0210 21:27:01.790804 28998 layer_factory.hpp:77] Creating layer conv2
I0210 21:27:01.790819 28998 net.cpp:106] Creating Layer conv2
I0210 21:27:01.790827 28998 net.cpp:454] conv2 <- pool1
I0210 21:27:01.790838 28998 net.cpp:411] conv2 -> conv2
I0210 21:27:01.791283 28998 net.cpp:150] Setting up conv2
I0210 21:27:01.791296 28998 net.cpp:157] Top shape: 100 50 8 8 (320000)
I0210 21:27:01.791302 28998 net.cpp:165] Memory required for data: 7354800
I0210 21:27:01.791319 28998 layer_factory.hpp:77] Creating layer pool2
I0210 21:27:01.791334 28998 net.cpp:106] Creating Layer pool2
I0210 21:27:01.791345 28998 net.cpp:454] pool2 <- conv2
I0210 21:27:01.791368 28998 net.cpp:411] pool2 -> pool2
I0210 21:27:01.791564 28998 net.cpp:150] Setting up pool2
I0210 21:27:01.791579 28998 net.cpp:157] Top shape: 100 50 4 4 (80000)
I0210 21:27:01.791584 28998 net.cpp:165] Memory required for data: 7674800
I0210 21:27:01.791589 28998 layer_factory.hpp:77] Creating layer ip1
I0210 21:27:01.791601 28998 net.cpp:106] Creating Layer ip1
I0210 21:27:01.791609 28998 net.cpp:454] ip1 <- pool2
I0210 21:27:01.791617 28998 net.cpp:411] ip1 -> ip1
I0210 21:27:01.798802 28998 net.cpp:150] Setting up ip1
I0210 21:27:01.798825 28998 net.cpp:157] Top shape: 100 500 (50000)
I0210 21:27:01.798832 28998 net.cpp:165] Memory required for data: 7874800
I0210 21:27:01.798849 28998 layer_factory.hpp:77] Creating layer relu1
I0210 21:27:01.798864 28998 net.cpp:106] Creating Layer relu1
I0210 21:27:01.798876 28998 net.cpp:454] relu1 <- ip1
I0210 21:27:01.798887 28998 net.cpp:397] relu1 -> ip1 (in-place)
I0210 21:27:01.798908 28998 net.cpp:150] Setting up relu1
I0210 21:27:01.798919 28998 net.cpp:157] Top shape: 100 500 (50000)
I0210 21:27:01.798928 28998 net.cpp:165] Memory required for data: 8074800
I0210 21:27:01.798934 28998 layer_factory.hpp:77] Creating layer ip2
I0210 21:27:01.798952 28998 net.cpp:106] Creating Layer ip2
I0210 21:27:01.798961 28998 net.cpp:454] ip2 <- ip1
I0210 21:27:01.798974 28998 net.cpp:411] ip2 -> ip2
I0210 21:27:01.799190 28998 net.cpp:150] Setting up ip2
I0210 21:27:01.799206 28998 net.cpp:157] Top shape: 100 10 (1000)
I0210 21:27:01.799213 28998 net.cpp:165] Memory required for data: 8078800
I0210 21:27:01.799227 28998 layer_factory.hpp:77] Creating layer ip2_ip2_0_split
I0210 21:27:01.799242 28998 net.cpp:106] Creating Layer ip2_ip2_0_split
I0210 21:27:01.799252 28998 net.cpp:454] ip2_ip2_0_split <- ip2
I0210 21:27:01.799263 28998 net.cpp:411] ip2_ip2_0_split -> ip2_ip2_0_split_0
I0210 21:27:01.799276 28998 net.cpp:411] ip2_ip2_0_split -> ip2_ip2_0_split_1
I0210 21:27:01.799337 28998 net.cpp:150] Setting up ip2_ip2_0_split
I0210 21:27:01.799351 28998 net.cpp:157] Top shape: 100 10 (1000)
I0210 21:27:01.799361 28998 net.cpp:157] Top shape: 100 10 (1000)
I0210 21:27:01.799370 28998 net.cpp:165] Memory required for data: 8086800
I0210 21:27:01.799377 28998 layer_factory.hpp:77] Creating layer accuracy
I0210 21:27:01.799396 28998 net.cpp:106] Creating Layer accuracy
I0210 21:27:01.799404 28998 net.cpp:454] accuracy <- ip2_ip2_0_split_0
I0210 21:27:01.799414 28998 net.cpp:454] accuracy <- label_mnist_1_split_0
I0210 21:27:01.799430 28998 net.cpp:411] accuracy -> accuracy
…
