…
I0210 21:25:47.746037 28839 net.cpp:322] The NetState phase (0) differed from the phase (1) specified by a rule in layer mnist
I0210 21:25:47.746065 28839 net.cpp:322] The NetState phase (0) differed from the phase (1) specified by a rule in layer accuracy
I0210 21:25:47.746206 28839 net.cpp:49] Initializing net from parameters: 
name: "LeNet"
state {
  phase: TRAIN
}
layer {
  name: "mnist"
  type: "Data"
  top: "data"
  top: "label"
  include {
    phase: TRAIN
  }
  transform_param {
    scale: 0.00390625
  }
  data_param {
    source: "examples/mnist/mnist_train_lmdb"
    batch_size: 32
    backend: LMDB
  }
}
layer {
  name: "conv1"
  type: "Convolution"
  bottom: "data"
  top: "conv1"
  param {
    lr_mult: 1
  }
  param {
    lr_mult: 2
  }
  convolution_param {
    num_output: 20
    kernel_size: 5
    stride: 1
    weight_filler {
      type: "xavier"
    }
    bias_filler {
      type: "constant"
    }
  }
}
layer {
  name: "pool1"
  type: "Pooling"
  bottom: "conv1"
  top: "pool1"
  pooling_param {
    pool: MAX
    kernel_size: 2
    stride: 2
  }
}
layer {
  name: "conv2"
  type: "Convolution"
  bottom: "pool1"
  top: "conv2"
  param {
    lr_mult: 1
  }
  param {
    lr_mult: 2
  }
  convolution_param {
    num_output: 50
    kernel_size: 5
    stride: 1
    weight_filler {
      type: "xavier"
    }
    bias_filler {
      type: "constant"
    }
  }
}
layer {
  name: "pool2"
  type: "Pooling"
  bottom: "conv2"
  top: "pool2"
  pooling_param {
    pool: MAX
    kernel_size: 2
    stride: 2
  }
}
layer {
  name: "ip1"
  type: "InnerProduct"
  bottom: "pool2"
  top: "ip1"
  param {
    lr_mult: 1
  }
  param {
    lr_mult: 2
  }
  inner_product_param {
    num_output: 500
    weight_filler {
      type: "xavier"
    }
    bias_filler {
      type: "constant"
    }
  }
}
layer {
  name: "relu1"
  type: "ReLU"
  bottom: "ip1"
  top: "ip1"
}
layer {
  name: "ip2"
  type: "InnerProduct"
  bottom: "ip1"
  top: "ip2"
  param {
    lr_mult: 1
  }
  param {
    lr_mult: 2
  }
  inner_product_param {
    num_output: 10
    weight_filler {
      type: "xavier"
    }
    bias_filler {
      type: "constant"
    }
  }
}
layer {
  name: "loss"
  type: "SoftmaxWithLoss"
  bottom: "ip2"
  bottom: "label"
  top: "loss"
}
I0210 21:25:47.746295 28839 layer_factory.hpp:77] Creating layer mnist
I0210 21:25:47.747270 28839 net.cpp:106] Creating Layer mnist
I0210 21:25:47.747308 28839 net.cpp:411] mnist -> data
I0210 21:25:47.747421 28839 net.cpp:411] mnist -> label
I0210 21:25:47.752635 28843 db_lmdb.cpp:38] Opened lmdb examples/mnist/mnist_train_lmdb
I0210 21:25:47.771627 28839 data_layer.cpp:41] output data size: 32,1,28,28
I0210 21:25:47.772958 28839 net.cpp:150] Setting up mnist
I0210 21:25:47.772981 28839 net.cpp:157] Top shape: 32 1 28 28 (25088)
I0210 21:25:47.772996 28839 net.cpp:157] Top shape: 32 (32)
I0210 21:25:47.773005 28839 net.cpp:165] Memory required for data: 100480
I0210 21:25:47.773023 28839 layer_factory.hpp:77] Creating layer conv1
I0210 21:25:47.773059 28839 net.cpp:106] Creating Layer conv1
I0210 21:25:47.773072 28839 net.cpp:454] conv1 <- data
I0210 21:25:47.773108 28839 net.cpp:411] conv1 -> conv1
I0210 21:25:47.774372 28839 net.cpp:150] Setting up conv1
I0210 21:25:47.774387 28839 net.cpp:157] Top shape: 32 20 24 24 (368640)
I0210 21:25:47.774392 28839 net.cpp:165] Memory required for data: 1575040
I0210 21:25:47.774410 28839 layer_factory.hpp:77] Creating layer pool1
I0210 21:25:47.774427 28839 net.cpp:106] Creating Layer pool1
I0210 21:25:47.774435 28839 net.cpp:454] pool1 <- conv1
I0210 21:25:47.774442 28839 net.cpp:411] pool1 -> pool1
I0210 21:25:47.774641 28839 net.cpp:150] Setting up pool1
I0210 21:25:47.774653 28839 net.cpp:157] Top shape: 32 20 12 12 (92160)
I0210 21:25:47.774659 28839 net.cpp:165] Memory required for data: 1943680
I0210 21:25:47.774664 28839 layer_factory.hpp:77] Creating layer conv2
I0210 21:25:47.774679 28839 net.cpp:106] Creating Layer conv2
I0210 21:25:47.774688 28839 net.cpp:454] conv2 <- pool1
I0210 21:25:47.774698 28839 net.cpp:411] conv2 -> conv2
I0210 21:25:47.775210 28839 net.cpp:150] Setting up conv2
I0210 21:25:47.775223 28839 net.cpp:157] Top shape: 32 50 8 8 (102400)
I0210 21:25:47.775228 28839 net.cpp:165] Memory required for data: 2353280
I0210 21:25:47.775240 28839 layer_factory.hpp:77] Creating layer pool2
I0210 21:25:47.775254 28839 net.cpp:106] Creating Layer pool2
I0210 21:25:47.775260 28839 net.cpp:454] pool2 <- conv2
I0210 21:25:47.775269 28839 net.cpp:411] pool2 -> pool2
I0210 21:25:47.775447 28839 net.cpp:150] Setting up pool2
I0210 21:25:47.775462 28839 net.cpp:157] Top shape: 32 50 4 4 (25600)
I0210 21:25:47.775467 28839 net.cpp:165] Memory required for data: 2455680
I0210 21:25:47.775472 28839 layer_factory.hpp:77] Creating layer ip1
I0210 21:25:47.775490 28839 net.cpp:106] Creating Layer ip1
I0210 21:25:47.775497 28839 net.cpp:454] ip1 <- pool2
I0210 21:25:47.775508 28839 net.cpp:411] ip1 -> ip1
I0210 21:25:47.777847 28844 blocking_queue.cpp:50] Waiting for data
I0210 21:25:47.780076 28839 net.cpp:150] Setting up ip1
I0210 21:25:47.780093 28839 net.cpp:157] Top shape: 32 500 (16000)
I0210 21:25:47.780097 28839 net.cpp:165] Memory required for data: 2519680
I0210 21:25:47.780109 28839 layer_factory.hpp:77] Creating layer relu1
I0210 21:25:47.780124 28839 net.cpp:106] Creating Layer relu1
I0210 21:25:47.780131 28839 net.cpp:454] relu1 <- ip1
I0210 21:25:47.780140 28839 net.cpp:397] relu1 -> ip1 (in-place)
I0210 21:25:47.780153 28839 net.cpp:150] Setting up relu1
I0210 21:25:47.780160 28839 net.cpp:157] Top shape: 32 500 (16000)
I0210 21:25:47.780165 28839 net.cpp:165] Memory required for data: 2583680
I0210 21:25:47.780171 28839 layer_factory.hpp:77] Creating layer ip2
I0210 21:25:47.780180 28839 net.cpp:106] Creating Layer ip2
I0210 21:25:47.780186 28839 net.cpp:454] ip2 <- ip1
I0210 21:25:47.780197 28839 net.cpp:411] ip2 -> ip2
I0210 21:25:47.781108 28839 net.cpp:150] Setting up ip2
I0210 21:25:47.781122 28839 net.cpp:157] Top shape: 32 10 (320)
I0210 21:25:47.781126 28839 net.cpp:165] Memory required for data: 2584960
I0210 21:25:47.781136 28839 layer_factory.hpp:77] Creating layer loss
I0210 21:25:47.781149 28839 net.cpp:106] Creating Layer loss
I0210 21:25:47.781154 28839 net.cpp:454] loss <- ip2
I0210 21:25:47.781162 28839 net.cpp:454] loss <- label
I0210 21:25:47.781169 28839 net.cpp:411] loss -> loss
I0210 21:25:47.781198 28839 layer_factory.hpp:77] Creating layer loss
…
I0210 21:25:47.782486 28839 solver.cpp:181] Creating test net (#0) specified by net file: examples/mnist/lenet_train_test.prototxt
I0210 21:25:47.782526 28839 net.cpp:322] The NetState phase (1) differed from the phase (0) specified by a rule in layer mnist
I0210 21:25:47.782706 28839 net.cpp:49] Initializing net from parameters: 
name: "LeNet"
state {
  phase: TEST
}
layer {
  name: "mnist"
  type: "Data"
  top: "data"
  top: "label"
  include {
    phase: TEST
  }
  transform_param {
    scale: 0.00390625
  }
  data_param {
    source: "examples/mnist/mnist_test_lmdb"
    batch_size: 100
    backend: LMDB
  }
}
layer {
  name: "conv1"
  type: "Convolution"
  bottom: "data"
  top: "conv1"
  param {
    lr_mult: 1
  }
  param {
    lr_mult: 2
  }
  convolution_param {
    num_output: 20
    kernel_size: 5
    stride: 1
    weight_filler {
      type: "xavier"
    }
    bias_filler {
      type: "constant"
    }
  }
}
layer {
  name: "pool1"
  type: "Pooling"
  bottom: "conv1"
  top: "pool1"
  pooling_param {
    pool: MAX
    kernel_size: 2
    stride: 2
  }
}
layer {
  name: "conv2"
  type: "Convolution"
  bottom: "pool1"
  top: "conv2"
  param {
    lr_mult: 1
  }
  param {
    lr_mult: 2
  }
  convolution_param {
    num_output: 50
    kernel_size: 5
    stride: 1
    weight_filler {
      type: "xavier"
    }
    bias_filler {
      type: "constant"
    }
  }
}
layer {
  name: "pool2"
  type: "Pooling"
  bottom: "conv2"
  top: "pool2"
  pooling_param {
    pool: MAX
    kernel_size: 2
    stride: 2
  }
}
layer {
  name: "ip1"
  type: "InnerProduct"
  bottom: "pool2"
  top: "ip1"
  param {
    lr_mult: 1
  }
  param {
    lr_mult: 2
  }
  inner_product_param {
    num_output: 500
    weight_filler {
      type: "xavier"
    }
    bias_filler {
      type: "constant"
    }
  }
}
layer {
  name: "relu1"
  type: "ReLU"
  bottom: "ip1"
  top: "ip1"
}
layer {
  name: "ip2"
  type: "InnerProduct"
  bottom: "ip1"
  top: "ip2"
  param {
    lr_mult: 1
  }
  param {
    lr_mult: 2
  }
  inner_product_param {
    num_output: 10
    weight_filler {
      type: "xavier"
    }
    bias_filler {
      type: "constant"
    }
  }
}
layer {
  name: "accuracy"
  type: "Accuracy"
  bottom: "ip2"
  bottom: "label"
  top: "accuracy"
  include {
    phase: TEST
  }
}
layer {
  name: "loss"
  type: "SoftmaxWithLoss"
  bottom: "ip2"
  bottom: "label"
  top: "loss"
}
I0210 21:25:47.782805 28839 layer_factory.hpp:77] Creating layer mnist
I0210 21:25:47.782956 28839 net.cpp:106] Creating Layer mnist
I0210 21:25:47.782971 28839 net.cpp:411] mnist -> data
I0210 21:25:47.782986 28839 net.cpp:411] mnist -> label
I0210 21:25:47.787761 28845 db_lmdb.cpp:38] Opened lmdb examples/mnist/mnist_test_lmdb
I0210 21:25:47.788125 28839 data_layer.cpp:41] output data size: 100,1,28,28
I0210 21:25:47.789634 28839 net.cpp:150] Setting up mnist
I0210 21:25:47.789650 28839 net.cpp:157] Top shape: 100 1 28 28 (78400)
I0210 21:25:47.789657 28839 net.cpp:157] Top shape: 100 (100)
I0210 21:25:47.789665 28839 net.cpp:165] Memory required for data: 314000
I0210 21:25:47.789675 28839 layer_factory.hpp:77] Creating layer label_mnist_1_split
I0210 21:25:47.789688 28839 net.cpp:106] Creating Layer label_mnist_1_split
I0210 21:25:47.789695 28839 net.cpp:454] label_mnist_1_split <- label
I0210 21:25:47.789703 28839 net.cpp:411] label_mnist_1_split -> label_mnist_1_split_0
I0210 21:25:47.789713 28839 net.cpp:411] label_mnist_1_split -> label_mnist_1_split_1
I0210 21:25:47.789818 28839 net.cpp:150] Setting up label_mnist_1_split
I0210 21:25:47.789829 28839 net.cpp:157] Top shape: 100 (100)
I0210 21:25:47.789836 28839 net.cpp:157] Top shape: 100 (100)
I0210 21:25:47.789841 28839 net.cpp:165] Memory required for data: 314800
I0210 21:25:47.789847 28839 layer_factory.hpp:77] Creating layer conv1
I0210 21:25:47.789878 28839 net.cpp:106] Creating Layer conv1
I0210 21:25:47.789885 28839 net.cpp:454] conv1 <- data
I0210 21:25:47.789902 28839 net.cpp:411] conv1 -> conv1
I0210 21:25:47.790141 28839 net.cpp:150] Setting up conv1
I0210 21:25:47.790154 28839 net.cpp:157] Top shape: 100 20 24 24 (1152000)
I0210 21:25:47.790159 28839 net.cpp:165] Memory required for data: 4922800
I0210 21:25:47.790172 28839 layer_factory.hpp:77] Creating layer pool1
I0210 21:25:47.790204 28839 net.cpp:106] Creating Layer pool1
I0210 21:25:47.790210 28839 net.cpp:454] pool1 <- conv1
I0210 21:25:47.790218 28839 net.cpp:411] pool1 -> pool1
I0210 21:25:47.790369 28839 net.cpp:150] Setting up pool1
I0210 21:25:47.790380 28839 net.cpp:157] Top shape: 100 20 12 12 (288000)
I0210 21:25:47.790385 28839 net.cpp:165] Memory required for data: 6074800
I0210 21:25:47.790391 28839 layer_factory.hpp:77] Creating layer conv2
I0210 21:25:47.790406 28839 net.cpp:106] Creating Layer conv2
I0210 21:25:47.790413 28839 net.cpp:454] conv2 <- pool1
I0210 21:25:47.790424 28839 net.cpp:411] conv2 -> conv2
I0210 21:25:47.790889 28839 net.cpp:150] Setting up conv2
I0210 21:25:47.790904 28839 net.cpp:157] Top shape: 100 50 8 8 (320000)
I0210 21:25:47.790910 28839 net.cpp:165] Memory required for data: 7354800
I0210 21:25:47.790920 28839 layer_factory.hpp:77] Creating layer pool2
I0210 21:25:47.790932 28839 net.cpp:106] Creating Layer pool2
I0210 21:25:47.790937 28839 net.cpp:454] pool2 <- conv2
I0210 21:25:47.790945 28839 net.cpp:411] pool2 -> pool2
I0210 21:25:47.791095 28839 net.cpp:150] Setting up pool2
I0210 21:25:47.791105 28839 net.cpp:157] Top shape: 100 50 4 4 (80000)
I0210 21:25:47.791111 28839 net.cpp:165] Memory required for data: 7674800
I0210 21:25:47.791116 28839 layer_factory.hpp:77] Creating layer ip1
I0210 21:25:47.791128 28839 net.cpp:106] Creating Layer ip1
I0210 21:25:47.791136 28839 net.cpp:454] ip1 <- pool2
I0210 21:25:47.791146 28839 net.cpp:411] ip1 -> ip1
I0210 21:25:47.796272 28839 net.cpp:150] Setting up ip1
I0210 21:25:47.796304 28839 net.cpp:157] Top shape: 100 500 (50000)
I0210 21:25:47.796313 28839 net.cpp:165] Memory required for data: 7874800
I0210 21:25:47.796341 28839 layer_factory.hpp:77] Creating layer relu1
I0210 21:25:47.796355 28839 net.cpp:106] Creating Layer relu1
I0210 21:25:47.796362 28839 net.cpp:454] relu1 <- ip1
I0210 21:25:47.796370 28839 net.cpp:397] relu1 -> ip1 (in-place)
I0210 21:25:47.796382 28839 net.cpp:150] Setting up relu1
I0210 21:25:47.796389 28839 net.cpp:157] Top shape: 100 500 (50000)
I0210 21:25:47.796394 28839 net.cpp:165] Memory required for data: 8074800
I0210 21:25:47.796399 28839 layer_factory.hpp:77] Creating layer ip2
I0210 21:25:47.796414 28839 net.cpp:106] Creating Layer ip2
I0210 21:25:47.796422 28839 net.cpp:454] ip2 <- ip1
I0210 21:25:47.796432 28839 net.cpp:411] ip2 -> ip2
I0210 21:25:47.796617 28839 net.cpp:150] Setting up ip2
I0210 21:25:47.796636 28839 net.cpp:157] Top shape: 100 10 (1000)
I0210 21:25:47.796644 28839 net.cpp:165] Memory required for data: 8078800
I0210 21:25:47.796671 28839 layer_factory.hpp:77] Creating layer ip2_ip2_0_split
I0210 21:25:47.796681 28839 net.cpp:106] Creating Layer ip2_ip2_0_split
I0210 21:25:47.796687 28839 net.cpp:454] ip2_ip2_0_split <- ip2
I0210 21:25:47.796695 28839 net.cpp:411] ip2_ip2_0_split -> ip2_ip2_0_split_0
I0210 21:25:47.796705 28839 net.cpp:411] ip2_ip2_0_split -> ip2_ip2_0_split_1
I0210 21:25:47.796749 28839 net.cpp:150] Setting up ip2_ip2_0_split
I0210 21:25:47.796758 28839 net.cpp:157] Top shape: 100 10 (1000)
I0210 21:25:47.796766 28839 net.cpp:157] Top shape: 100 10 (1000)
I0210 21:25:47.796771 28839 net.cpp:165] Memory required for data: 8086800
I0210 21:25:47.796777 28839 layer_factory.hpp:77] Creating layer accuracy
I0210 21:25:47.796794 28839 net.cpp:106] Creating Layer accuracy
I0210 21:25:47.796802 28839 net.cpp:454] accuracy <- ip2_ip2_0_split_0
I0210 21:25:47.796808 28839 net.cpp:454] accuracy <- label_mnist_1_split_0
I0210 21:25:47.796816 28839 net.cpp:411] accuracy -> accuracy
…
