…
I0210 21:24:46.382235 28772 net.cpp:322] The NetState phase (0) differed from the phase (1) specified by a rule in layer mnist
I0210 21:24:46.382268 28772 net.cpp:322] The NetState phase (0) differed from the phase (1) specified by a rule in layer accuracy
I0210 21:24:46.382521 28772 net.cpp:49] Initializing net from parameters: 
name: "LeNet"
state {
  phase: TRAIN
}
layer {
  name: "mnist"
  type: "Data"
  top: "data"
  top: "label"
  include {
    phase: TRAIN
  }
  transform_param {
    scale: 0.00390625
  }
  data_param {
    source: "examples/mnist/mnist_train_lmdb"
    batch_size: 43
    backend: LMDB
  }
}
layer {
  name: "conv1"
  type: "Convolution"
  bottom: "data"
  top: "conv1"
  param {
    lr_mult: 1
  }
  param {
    lr_mult: 2
  }
  convolution_param {
    num_output: 20
    kernel_size: 5
    stride: 1
    weight_filler {
      type: "xavier"
    }
    bias_filler {
      type: "constant"
    }
  }
}
layer {
  name: "pool1"
  type: "Pooling"
  bottom: "conv1"
  top: "pool1"
  pooling_param {
    pool: MAX
    kernel_size: 2
    stride: 2
  }
}
layer {
  name: "conv2"
  type: "Convolution"
  bottom: "pool1"
  top: "conv2"
  param {
    lr_mult: 1
  }
  param {
    lr_mult: 2
  }
  convolution_param {
    num_output: 50
    kernel_size: 5
    stride: 1
    weight_filler {
      type: "xavier"
    }
    bias_filler {
      type: "constant"
    }
  }
}
layer {
  name: "pool2"
  type: "Pooling"
  bottom: "conv2"
  top: "pool2"
  pooling_param {
    pool: MAX
    kernel_size: 2
    stride: 2
  }
}
layer {
  name: "ip1"
  type: "InnerProduct"
  bottom: "pool2"
  top: "ip1"
  param {
    lr_mult: 1
  }
  param {
    lr_mult: 2
  }
  inner_product_param {
    num_output: 500
    weight_filler {
      type: "xavier"
    }
    bias_filler {
      type: "constant"
    }
  }
}
layer {
  name: "relu1"
  type: "ReLU"
  bottom: "ip1"
  top: "ip1"
}
layer {
  name: "ip2"
  type: "InnerProduct"
  bottom: "ip1"
  top: "ip2"
  param {
    lr_mult: 1
  }
  param {
    lr_mult: 2
  }
  inner_product_param {
    num_output: 10
    weight_filler {
      type: "xavier"
    }
    bias_filler {
      type: "constant"
    }
  }
}
layer {
  name: "loss"
  type: "SoftmaxWithLoss"
  bottom: "ip2"
  bottom: "label"
  top: "loss"
}
I0210 21:24:46.382664 28772 layer_factory.hpp:77] Creating layer mnist
I0210 21:24:46.383535 28772 net.cpp:106] Creating Layer mnist
I0210 21:24:46.383556 28772 net.cpp:411] mnist -> data
I0210 21:24:46.383594 28772 net.cpp:411] mnist -> label
I0210 21:24:46.389209 28776 db_lmdb.cpp:38] Opened lmdb examples/mnist/mnist_train_lmdb
I0210 21:24:46.409106 28772 data_layer.cpp:41] output data size: 43,1,28,28
I0210 21:24:46.410483 28772 net.cpp:150] Setting up mnist
I0210 21:24:46.410506 28772 net.cpp:157] Top shape: 43 1 28 28 (33712)
I0210 21:24:46.410513 28772 net.cpp:157] Top shape: 43 (43)
I0210 21:24:46.410517 28772 net.cpp:165] Memory required for data: 135020
I0210 21:24:46.410531 28772 layer_factory.hpp:77] Creating layer conv1
I0210 21:24:46.410576 28772 net.cpp:106] Creating Layer conv1
I0210 21:24:46.410591 28772 net.cpp:454] conv1 <- data
I0210 21:24:46.410614 28772 net.cpp:411] conv1 -> conv1
I0210 21:24:46.412178 28772 net.cpp:150] Setting up conv1
I0210 21:24:46.412192 28772 net.cpp:157] Top shape: 43 20 24 24 (495360)
I0210 21:24:46.412197 28772 net.cpp:165] Memory required for data: 2116460
I0210 21:24:46.412214 28772 layer_factory.hpp:77] Creating layer pool1
I0210 21:24:46.412231 28772 net.cpp:106] Creating Layer pool1
I0210 21:24:46.412238 28772 net.cpp:454] pool1 <- conv1
I0210 21:24:46.412250 28772 net.cpp:411] pool1 -> pool1
I0210 21:24:46.412451 28772 net.cpp:150] Setting up pool1
I0210 21:24:46.412463 28772 net.cpp:157] Top shape: 43 20 12 12 (123840)
I0210 21:24:46.412469 28772 net.cpp:165] Memory required for data: 2611820
I0210 21:24:46.412474 28772 layer_factory.hpp:77] Creating layer conv2
I0210 21:24:46.412490 28772 net.cpp:106] Creating Layer conv2
I0210 21:24:46.412497 28772 net.cpp:454] conv2 <- pool1
I0210 21:24:46.412506 28772 net.cpp:411] conv2 -> conv2
I0210 21:24:46.412968 28772 net.cpp:150] Setting up conv2
I0210 21:24:46.412982 28772 net.cpp:157] Top shape: 43 50 8 8 (137600)
I0210 21:24:46.412987 28772 net.cpp:165] Memory required for data: 3162220
I0210 21:24:46.412997 28772 layer_factory.hpp:77] Creating layer pool2
I0210 21:24:46.413007 28772 net.cpp:106] Creating Layer pool2
I0210 21:24:46.413015 28772 net.cpp:454] pool2 <- conv2
I0210 21:24:46.413023 28772 net.cpp:411] pool2 -> pool2
I0210 21:24:46.413172 28772 net.cpp:150] Setting up pool2
I0210 21:24:46.413182 28772 net.cpp:157] Top shape: 43 50 4 4 (34400)
I0210 21:24:46.413187 28772 net.cpp:165] Memory required for data: 3299820
I0210 21:24:46.413193 28772 layer_factory.hpp:77] Creating layer ip1
I0210 21:24:46.413208 28772 net.cpp:106] Creating Layer ip1
I0210 21:24:46.413215 28772 net.cpp:454] ip1 <- pool2
I0210 21:24:46.413228 28772 net.cpp:411] ip1 -> ip1
I0210 21:24:46.414650 28777 blocking_queue.cpp:50] Waiting for data
I0210 21:24:46.417925 28772 net.cpp:150] Setting up ip1
I0210 21:24:46.417942 28772 net.cpp:157] Top shape: 43 500 (21500)
I0210 21:24:46.417946 28772 net.cpp:165] Memory required for data: 3385820
I0210 21:24:46.417958 28772 layer_factory.hpp:77] Creating layer relu1
I0210 21:24:46.417968 28772 net.cpp:106] Creating Layer relu1
I0210 21:24:46.417973 28772 net.cpp:454] relu1 <- ip1
I0210 21:24:46.417979 28772 net.cpp:397] relu1 -> ip1 (in-place)
I0210 21:24:46.417991 28772 net.cpp:150] Setting up relu1
I0210 21:24:46.417999 28772 net.cpp:157] Top shape: 43 500 (21500)
I0210 21:24:46.418004 28772 net.cpp:165] Memory required for data: 3471820
I0210 21:24:46.418009 28772 layer_factory.hpp:77] Creating layer ip2
I0210 21:24:46.418021 28772 net.cpp:106] Creating Layer ip2
I0210 21:24:46.418027 28772 net.cpp:454] ip2 <- ip1
I0210 21:24:46.418038 28772 net.cpp:411] ip2 -> ip2
I0210 21:24:46.418980 28772 net.cpp:150] Setting up ip2
I0210 21:24:46.418994 28772 net.cpp:157] Top shape: 43 10 (430)
I0210 21:24:46.418999 28772 net.cpp:165] Memory required for data: 3473540
I0210 21:24:46.419008 28772 layer_factory.hpp:77] Creating layer loss
I0210 21:24:46.419020 28772 net.cpp:106] Creating Layer loss
I0210 21:24:46.419028 28772 net.cpp:454] loss <- ip2
I0210 21:24:46.419034 28772 net.cpp:454] loss <- label
I0210 21:24:46.419042 28772 net.cpp:411] loss -> loss
I0210 21:24:46.419062 28772 layer_factory.hpp:77] Creating layer loss
…
I0210 21:24:46.420469 28772 solver.cpp:181] Creating test net (#0) specified by net file: examples/mnist/lenet_train_test.prototxt
I0210 21:24:46.420534 28772 net.cpp:322] The NetState phase (1) differed from the phase (0) specified by a rule in layer mnist
I0210 21:24:46.420716 28772 net.cpp:49] Initializing net from parameters: 
name: "LeNet"
state {
  phase: TEST
}
layer {
  name: "mnist"
  type: "Data"
  top: "data"
  top: "label"
  include {
    phase: TEST
  }
  transform_param {
    scale: 0.00390625
  }
  data_param {
    source: "examples/mnist/mnist_test_lmdb"
    batch_size: 100
    backend: LMDB
  }
}
layer {
  name: "conv1"
  type: "Convolution"
  bottom: "data"
  top: "conv1"
  param {
    lr_mult: 1
  }
  param {
    lr_mult: 2
  }
  convolution_param {
    num_output: 20
    kernel_size: 5
    stride: 1
    weight_filler {
      type: "xavier"
    }
    bias_filler {
      type: "constant"
    }
  }
}
layer {
  name: "pool1"
  type: "Pooling"
  bottom: "conv1"
  top: "pool1"
  pooling_param {
    pool: MAX
    kernel_size: 2
    stride: 2
  }
}
layer {
  name: "conv2"
  type: "Convolution"
  bottom: "pool1"
  top: "conv2"
  param {
    lr_mult: 1
  }
  param {
    lr_mult: 2
  }
  convolution_param {
    num_output: 50
    kernel_size: 5
    stride: 1
    weight_filler {
      type: "xavier"
    }
    bias_filler {
      type: "constant"
    }
  }
}
layer {
  name: "pool2"
  type: "Pooling"
  bottom: "conv2"
  top: "pool2"
  pooling_param {
    pool: MAX
    kernel_size: 2
    stride: 2
  }
}
layer {
  name: "ip1"
  type: "InnerProduct"
  bottom: "pool2"
  top: "ip1"
  param {
    lr_mult: 1
  }
  param {
    lr_mult: 2
  }
  inner_product_param {
    num_output: 500
    weight_filler {
      type: "xavier"
    }
    bias_filler {
      type: "constant"
    }
  }
}
layer {
  name: "relu1"
  type: "ReLU"
  bottom: "ip1"
  top: "ip1"
}
layer {
  name: "ip2"
  type: "InnerProduct"
  bottom: "ip1"
  top: "ip2"
  param {
    lr_mult: 1
  }
  param {
    lr_mult: 2
  }
  inner_product_param {
    num_output: 10
    weight_filler {
      type: "xavier"
    }
    bias_filler {
      type: "constant"
    }
  }
}
layer {
  name: "accuracy"
  type: "Accuracy"
  bottom: "ip2"
  bottom: "label"
  top: "accuracy"
  include {
    phase: TEST
  }
}
layer {
  name: "loss"
  type: "SoftmaxWithLoss"
  bottom: "ip2"
  bottom: "label"
  top: "loss"
}
I0210 21:24:46.420819 28772 layer_factory.hpp:77] Creating layer mnist
I0210 21:24:46.420972 28772 net.cpp:106] Creating Layer mnist
I0210 21:24:46.420986 28772 net.cpp:411] mnist -> data
I0210 21:24:46.420999 28772 net.cpp:411] mnist -> label
I0210 21:24:46.426069 28778 db_lmdb.cpp:38] Opened lmdb examples/mnist/mnist_test_lmdb
I0210 21:24:46.426395 28772 data_layer.cpp:41] output data size: 100,1,28,28
I0210 21:24:46.428133 28772 net.cpp:150] Setting up mnist
I0210 21:24:46.428151 28772 net.cpp:157] Top shape: 100 1 28 28 (78400)
I0210 21:24:46.428159 28772 net.cpp:157] Top shape: 100 (100)
I0210 21:24:46.428164 28772 net.cpp:165] Memory required for data: 314000
I0210 21:24:46.428170 28772 layer_factory.hpp:77] Creating layer label_mnist_1_split
I0210 21:24:46.428184 28772 net.cpp:106] Creating Layer label_mnist_1_split
I0210 21:24:46.428191 28772 net.cpp:454] label_mnist_1_split <- label
I0210 21:24:46.428215 28772 net.cpp:411] label_mnist_1_split -> label_mnist_1_split_0
I0210 21:24:46.428227 28772 net.cpp:411] label_mnist_1_split -> label_mnist_1_split_1
I0210 21:24:46.428442 28772 net.cpp:150] Setting up label_mnist_1_split
I0210 21:24:46.428457 28772 net.cpp:157] Top shape: 100 (100)
I0210 21:24:46.428464 28772 net.cpp:157] Top shape: 100 (100)
I0210 21:24:46.428472 28772 net.cpp:165] Memory required for data: 314800
I0210 21:24:46.428478 28772 layer_factory.hpp:77] Creating layer conv1
I0210 21:24:46.428494 28772 net.cpp:106] Creating Layer conv1
I0210 21:24:46.428503 28772 net.cpp:454] conv1 <- data
I0210 21:24:46.428517 28772 net.cpp:411] conv1 -> conv1
I0210 21:24:46.428834 28772 net.cpp:150] Setting up conv1
I0210 21:24:46.428850 28772 net.cpp:157] Top shape: 100 20 24 24 (1152000)
I0210 21:24:46.428858 28772 net.cpp:165] Memory required for data: 4922800
I0210 21:24:46.428880 28772 layer_factory.hpp:77] Creating layer pool1
I0210 21:24:46.428939 28772 net.cpp:106] Creating Layer pool1
I0210 21:24:46.428956 28772 net.cpp:454] pool1 <- conv1
I0210 21:24:46.428980 28772 net.cpp:411] pool1 -> pool1
I0210 21:24:46.429241 28772 net.cpp:150] Setting up pool1
I0210 21:24:46.429258 28772 net.cpp:157] Top shape: 100 20 12 12 (288000)
I0210 21:24:46.429265 28772 net.cpp:165] Memory required for data: 6074800
I0210 21:24:46.429272 28772 layer_factory.hpp:77] Creating layer conv2
I0210 21:24:46.429291 28772 net.cpp:106] Creating Layer conv2
I0210 21:24:46.429299 28772 net.cpp:454] conv2 <- pool1
I0210 21:24:46.429311 28772 net.cpp:411] conv2 -> conv2
I0210 21:24:46.429862 28772 net.cpp:150] Setting up conv2
I0210 21:24:46.429877 28772 net.cpp:157] Top shape: 100 50 8 8 (320000)
I0210 21:24:46.429883 28772 net.cpp:165] Memory required for data: 7354800
I0210 21:24:46.429903 28772 layer_factory.hpp:77] Creating layer pool2
I0210 21:24:46.429927 28772 net.cpp:106] Creating Layer pool2
I0210 21:24:46.429942 28772 net.cpp:454] pool2 <- conv2
I0210 21:24:46.429961 28772 net.cpp:411] pool2 -> pool2
I0210 21:24:46.430209 28772 net.cpp:150] Setting up pool2
I0210 21:24:46.430225 28772 net.cpp:157] Top shape: 100 50 4 4 (80000)
I0210 21:24:46.430233 28772 net.cpp:165] Memory required for data: 7674800
I0210 21:24:46.430239 28772 layer_factory.hpp:77] Creating layer ip1
I0210 21:24:46.430251 28772 net.cpp:106] Creating Layer ip1
I0210 21:24:46.430259 28772 net.cpp:454] ip1 <- pool2
I0210 21:24:46.430274 28772 net.cpp:411] ip1 -> ip1
I0210 21:24:46.436872 28772 net.cpp:150] Setting up ip1
I0210 21:24:46.436908 28772 net.cpp:157] Top shape: 100 500 (50000)
I0210 21:24:46.436916 28772 net.cpp:165] Memory required for data: 7874800
I0210 21:24:46.436935 28772 layer_factory.hpp:77] Creating layer relu1
I0210 21:24:46.436950 28772 net.cpp:106] Creating Layer relu1
I0210 21:24:46.436962 28772 net.cpp:454] relu1 <- ip1
I0210 21:24:46.436975 28772 net.cpp:397] relu1 -> ip1 (in-place)
I0210 21:24:46.436991 28772 net.cpp:150] Setting up relu1
I0210 21:24:46.437003 28772 net.cpp:157] Top shape: 100 500 (50000)
I0210 21:24:46.437011 28772 net.cpp:165] Memory required for data: 8074800
I0210 21:24:46.437018 28772 layer_factory.hpp:77] Creating layer ip2
I0210 21:24:46.437038 28772 net.cpp:106] Creating Layer ip2
I0210 21:24:46.437048 28772 net.cpp:454] ip2 <- ip1
I0210 21:24:46.437062 28772 net.cpp:411] ip2 -> ip2
I0210 21:24:46.437314 28772 net.cpp:150] Setting up ip2
I0210 21:24:46.437341 28772 net.cpp:157] Top shape: 100 10 (1000)
I0210 21:24:46.437350 28772 net.cpp:165] Memory required for data: 8078800
I0210 21:24:46.437363 28772 layer_factory.hpp:77] Creating layer ip2_ip2_0_split
I0210 21:24:46.437377 28772 net.cpp:106] Creating Layer ip2_ip2_0_split
I0210 21:24:46.437387 28772 net.cpp:454] ip2_ip2_0_split <- ip2
I0210 21:24:46.437399 28772 net.cpp:411] ip2_ip2_0_split -> ip2_ip2_0_split_0
I0210 21:24:46.437414 28772 net.cpp:411] ip2_ip2_0_split -> ip2_ip2_0_split_1
I0210 21:24:46.437484 28772 net.cpp:150] Setting up ip2_ip2_0_split
I0210 21:24:46.437500 28772 net.cpp:157] Top shape: 100 10 (1000)
I0210 21:24:46.437510 28772 net.cpp:157] Top shape: 100 10 (1000)
I0210 21:24:46.437520 28772 net.cpp:165] Memory required for data: 8086800
I0210 21:24:46.437527 28772 layer_factory.hpp:77] Creating layer accuracy
I0210 21:24:46.437546 28772 net.cpp:106] Creating Layer accuracy
I0210 21:24:46.437557 28772 net.cpp:454] accuracy <- ip2_ip2_0_split_0
I0210 21:24:46.437567 28772 net.cpp:454] accuracy <- label_mnist_1_split_0
I0210 21:24:46.437582 28772 net.cpp:411] accuracy -> accuracy
…
