…
I0210 21:24:56.129218 28794 net.cpp:322] The NetState phase (0) differed from the phase (1) specified by a rule in layer mnist
I0210 21:24:56.129246 28794 net.cpp:322] The NetState phase (0) differed from the phase (1) specified by a rule in layer accuracy
I0210 21:24:56.129386 28794 net.cpp:49] Initializing net from parameters: 
name: "LeNet"
state {
  phase: TRAIN
}
layer {
  name: "mnist"
  type: "Data"
  top: "data"
  top: "label"
  include {
    phase: TRAIN
  }
  transform_param {
    scale: 0.00390625
  }
  data_param {
    source: "examples/mnist/mnist_train_lmdb"
    batch_size: 43
    backend: LMDB
  }
}
layer {
  name: "conv1"
  type: "Convolution"
  bottom: "data"
  top: "conv1"
  param {
    lr_mult: 1
  }
  param {
    lr_mult: 2
  }
  convolution_param {
    num_output: 20
    kernel_size: 5
    stride: 1
    weight_filler {
      type: "xavier"
    }
    bias_filler {
      type: "constant"
    }
  }
}
layer {
  name: "pool1"
  type: "Pooling"
  bottom: "conv1"
  top: "pool1"
  pooling_param {
    pool: MAX
    kernel_size: 2
    stride: 2
  }
}
layer {
  name: "conv2"
  type: "Convolution"
  bottom: "pool1"
  top: "conv2"
  param {
    lr_mult: 1
  }
  param {
    lr_mult: 2
  }
  convolution_param {
    num_output: 50
    kernel_size: 5
    stride: 1
    weight_filler {
      type: "xavier"
    }
    bias_filler {
      type: "constant"
    }
  }
}
layer {
  name: "pool2"
  type: "Pooling"
  bottom: "conv2"
  top: "pool2"
  pooling_param {
    pool: MAX
    kernel_size: 2
    stride: 2
  }
}
layer {
  name: "ip1"
  type: "InnerProduct"
  bottom: "pool2"
  top: "ip1"
  param {
    lr_mult: 1
  }
  param {
    lr_mult: 2
  }
  inner_product_param {
    num_output: 500
    weight_filler {
      type: "xavier"
    }
    bias_filler {
      type: "constant"
    }
  }
}
layer {
  name: "relu1"
  type: "ReLU"
  bottom: "ip1"
  top: "ip1"
}
layer {
  name: "ip2"
  type: "InnerProduct"
  bottom: "ip1"
  top: "ip2"
  param {
    lr_mult: 1
  }
  param {
    lr_mult: 2
  }
  inner_product_param {
    num_output: 10
    weight_filler {
      type: "xavier"
    }
    bias_filler {
      type: "constant"
    }
  }
}
layer {
  name: "loss"
  type: "SoftmaxWithLoss"
  bottom: "ip2"
  bottom: "label"
  top: "loss"
}
I0210 21:24:56.129484 28794 layer_factory.hpp:77] Creating layer mnist
I0210 21:24:56.130197 28794 net.cpp:106] Creating Layer mnist
I0210 21:24:56.130213 28794 net.cpp:411] mnist -> data
I0210 21:24:56.130256 28794 net.cpp:411] mnist -> label
I0210 21:24:56.135720 28798 db_lmdb.cpp:38] Opened lmdb examples/mnist/mnist_train_lmdb
I0210 21:24:56.153496 28794 data_layer.cpp:41] output data size: 43,1,28,28
I0210 21:24:56.155113 28794 net.cpp:150] Setting up mnist
I0210 21:24:56.155138 28794 net.cpp:157] Top shape: 43 1 28 28 (33712)
I0210 21:24:56.155148 28794 net.cpp:157] Top shape: 43 (43)
I0210 21:24:56.155151 28794 net.cpp:165] Memory required for data: 135020
I0210 21:24:56.155179 28794 layer_factory.hpp:77] Creating layer conv1
I0210 21:24:56.155220 28794 net.cpp:106] Creating Layer conv1
I0210 21:24:56.155232 28794 net.cpp:454] conv1 <- data
I0210 21:24:56.155254 28794 net.cpp:411] conv1 -> conv1
I0210 21:24:56.156764 28794 net.cpp:150] Setting up conv1
I0210 21:24:56.156780 28794 net.cpp:157] Top shape: 43 20 24 24 (495360)
I0210 21:24:56.156785 28794 net.cpp:165] Memory required for data: 2116460
I0210 21:24:56.156802 28794 layer_factory.hpp:77] Creating layer pool1
I0210 21:24:56.156821 28794 net.cpp:106] Creating Layer pool1
I0210 21:24:56.156827 28794 net.cpp:454] pool1 <- conv1
I0210 21:24:56.156841 28794 net.cpp:411] pool1 -> pool1
I0210 21:24:56.157059 28794 net.cpp:150] Setting up pool1
I0210 21:24:56.157071 28794 net.cpp:157] Top shape: 43 20 12 12 (123840)
I0210 21:24:56.157076 28794 net.cpp:165] Memory required for data: 2611820
I0210 21:24:56.157081 28794 layer_factory.hpp:77] Creating layer conv2
I0210 21:24:56.157099 28794 net.cpp:106] Creating Layer conv2
I0210 21:24:56.157104 28794 net.cpp:454] conv2 <- pool1
I0210 21:24:56.157115 28794 net.cpp:411] conv2 -> conv2
I0210 21:24:56.157544 28794 net.cpp:150] Setting up conv2
I0210 21:24:56.157557 28794 net.cpp:157] Top shape: 43 50 8 8 (137600)
I0210 21:24:56.157562 28794 net.cpp:165] Memory required for data: 3162220
I0210 21:24:56.157573 28794 layer_factory.hpp:77] Creating layer pool2
I0210 21:24:56.157588 28794 net.cpp:106] Creating Layer pool2
I0210 21:24:56.157594 28794 net.cpp:454] pool2 <- conv2
I0210 21:24:56.157603 28794 net.cpp:411] pool2 -> pool2
I0210 21:24:56.157757 28794 net.cpp:150] Setting up pool2
I0210 21:24:56.157771 28794 net.cpp:157] Top shape: 43 50 4 4 (34400)
I0210 21:24:56.157776 28794 net.cpp:165] Memory required for data: 3299820
I0210 21:24:56.157781 28794 layer_factory.hpp:77] Creating layer ip1
I0210 21:24:56.157798 28794 net.cpp:106] Creating Layer ip1
I0210 21:24:56.157804 28794 net.cpp:454] ip1 <- pool2
I0210 21:24:56.157811 28794 net.cpp:411] ip1 -> ip1
I0210 21:24:56.159528 28799 blocking_queue.cpp:50] Waiting for data
I0210 21:24:56.163301 28794 net.cpp:150] Setting up ip1
I0210 21:24:56.163317 28794 net.cpp:157] Top shape: 43 500 (21500)
I0210 21:24:56.163322 28794 net.cpp:165] Memory required for data: 3385820
I0210 21:24:56.163334 28794 layer_factory.hpp:77] Creating layer relu1
I0210 21:24:56.163349 28794 net.cpp:106] Creating Layer relu1
I0210 21:24:56.163357 28794 net.cpp:454] relu1 <- ip1
I0210 21:24:56.163364 28794 net.cpp:397] relu1 -> ip1 (in-place)
I0210 21:24:56.163377 28794 net.cpp:150] Setting up relu1
I0210 21:24:56.163384 28794 net.cpp:157] Top shape: 43 500 (21500)
I0210 21:24:56.163388 28794 net.cpp:165] Memory required for data: 3471820
I0210 21:24:56.163393 28794 layer_factory.hpp:77] Creating layer ip2
I0210 21:24:56.163404 28794 net.cpp:106] Creating Layer ip2
I0210 21:24:56.163410 28794 net.cpp:454] ip2 <- ip1
I0210 21:24:56.163421 28794 net.cpp:411] ip2 -> ip2
I0210 21:24:56.164561 28794 net.cpp:150] Setting up ip2
I0210 21:24:56.164575 28794 net.cpp:157] Top shape: 43 10 (430)
I0210 21:24:56.164580 28794 net.cpp:165] Memory required for data: 3473540
I0210 21:24:56.164588 28794 layer_factory.hpp:77] Creating layer loss
I0210 21:24:56.164602 28794 net.cpp:106] Creating Layer loss
I0210 21:24:56.164608 28794 net.cpp:454] loss <- ip2
I0210 21:24:56.164614 28794 net.cpp:454] loss <- label
I0210 21:24:56.164623 28794 net.cpp:411] loss -> loss
I0210 21:24:56.164647 28794 layer_factory.hpp:77] Creating layer loss
…
I0210 21:24:56.166031 28794 solver.cpp:181] Creating test net (#0) specified by net file: examples/mnist/lenet_train_test.prototxt
I0210 21:24:56.166076 28794 net.cpp:322] The NetState phase (1) differed from the phase (0) specified by a rule in layer mnist
I0210 21:24:56.166260 28794 net.cpp:49] Initializing net from parameters: 
name: "LeNet"
state {
  phase: TEST
}
layer {
  name: "mnist"
  type: "Data"
  top: "data"
  top: "label"
  include {
    phase: TEST
  }
  transform_param {
    scale: 0.00390625
  }
  data_param {
    source: "examples/mnist/mnist_test_lmdb"
    batch_size: 100
    backend: LMDB
  }
}
layer {
  name: "conv1"
  type: "Convolution"
  bottom: "data"
  top: "conv1"
  param {
    lr_mult: 1
  }
  param {
    lr_mult: 2
  }
  convolution_param {
    num_output: 20
    kernel_size: 5
    stride: 1
    weight_filler {
      type: "xavier"
    }
    bias_filler {
      type: "constant"
    }
  }
}
layer {
  name: "pool1"
  type: "Pooling"
  bottom: "conv1"
  top: "pool1"
  pooling_param {
    pool: MAX
    kernel_size: 2
    stride: 2
  }
}
layer {
  name: "conv2"
  type: "Convolution"
  bottom: "pool1"
  top: "conv2"
  param {
    lr_mult: 1
  }
  param {
    lr_mult: 2
  }
  convolution_param {
    num_output: 50
    kernel_size: 5
    stride: 1
    weight_filler {
      type: "xavier"
    }
    bias_filler {
      type: "constant"
    }
  }
}
layer {
  name: "pool2"
  type: "Pooling"
  bottom: "conv2"
  top: "pool2"
  pooling_param {
    pool: MAX
    kernel_size: 2
    stride: 2
  }
}
layer {
  name: "ip1"
  type: "InnerProduct"
  bottom: "pool2"
  top: "ip1"
  param {
    lr_mult: 1
  }
  param {
    lr_mult: 2
  }
  inner_product_param {
    num_output: 500
    weight_filler {
      type: "xavier"
    }
    bias_filler {
      type: "constant"
    }
  }
}
layer {
  name: "relu1"
  type: "ReLU"
  bottom: "ip1"
  top: "ip1"
}
layer {
  name: "ip2"
  type: "InnerProduct"
  bottom: "ip1"
  top: "ip2"
  param {
    lr_mult: 1
  }
  param {
    lr_mult: 2
  }
  inner_product_param {
    num_output: 10
    weight_filler {
      type: "xavier"
    }
    bias_filler {
      type: "constant"
    }
  }
}
layer {
  name: "accuracy"
  type: "Accuracy"
  bottom: "ip2"
  bottom: "label"
  top: "accuracy"
  include {
    phase: TEST
  }
}
layer {
  name: "loss"
  type: "SoftmaxWithLoss"
  bottom: "ip2"
  bottom: "label"
  top: "loss"
}
I0210 21:24:56.166368 28794 layer_factory.hpp:77] Creating layer mnist
I0210 21:24:56.166517 28794 net.cpp:106] Creating Layer mnist
I0210 21:24:56.166533 28794 net.cpp:411] mnist -> data
I0210 21:24:56.166544 28794 net.cpp:411] mnist -> label
I0210 21:24:56.171541 28800 db_lmdb.cpp:38] Opened lmdb examples/mnist/mnist_test_lmdb
I0210 21:24:56.171939 28794 data_layer.cpp:41] output data size: 100,1,28,28
I0210 21:24:56.173782 28794 net.cpp:150] Setting up mnist
I0210 21:24:56.173799 28794 net.cpp:157] Top shape: 100 1 28 28 (78400)
I0210 21:24:56.173805 28794 net.cpp:157] Top shape: 100 (100)
I0210 21:24:56.173810 28794 net.cpp:165] Memory required for data: 314000
I0210 21:24:56.173815 28794 layer_factory.hpp:77] Creating layer label_mnist_1_split
I0210 21:24:56.173827 28794 net.cpp:106] Creating Layer label_mnist_1_split
I0210 21:24:56.173833 28794 net.cpp:454] label_mnist_1_split <- label
I0210 21:24:56.173841 28794 net.cpp:411] label_mnist_1_split -> label_mnist_1_split_0
I0210 21:24:56.173853 28794 net.cpp:411] label_mnist_1_split -> label_mnist_1_split_1
I0210 21:24:56.173995 28794 net.cpp:150] Setting up label_mnist_1_split
I0210 21:24:56.174007 28794 net.cpp:157] Top shape: 100 (100)
I0210 21:24:56.174013 28794 net.cpp:157] Top shape: 100 (100)
I0210 21:24:56.174018 28794 net.cpp:165] Memory required for data: 314800
I0210 21:24:56.174026 28794 layer_factory.hpp:77] Creating layer conv1
I0210 21:24:56.174042 28794 net.cpp:106] Creating Layer conv1
I0210 21:24:56.174048 28794 net.cpp:454] conv1 <- data
I0210 21:24:56.174062 28794 net.cpp:411] conv1 -> conv1
I0210 21:24:56.174407 28794 net.cpp:150] Setting up conv1
I0210 21:24:56.174420 28794 net.cpp:157] Top shape: 100 20 24 24 (1152000)
I0210 21:24:56.174425 28794 net.cpp:165] Memory required for data: 4922800
I0210 21:24:56.174437 28794 layer_factory.hpp:77] Creating layer pool1
I0210 21:24:56.174468 28794 net.cpp:106] Creating Layer pool1
I0210 21:24:56.174474 28794 net.cpp:454] pool1 <- conv1
I0210 21:24:56.174484 28794 net.cpp:411] pool1 -> pool1
I0210 21:24:56.174643 28794 net.cpp:150] Setting up pool1
I0210 21:24:56.174655 28794 net.cpp:157] Top shape: 100 20 12 12 (288000)
I0210 21:24:56.174659 28794 net.cpp:165] Memory required for data: 6074800
I0210 21:24:56.174664 28794 layer_factory.hpp:77] Creating layer conv2
I0210 21:24:56.174684 28794 net.cpp:106] Creating Layer conv2
I0210 21:24:56.174690 28794 net.cpp:454] conv2 <- pool1
I0210 21:24:56.174702 28794 net.cpp:411] conv2 -> conv2
I0210 21:24:56.175156 28794 net.cpp:150] Setting up conv2
I0210 21:24:56.175168 28794 net.cpp:157] Top shape: 100 50 8 8 (320000)
I0210 21:24:56.175174 28794 net.cpp:165] Memory required for data: 7354800
I0210 21:24:56.175184 28794 layer_factory.hpp:77] Creating layer pool2
I0210 21:24:56.175197 28794 net.cpp:106] Creating Layer pool2
I0210 21:24:56.175204 28794 net.cpp:454] pool2 <- conv2
I0210 21:24:56.175211 28794 net.cpp:411] pool2 -> pool2
I0210 21:24:56.175365 28794 net.cpp:150] Setting up pool2
I0210 21:24:56.175379 28794 net.cpp:157] Top shape: 100 50 4 4 (80000)
I0210 21:24:56.175384 28794 net.cpp:165] Memory required for data: 7674800
I0210 21:24:56.175389 28794 layer_factory.hpp:77] Creating layer ip1
I0210 21:24:56.175398 28794 net.cpp:106] Creating Layer ip1
I0210 21:24:56.175405 28794 net.cpp:454] ip1 <- pool2
I0210 21:24:56.175415 28794 net.cpp:411] ip1 -> ip1
I0210 21:24:56.180902 28794 net.cpp:150] Setting up ip1
I0210 21:24:56.180918 28794 net.cpp:157] Top shape: 100 500 (50000)
I0210 21:24:56.180923 28794 net.cpp:165] Memory required for data: 7874800
I0210 21:24:56.180938 28794 layer_factory.hpp:77] Creating layer relu1
I0210 21:24:56.180948 28794 net.cpp:106] Creating Layer relu1
I0210 21:24:56.180954 28794 net.cpp:454] relu1 <- ip1
I0210 21:24:56.180979 28794 net.cpp:397] relu1 -> ip1 (in-place)
I0210 21:24:56.180990 28794 net.cpp:150] Setting up relu1
I0210 21:24:56.180999 28794 net.cpp:157] Top shape: 100 500 (50000)
I0210 21:24:56.181004 28794 net.cpp:165] Memory required for data: 8074800
I0210 21:24:56.181008 28794 layer_factory.hpp:77] Creating layer ip2
I0210 21:24:56.181020 28794 net.cpp:106] Creating Layer ip2
I0210 21:24:56.181025 28794 net.cpp:454] ip2 <- ip1
I0210 21:24:56.181037 28794 net.cpp:411] ip2 -> ip2
I0210 21:24:56.181200 28794 net.cpp:150] Setting up ip2
I0210 21:24:56.181211 28794 net.cpp:157] Top shape: 100 10 (1000)
I0210 21:24:56.181216 28794 net.cpp:165] Memory required for data: 8078800
I0210 21:24:56.181226 28794 layer_factory.hpp:77] Creating layer ip2_ip2_0_split
I0210 21:24:56.181236 28794 net.cpp:106] Creating Layer ip2_ip2_0_split
I0210 21:24:56.181241 28794 net.cpp:454] ip2_ip2_0_split <- ip2
I0210 21:24:56.181249 28794 net.cpp:411] ip2_ip2_0_split -> ip2_ip2_0_split_0
I0210 21:24:56.181259 28794 net.cpp:411] ip2_ip2_0_split -> ip2_ip2_0_split_1
I0210 21:24:56.181303 28794 net.cpp:150] Setting up ip2_ip2_0_split
I0210 21:24:56.181313 28794 net.cpp:157] Top shape: 100 10 (1000)
I0210 21:24:56.181319 28794 net.cpp:157] Top shape: 100 10 (1000)
I0210 21:24:56.181324 28794 net.cpp:165] Memory required for data: 8086800
I0210 21:24:56.181329 28794 layer_factory.hpp:77] Creating layer accuracy
I0210 21:24:56.181344 28794 net.cpp:106] Creating Layer accuracy
I0210 21:24:56.181349 28794 net.cpp:454] accuracy <- ip2_ip2_0_split_0
I0210 21:24:56.181357 28794 net.cpp:454] accuracy <- label_mnist_1_split_0
I0210 21:24:56.181366 28794 net.cpp:411] accuracy -> accuracy
…
